models/model_mt_c2_s0.1_b16_lr0.001_d0.5_e80.pth (torch, 6143 bytes, 10 tensors)

linear_stack.0.weight f4 [16, 16]
00000000: 848c d4bd 3a65 7a3e cd37 453e 1bb1 c23d
00000010: 86b8 1bbd ed8e 23be 0cf9 7a3d b0d3 c5bd
00000020: 9b15 393e 65d6 8aba 8b1e 7d3e 3741 363e
00000030: 6739 abbc 6ecf 143e 700d 38bc c63e 393e
00000040: cf2e d63d 4381 df3d 69ae 913d 0bbb 02be
00000050: 81fb 3b3e eb70 12bc 878e 123e 4339 473e
00000060: bfff 63be 1099 a7be b397 d4bd 9381 a93e
00000070: 9e1a 9fbd c28f 923d 9e1d 73bd 1680 3e3e
00000080: 6df6 cd3e 72fc 02bf 609d 9b3e e54a 64be
00000090: 14ec 52be 4686 79be 75e8 103e 3274 333d
000000a0: 8041 d53d 3cbd 0f3e e782 913d dd9a a9bd
000000b0: 029c 0fbe 7bb7 493e 8d44 723c 4006 123a
000000c0: 59a0 5a3d 3d4e 813e 7ec4 50be e9a9 893e
000000d0: 15d7 02bd ad6e 443d e26a 983d 6228 23bd
000000e0: df18 653d 4f72 ae3c 36bb 813e 4034 a73e
000000f0: 8b50 663b 4c5c 133e 462e 15be 6260 de3d
00000100: 2e32 b83e 8520 cd3e 2a97 0e3e 6b3f 07bd
00000110: f315 82be fbd5 86bd ed47 0d3e cf16 903d
00000120: 8630 81bc f591 cf3b f1ae 51be 1fe0 efbd
00000130: 8a92 053e 4352 333d c42c aabe 8abe 5dbe
00000140: f76a a93e 2e96 f13e b0f7 313e 3359 8abe
00000150: 765d b33d 1500 2fbd be24 383c b5e5 a53d
00000160: a314 3d3d e8f7 d4bc 0fe4 a7be b111 963c
00000170: 3d90 1b3e 6f49 cbbd d7e0 70bd ddde 9cbe
00000180: deb7 83be 236e aa3b d89b 86bc b409 af3d
00000190: 1094 153d aa74 fe3d 3641 1ebe c4cd 9cbd
000001a0: 317c 32bb d3fe bb3c d514 443e 16e9 c13e
000001b0: 017e 953d cb5d 53bd 40fa a8bd 2d54 f73d
000001c0: 9e85 8e3e 8a71 80bd c818 aebd c570 c6be
000001d0: 885c 99be 82da 4fbe 8fca 453e e17f 80bd
000001e0: d3f2 31be 619a 56be 26de 563e 4fa8 013e
000001f0: 50e2 503d c98c 0f3e c447 683e bd5d 9cbe
00000200: 999e 203e 5300 653e c858 3dbc bc60 2e3e
00000210: 4990 b43c 2c22 f53d 6b35 333d 83fc 06be
00000220: b23b bf3d 99af bcbd 7ffd b63e f2da 463e
00000230: 0d15 593c 15a1 933e 2b13 8fbd 1903 183d
00000240: 1b9e 3a3e 63ed 35be ce27 843c 7224 11be
00000250: a519 b4bc 99a1 15be bb8c c33d cefa 173d
00000260: bf90 513d 3d6a e9be 784a 2e3e c5fb 503e
00000270: 5da9 22be e3df 003f 8675 36be 703c 853e
00000280: b50f afbe 6c17 81bd f58b 3fbd 2c38 473d
00000290: 4ffa 593e c8a5 473d 5a84 f83d 9d9d 3c3c
000002a0: cc7e 5b3c a202 433d 9501 303e 5a8e 8c3e
000002b0: 46ba 5dbd 3e7e 623e a36e a0be 4fac b73d
000002c0: 40c1 9ebe dd8e 1bbd 2d22 ddbd e902 b1be
000002d0: 6521 34bb babb d5bd 344c 3ebd e77f 7a3d
000002e0: 130c b3bd 8455 19be bb40 a4be df67 813e
000002f0: 3f22 54be d3d2 383e 6f4d a93e bf0e c53b
00000300: c3a9 8b3e 1fab 1cbf 2626 febc b416 143e
00000310: dd19 80be 3bb9 fcbd 9a55 98bd 21f2 bc3c
00000320: 99c4 1a3e 9e15 9e3c 122c de3d 4e0d 74bd
00000330: 8f0d 51be 3aa5 fc3d 7387 8e3e 24a0 81be
00000340: b34c bebe 6234 2fbe efec 15bd 260d 15bd
00000350: d9d1 063e 2e03 89bd c645 6abe bc1a 9dbd
00000360: e6c0 d63e b9a2 963c 8db1 a73d d311 9a3e
00000370: dde1 053c 45a7 3ebe 346b 843e 556d 2bbd
00000380: 2282 393e de8f 893e 2442 28bd 8abd c2bd
00000390: 0107 11be 88db 003c bda0 c03c 6bd9 283e
000003a0: e7d4 3d3e 0bbf 70be 120f c7bc ee65 26be
000003b0: 4ac4 6d3d 9955 88bb 8251 0ebf 6bc3 8ebe
000003c0: 49ae ba3d 0a0b 14bf 40ab cbbd aae9 ad3d
000003d0: 0b49 383d 4e35 06be 9f5e 7fbd edd5 0f3e
000003e0: 2cad af3d ff51 d5be 5bcd 8a3d 4915 653e
000003f0: 69c3 c5bd 8794 b73e 6944 d2bd 5c12 2cbc
-0.10378364 0.24452677 0.19259568 0.095064364 -0.038017772 -0.1597249 0.061272666 -0.09659517
0.18074648 -0.0010592459 0.24718682 0.17798315 -0.020901395 0.14532253 -0.0112336725 0.18090352
0.10458147 0.109133266 0.07113344 -0.12766664 0.1835766 -0.008938055 0.14312182 0.19455437
-0.22265528 -0.32733965 -0.10380497 0.3310667 -0.07768749 0.07156326 -0.059354417 0.18603548
0.4022707 -0.5116645 0.30393505 -0.22294195 -0.20597869 -0.24367628 0.14151175 0.043811984
0.10412884 0.14037031 0.07105046 -0.08281491 -0.14024356 0.19698898 0.014786852 0.00055703893
0.053375576 0.25255004 -0.20387456 0.26887444 -0.0319434 0.04795711 0.07442261 -0.039833434
0.055931922 0.021294741 0.25338143 0.3265705 0.0035143222 0.14390677 -0.14568433 0.10858227
0.35975784 0.40063873 0.13924852 -0.033019464 -0.2540737 -0.06583782 0.13796969 0.070356004
-0.015770208 0.006334538 -0.20476891 -0.117126696 0.13044181 0.043779623 -0.33237278 -0.21654716
0.3308942 0.4718489 0.17379642 -0.2702118 0.08758061 -0.042724688 0.011239229 0.08100454
0.04616226 -0.025997117 -0.32791182 0.018318983 0.15191741 -0.09926116 -0.058808174 -0.3063878
-0.25726217 0.0052011176 -0.016431734 0.085467726 0.036518157 0.12424596 -0.15454563 -0.07656434
-0.0027234668 0.022948658 0.19148572 0.37873143 0.07299424 -0.05160312 -0.082508564 0.12076602
0.27836317 -0.06271656 -0.085008204 -0.3875791 -0.29953408 -0.20298198 0.19315551 -0.06274391
-0.17377786 -0.20957328 0.2098318 0.12661861 0.05099708 0.14018549 0.22683626 -0.30540267
0.156855 0.22363405 -0.011556812 0.17029089 0.022041457 0.119694084 0.043752115 -0.13182263
0.09337558 -0.0921318 0.35740277 0.19419459 0.013249648 0.28833833 -0.06986078 0.03711233
0.18224375 -0.17766337 0.016132262 -0.14174059 -0.021984885 -0.14612426 0.095483266 0.03710442
0.05116343 -0.45588866 0.17020595 0.20408542 -0.1588492 0.50341624 -0.17818269 0.26022673
-0.3419167 -0.063032955 -0.046764333 0.048637554 0.21286891 0.048742086 0.12134619 0.011512187
0.01339693 0.047609933 0.17188103 0.27452356 -0.054132722 0.2211847 -0.3133441 0.08968412
-0.31006813 -0.037978042 -0.10797534 -0.34572533 -0.0027485725 -0.104361966 -0.04645939 0.061157133
-0.08742537 -0.14974028 -0.32080635 0.2527456 -0.20716189 0.18049173 0.3306689 0.0060137208
0.27277955 -0.6119861 -0.03102405 0.14461786 -0.25019732 -0.123400174 -0.07438202 0.023064675
0.15114059 0.019297417 0.108482495 -0.059583 -0.20415328 0.12336202 0.27837715 -0.2531749
-0.37167892 -0.17109826 -0.03660291 -0.036389492 0.13165988 -0.066900596 -0.22878179 -0.07671115
0.41944045 0.01838814 0.08188162 0.30091724 0.008171526 -0.18618496 0.2586304 -0.041852314
0.18116048 0.26867574 -0.0410787 -0.09508808 -0.14162828 0.00786484 0.023514146 0.16489188
0.18538247 -0.23510377 -0.024299178 -0.1624982 0.058048524 -0.0041605947 -0.5559312 -0.27883467
0.091152735 -0.57829344 -0.09944773 0.084918335 0.044991534 -0.13106272 -0.062346097 0.1404645
0.08577952 -0.4166412 0.0677745 0.22371401 -0.09656412 0.35855505 -0.102669545 -0.010502424

linear_stack.0.bias f4 [16]
00000000: f73f 94be aa6a a0be 73f0 1bbe d5b7 03bf
00000010: 71cf e3bd dfff 17be d5c3 b0be b367 95be
00000020: 422c 99be fd68 4bbe c1be d2be 99fa cfbe
00000030: 5597 29bc 0b6d 9dbe f121 a0be ff94 80be
-0.2895505 -0.31331378 -0.15228443 -0.5145238 -0.11123551 -0.14843701 -0.34524408 -0.2918068
-0.2991658 -0.19864269 -0.4116116 -0.40620878 -0.010351022 -0.30747256 -0.31275895 -0.25113675

linear_stack.3.weight f4 [8, 16]
00000000: e6fc 823e 08f2 f9bd 13fa a3be bd1f 6e3e
00000010: cc97 593e 46e7 633d 2803 9d3d 0358 babe
00000020: 6c57 d63d 74e3 ffbe 5319 1e3d 6ad1 f5be
00000030: 5a27 c5be afbd ac3e 6d26 9d3e d939 90be
00000040: 4e38 2c3e f8b8 febd c154 c2be 7505 a13e
00000050: 0acb debd 6c18 96be 3a66 023e 85bd e0be
00000060: 4762 073e 41e0 ddbe 0214 cf3e 6689 0abe
00000070: 4bec 83be bf8f d93e e623 f5bc 39a6 28be
00000080: e540 bebc 00e7 943e 6a7c 53bc 84b4 00be
00000090: bc6d 8bbe 3863 84be 9820 cdbd 5146 2ebe
000000a0: 269e b2bd 79bd 4c3f 4ac1 b5bd f35e ba3d
000000b0: 36b5 193d 8593 2abe 273e f5bd 1ada c73e
000000c0: 7614 9d3e 3642 52bd a670 7cbd 94e7 8a3e
000000d0: 120b 413e ca83 c13e 7f17 9ebc 1e29 dcbc
000000e0: 4188 dfbd 0d6c 8abe f2b2 10bc 4131 88be
000000f0: e9f4 8cbd 819b 573e 4b6a 0d3e 67c1 36be
00000100: c055 583e dd07 73bd eb91 8fbe 784e 46bd
00000110: 837c 833e 0306 47bc a5b9 9e3e 5540 6bbe
00000120: 782f 8e3d 68f1 e3be 2411 1b3e 36a8 acbe
00000130: 54d8 83be 0ed9 a83e 92d8 333e 483b 43be
00000140: f439 a9bd af9b 82bc 0921 ddbd 2d8d 09be
00000150: b8d2 0f3e 4c7e 3b3e 3e6e 9a3d b9ba febb
00000160: 92b0 61bd e591 eebd 85bd 7abd b191 37be
00000170: ed28 5bbd 9b7c 81be ebaf aabe 60d8 6abe
00000180: c6db 8abd 7e65 be3e fcf4 7dbb 6950 05be
00000190: 8848 7fbe de90 a2be 5127 cdbd 7cc3 483d
000001a0: a7fc b4bd 0f6f 3a3f 2db8 99bd a330 883e
000001b0: 7f15 0bbd e234 72be dd6c 85bd 37bd 503e
000001c0: b73c a63d 1385 2bbe c789 86be 29ad 813e
000001d0: 9e15 c3bd 2d52 833e a8df 2e3e 9666 85be
000001e0: c484 0f3e b7f0 76be 553e ae3e ef91 8abe
000001f0: b25b b2be 30bc 063e 98ba 663e 26d5 80be
0.2558357 -0.12204367 -0.3202673 0.23254295 0.21249312 0.05564048 0.07666618 -0.36395273
0.10465893 -0.4997822 0.03859837 -0.48011333 -0.38506585 0.33738467 0.3069338 -0.28169134
0.16818354 -0.12437624 -0.37955287 0.31449476 -0.108785704 -0.29315507 0.12734309 -0.43894592
0.13221084 -0.43335155 0.40444952 -0.13528976 -0.25766215 0.42492482 -0.029924344 -0.16469659
-0.023224303 0.2908249 -0.012908081 -0.12568861 -0.27232158 -0.25856948 -0.100159824 -0.17019011
-0.08721571 0.7997661 -0.088747576 0.091001414 0.03752633 -0.16657837 -0.11974745 0.39033586
0.30679673 -0.051332675 -0.061630867 0.27129805 0.18851879 0.3779586 -0.019298313 -0.026875075
-0.1091466 -0.2703556 -0.008831726 -0.26600078 -0.068826504 0.21055414 0.13810079 -0.17847215
0.21126461 -0.05933367 -0.28041014 -0.048414677 0.25680932 -0.012147429 0.3100101 -0.2297376
0.06942648 -0.44520116 0.15143257 -0.33722085 -0.25750983 0.329781 0.17563084 -0.19065583
-0.08263007 -0.015943376 -0.107973166 -0.1343276 0.14045227 0.18309897 0.07540558 -0.007773724
-0.05510003 -0.11648921 -0.061215896 -0.1792667 -0.053505827 -0.2529038 -0.3333734 -0.22934103
-0.067802 0.37186807 -0.0038750758 -0.13018955 -0.24930012 -0.3175115 -0.10017265 0.049014553
-0.08837252 0.7282571 -0.07505832 0.26599607 -0.033956047 -0.23652986 -0.06514905 0.2038468
0.08117049 -0.16749983 -0.2627699 0.25327423 -0.095256075 0.25648633 0.17077506 -0.2605483
0.1401549 -0.24115263 0.3403193 -0.27064463 -0.34835583 0.13157725 0.22532117 -0.2516262

linear_stack.3.bias f4 [8]
00000000: e080 673d cdda 05be 836a f63d 0503 023d
00000010: 2984 88bc 69cc 1d3e 4f20 f13d 6392 2a3d
0.05651939 -0.13071747 0.12032034 0.03174116 -0.016664581 0.15410008 0.117737405 0.04164351

linear_stack.6.weight f4 [8, 8]
00000000: a713 20bd f6e9 923d b257 87be 9cba eebd
00000010: d9c3 8dbe 7430 8f3e 10bc 5ebd 2c50 b53e
00000020: 8c52 3d3e 3271 d93e 2fc7 0fbe b457 173e
00000030: 200c b53e 5af0 253e cb5f cfbd 31a1 d43e
00000040: 2547 48be 53ed dcbd 4359 243e c282 07be
00000050: d54f 0cbd a425 823d 9200 ea3e 365f 95be
00000060: 9eab be3e 956b cd3e 3f6c 74be a31d 2b3e
00000070: 6438 873e 78fc 40be fed3 e0be f6a0 a43d
00000080: c19c 9ebe 4425 a3be 88e4 3a3e c85a f8be
00000090: 9ae7 34be 1b67 48be 192e 123f 976a 45be
000000a0: 69a8 ab3e 15b4 343e 0600 a6be 2f8f 4c3e
000000b0: 27f4 fc3e f3be 8e3e 5c83 10be c99d 6c3e
000000c0: 5eff 59be 3740 80be c05f bd3e dfca b6be
000000d0: e0dd 48be 390e c4bd a311 be3e 6b25 5dbe
000000e0: 72eb c13d 5e75 803e 2571 72be 4992 ec3e
000000f0: efc2 493e 2425 88be c543 10bf 3999 a43e
-0.039081242 0.07173531 -0.26434094 -0.11656687 -0.27688482 0.27966654 -0.05437857 0.3541273
0.1848852 0.42469174 -0.14040826 0.1477955 0.35360813 0.16204968 -0.10125693 0.4152923
-0.1955839 -0.107874535 0.16049676 -0.13233474 -0.03425582 0.06354836 0.4570356 -0.29174203
0.3724031 0.4012114 -0.23869418 0.16710524 0.2641021 -0.18846309 -0.43911737 0.08038513
-0.3097897 -0.3186437 0.1825124 -0.4850676 -0.17666474 -0.19570582 0.5710159 -0.19278942
0.33526924 0.17646821 -0.32421893 0.19976495 0.49405023 0.27880058 -0.1411261 0.23107065
-0.21288821 -0.25048992 0.36987114 -0.35701653 -0.19615889 -0.09573025 0.3712283 -0.21596305
0.09468736 0.25089544 -0.23675974 0.46205357 0.19703268 -0.26590836 -0.5635341 0.3214815

linear_stack.6.bias f4 [8]
00000000: c5b6 51bc 92b5 fa3b 20af d53d 33ef 413d
00000010: 6e2a 133e a70f 823c b388 a53d e90d 0b3e
-0.012799923 0.0076510394 0.10433793 0.04734726 0.14371654 0.015876604 0.08082714 0.13579525

linear_stack.9.weight f4 [8, 8]
00000000: 9d5d 4b3e 6a96 853e 06cd 8dbd 6e47 ad3e
00000010: e965 b2be 1447 16be b7fd 01bf ef91 313e
00000020: 5bec c33d 5e5d 2c3e 7af1 05bd 6eb1 a23e
00000030: ccb1 f8bd 0d1f 813e b545 d6be f311 8a3e
00000040: 0fd4 81bd 464b aabe f8a1 b73e fbe1 25be
00000050: 0246 b83e 79fa 6abe 4f65 fc3e daa5 013a
00000060: e264 c13d bc34 693e 023b 00be ba33 90be
00000070: 39db bcbd dca5 e93e 7e62 2cbe cc20 5c3e
00000080: dde2 c6bb 67aa d1bd c57d 373d 472e 4ebe
00000090: 554a 04be 97e1 d83e e67c 80be 6471 e23e
000000a0: 4c1a a1bd c5cf b0be 7527 503e ef6a 98be
000000b0: 8614 913e 0254 83be b9e0 b63e 518d e8bd
000000c0: 1437 0a3d 66b2 df3e c95f 1dbd bd49 4f3e
000000d0: 73e3 05be 5aa4 c13d 4172 a1be 202e 3f3e
000000e0: ea41 b13d 6300 9b3d 69a7 2dbe f32e 153f
000000f0: 7b9f 7fbe 5826 d23e cf8f 95be 4c55 a1be
0.1985993 0.2609132 -0.06923871 0.3384356 -0.34843376 -0.14675552 -0.50777763 0.17340825
0.095665656 0.16832492 -0.032700993 0.31775993 -0.12143287 0.25219002 -0.41850057 0.2696682
-0.06339275 -0.33260554 0.3586576 -0.16199486 0.35990912 -0.2294711 0.49296042 0.0004945673
0.0944307 0.22774023 -0.1252251 -0.28164464 -0.09221501 0.45634353 -0.16834447 0.21496886
-0.0060695247 -0.1023758 0.044797678 -0.20134841 -0.1291898 0.4235961 -0.2509529 0.44227135
-0.07866344 -0.34533516 0.20327552 -0.29769084 0.2833597 -0.2565003 0.35718325 -0.11355079
0.033743933 0.43690795 -0.038421426 0.20242973 -0.13075046 0.09455176 -0.3153248 0.18669939
0.0865515 0.07568433 -0.16958393 0.58274764 -0.2496318 0.4104488 -0.2921128 -0.3151039

linear_stack.9.bias f4 [8]
00000000: 9f61 8e3d 02da f33c 37a0 023d eb7a 863d
00000010: fe38 d6bd e85b c73d d97e 863d 37c8 d33d
0.069522135 0.02976704 0.031891074 0.065664135 -0.10460089 0.097343266 0.06567163 0.10340922

linear_stack.12.weight f4 [2, 8]
00000000: 55ee 42be 59fa 8abe 11fc ed3e 516f c5be
00000010: 52ed 30be e971 c53e 6d21 62be 2811 5cbe
00000020: db6b 493e f63b f33d 4407 a3bd 31d4 6c3d
00000030: 54be 9f3e fd89 b1bd dfd9 7e3e a133 483e
-0.19036229 -0.27144125 0.46481374 -0.3856149 -0.1727803 0.3856347 -0.22083063 -0.2149092
0.1967005 0.11876671 -0.0796037 0.05781955 0.31199896 -0.08668897 0.24887799 0.19550945

linear_stack.12.bias f4 [2]
00000000: 05c2 4cbd 54b2 77be
-0.04998972 -0.2418912
