models/model_wly_c2_s0.1_b16_lr0.001_d0.5_e20.pth (torch, 6143 bytes, 10 tensors)

linear_stack.0.weight f4 [16, 16]
-0.16642557 0.3177568 0.04507304 -0.03009747 -0.21789348 -0.029788505 0.15082605 0.10528568
-0.0043436615 0.061920486 0.07136472 -0.07995023 0.26353037 0.1070824 0.05377291 -0.02064135
0.08645869 0.17148419 0.09706738 -0.16622865 0.19705956 -0.17100668 0.17010674 -0.025570821
-0.04802624 -0.22893427 -0.30421758 0.12633142 -0.12593597 -0.09815586 0.049782623 -0.020947415
0.15313238 -0.011038813 -0.051389888 -0.1267366 -0.14911729 -0.124682084 0.10599325 0.08951659
0.027906856 0.1884866 0.20433468 0.15065452 0.013245526 -0.09597105 0.022344014 -0.023062093
0.113889076 0.19066954 -0.20671847 0.20296781 -0.15961869 0.20386507 -0.025912374 0.022654878
-0.1325431 0.020386634 0.09882131 0.3544286 0.087357774 0.027099967 -0.16411391 0.00066341844
0.115662 0.26167166 0.05197252 0.091684 -0.05241612 -0.21084076 0.017339125 0.08767809
-0.03661855 -0.18103546 -0.12451634 -0.104424976 -0.078469574 0.11548717 -0.21004413 -0.11347538
0.13318633 0.22420783 0.18587525 -0.10043995 0.2979041 -0.11814159 -0.20726304 -0.109045744
0.0030867911 -0.043321554 -0.13089384 -0.18453206 -0.010449752 0.025110284 0.08141982 -0.10849142
0.015056216 -0.21168488 0.20686708 0.25201923 0.20310254 0.113760635 -0.11193112 0.20744164
-0.046432536 0.056189965 -0.02090498 0.19278896 0.06599135 -0.08528634 -0.041277573 0.20267761
0.08156835 0.07463691 -0.24778157 -0.183414 -0.044731658 -0.2710751 0.15120652 -0.19488835
-0.12123167 -0.2530649 0.08534801 0.010664837 0.020079266 -0.011976197 0.22278324 -0.07944506
0.18706496 0.18064415 -0.04012326 0.05242748 -0.1670421 0.24011219 0.08505611 0.012095731
0.020966627 -0.15110287 0.18508302 -0.15500596 0.1414151 0.1637834 0.08622824 -0.17671007
0.21289669 0.045801878 0.014585178 -0.16249652 -0.098652884 -0.037407342 0.2196011 -0.1503021
0.1576921 -0.08428968 0.06706463 -0.057944257 -0.092721656 0.044445146 -0.040188983 0.22357135
-0.23244008 -0.17799771 0.06967938 0.022089934 0.14474991 0.121574014 -0.032552116 -0.06009903
-0.20828545 0.2121073 -0.051848594 0.11462942 -0.08684032 0.16295712 -0.1576417 -0.14673361
-0.16553688 0.017999152 -0.059595674 -0.211903 0.18761101 -0.30451846 0.07828176 -0.021810839
0.1356502 -0.18171541 -0.20915607 0.18273944 -0.15058371 0.10722675 0.16571148 -0.07333498
0.17118272 -0.30765107 -0.1501647 0.22416793 -0.20781854 -0.00981491 -0.0016433327 0.13721451
0.22810356 -0.06303174 -0.010227071 -0.07717904 -0.16255666 -0.14567608 0.20355476 -0.22810936
-0.3369834 -0.14312118 -0.16200384 -0.013586382 0.07700762 0.10987134 -0.16134779 0.0022845753
0.21175139 -0.088596664 -0.017668858 0.34246022 -0.023630036 -0.20903476 0.0047310777 -0.064397186
0.046597995 0.114329495 -0.07622283 -0.13041711 -0.10233396 -0.11997279 -0.09975886 0.15706332
0.12918276 -0.23226249 -0.044883512 0.11364621 -0.10347867 0.1263545 -0.37869263 -0.32756785
0.09935359 -0.23992941 -0.20581317 0.12825744 0.07424196 -0.06137541 -0.09180532 -0.012312461
0.2026902 -0.11871044 0.10058218 0.31459427 0.08591415 -0.16720533 -0.2187389 -0.057068933
00000000: 776b 2abe 05b1 a23e 829e 383d f88e f6bc
00000010: 781f 5fbe 0607 f4bc 2572 1a3e 05a0 d73d
00000020: 4655 8ebb 56a0 7d3d ab27 923d f2bc a3bd
00000030: 74ed 863e 044e db3d fc40 5c3d 0c18 a9bc
00000040: 4111 b13d 8d99 2f3e 43cb c63d d837 2abe
00000050: fbc9 493e 601c 2fbe 7630 2e3e e679 d1bc
00000060: 2ab7 44bd bf6d 6abe 68c2 9bbe 065d 013e
00000070: 5cf5 00be f105 c9bd dde8 4b3d ea99 abbc
00000080: bcce 1c3e 23dc 34bc 347e 52bd 3dc7 01be
00000090: 34b2 18be 5259 ffbd fd12 d93d 7954 b73d
000000a0: eb9c e43c a202 413e 1c3d 513e 2e45 1a3e
000000b0: c303 593c 788c c4bd cb0a b73c b7ec bcbc
000000c0: ad3e e93d e03e 433e 02ae 53be cbd6 4f3e
000000d0: 1573 23be 01c2 503e 3046 d4bc b996 b93c
000000e0: 61b9 07be df01 a73c d462 ca3d aa77 b53e
000000f0: a2e8 b23d c000 de3c 7a0d 28be 42e9 2d3a
00000100: 33e0 ec3d d4f9 853e 23e1 543d d2c4 bb3d
00000110: 49b2 56bd a4e6 57be c80a 8e3c 9290 b33d
00000120: 55fd 15bd 5c61 39be 6c02 ffbd c3dc d5bd
00000130: a8b4 a0bd 8a84 ec3d cf15 57be c865 e8bd
00000140: ff61 083e bd96 653e 1556 3e3e 76b3 cdbd
00000150: e386 983e 38f4 f1bd c33c 54be 6053 dfbd
00000160: c34b 4a3b f171 31bd 0909 06be f9f5 3cbe
00000170: 7035 2bbc 15b4 cd3c 6fbf a63d c030 debd
00000180: 59ae 763c ecc3 58be f7d4 533e aa08 813e
00000190: 1dfa 4f3e 56fb e83d 253c e5bd 956b 543e
000001a0: 0b30 3ebd 7327 663d ec40 abbc 786a 453e
000001b0: 7926 873d 9baa aebd ac12 29bd b88a 4f3e
000001c0: 4f0d a73d 3cdb 983d 74ba 7dbe e1d0 3bbe
000001d0: 8b38 37bd 5bca 8abe e2d5 1a3e d090 47be
000001e0: 4f48 f8bd b991 81be f0ca ae3d 92bb 2e3c
000001f0: 467d a43c d037 44bc 4a21 643e 17b4 a2bd
00000200: f58d 3f3e c8fa 383e 4a58 24bd 33be 563d
00000210: 160d 2bbe f8df 753e e631 ae3d 2c2d 463c
00000220: 34c2 ab3c b6ba 1abe 6786 3d3e e2b9 1ebe
00000230: 1fcf 103e d6b6 273e 6e98 b03d 7cf3 34be
00000240: 9701 5a3e c09a 3b3d acf6 6e3c 7d65 26be
00000250: 860a cabd 7138 19bd 1cdf 603e cbe8 19be
00000260: 0a7a 213e 11a0 acbd 2e59 893d f556 6dbd
00000270: dae4 bdbd 1d0c 363d 349d 24bd e3ef 643e
00000280: c604 6ebe 0845 36be 10b4 8e3d f3f5 b43c
00000290: 5239 143e ccfb f83d 5e55 05bd 672a 76bd
000002a0: c848 55be a832 593e 315f 54bd d4c2 ea3d
000002b0: 56d9 b1bd 3bde 263e d36c 21be 5641 16be
000002c0: 8082 29be f572 933c 981a 74bd 1afd 58be
000002d0: 1a1d 403e d8e9 9bbe 3052 a03d a5ac b2bc
000002e0: e3e7 0a3e 9b13 3abe 022d 56be 0c20 3b3e
000002f0: 9e32 1abe b399 db3d 45b0 293e a630 96bd
00000300: 864a 2f3e 7184 9dbe c6c4 19be 478c 653e
00000310: 62ce 54be b7ce 20bc 1865 d7ba f681 0c3e
00000320: fb93 693e c916 81bd 728f 27bc 0b10 9ebd
00000330: 4175 26be 1c2c 15be a970 503e 8095 69be
00000340: 1789 acbe 5c8e 12be 56e4 25be 6b99 5ebc
00000350: 2cb6 9d3d 3a04 e13d 5b38 25be d0b8 153b
00000360: 5bd5 583e 2b72 b5bd 48be 90bc f256 af3e
00000370: c793 c1bc 350d 56be 2807 9b3b ace2 83bd
00000380: 8add 3e3d 9525 ea3d b71a 9cbd 108c 05be
00000390: 7894 d1bd 4bb4 f5bd 604e ccbd 35d5 203e
000003a0: 7c48 043e 38d6 6dbe c6d7 37bd 58bf e83d
000003b0: a0ec d3bd 1363 013e 00e4 c1be f9b6 a7be
000003c0: e579 cb3d 0eb0 75be b0c0 52be eb55 033e
000003d0: 2b0c 983d c864 7bbd 6d04 bcbd 34ba 49bc
000003e0: 058e 4f3e 761e f3bd 08fe cd3d 8012 a13e
000003f0: c2f3 af3d e037 2bbe 17fd 5fbe 1dc1 69bd

linear_stack.0.bias f4 [16]
0.12850273 -0.09148357 0.058122944 0.120553784 0.15906973 -0.15530692 0.12588915 -0.26378277
0.03032735 0.004973101 0.013424931 -0.21095595 0.11389455 0.19499627 0.124843426 0.2275974
00000000: 3896 033e bd5b bbbd 5312 6e3d e7e4 f63d
00000010: 2de3 223e c708 1fbe 16e9 003e 890e 87be
00000020: 1071 f83c 65f5 a23b 3ef4 5b3c d604 58be
00000030: 8c41 e93d 1aad 473e e9ad ff3d 4b0f 693e

linear_stack.3.weight f4 [8, 16]
0.24277365 0.24497494 0.051133934 0.11105669 -0.022866473 -0.21126476 -0.054180313 -0.107478626
-0.06637094 -0.27545372 -0.15061107 -0.21138965 -0.21061917 0.27301008 0.29611674 -0.11566939
0.094401225 -0.020852072 -0.16063854 0.18339516 -0.25890654 -0.17627251 0.13559528 -0.13975121
0.073140144 -0.23001301 0.26629186 0.15712312 0.01585543 0.3079722 -0.2579092 0.07512272
0.09579449 0.018917413 -0.05096892 0.023409396 -0.22464332 -0.039793916 -0.22182338 -0.17620714
0.08305502 0.23076676 -0.021684393 -0.18127137 0.19899563 -0.045401577 -0.05909879 0.20201927
0.24424474 -0.042442817 -0.051698107 0.10211335 -0.023574596 0.16893108 -0.18880285 0.0847266
-0.09479839 0.024839807 -0.21394633 -0.11181523 -0.03617184 0.08425418 0.019041982 -0.2742695
0.090738565 0.03561246 -0.20664696 -0.26375854 0.153021 -0.18217503 0.19894433 0.024798285
-0.052499473 -0.17372769 -0.06566923 -0.04838867 -0.17410581 -0.023789128 0.09270776 -0.16382863
-0.13588008 0.17034554 -0.120696895 -0.17706302 0.11494793 0.20160048 0.16239282 0.21078037
-0.039435018 0.12620984 0.05784613 -0.017713498 0.13256808 -0.32749543 -0.23952188 -0.23788492
0.0124326525 0.19160235 0.058265127 -0.18746766 -0.1369323 -0.06860825 -0.05409541 0.085685745
-0.041990932 0.11859511 -0.19762154 0.08106411 -0.081776194 -0.19051854 0.045593705 -0.048464406
-0.09186241 -0.041810412 0.028129775 0.14327686 -0.07726863 0.030574422 0.17256513 -0.11784732
0.111559644 0.09816194 0.046383295 0.19607587 -0.0460959 0.08813082 -0.040803622 -0.14761537
00000000: a899 783e b6da 7a3e d171 513d b171 e33d
00000010: 7852 bbbc ca55 58be 2dec 5dbd c11d dcbd
00000020: 7ded 87bd 4508 8dbe ca39 1abe 8776 58be
00000030: 8dac 57be fac7 8b3e 9d9c 973e 13e4 ecbd
00000040: 6e55 c13d f7d1 aabc 6e7e 24be f1cb 3b3e
00000050: 668f 84be c880 34be 7dd9 0a3e f11a 0fbe
00000060: 80ca 953d 8888 6bbe 6857 883e e2e4 203e
00000070: 3fe3 813c 88ae 9d3e ad0c 84be f1d9 993d
00000080: e72f c43d b1f8 9a3c c9c4 50bd 10c5 bf3c
00000090: e608 66be f2fe 22bd ab25 63be a56f 34be
000000a0: c018 aa3d 1f4e 6c3e 78a3 b1bc 349f 39be
000000b0: 83c5 4b3e 01f7 39bd 9311 72bd 24de 4e3e
000000c0: 4b1b 7a3e 85d8 2dbd 65c1 53bd ce20 d13d
000000d0: 831f c1bc 45fc 2c3e 8955 41be 2485 ad3d
000000e0: a925 c2bd da7c cb3c bf14 5bbe 62ff e4bd
000000f0: ec28 14bd 758d ac3d eefd 9b3c 0d6d 8cbe
00000100: 24d5 b93d 5fde 113d 439b 53be 5c0b 87be
00000110: 89b1 1c3e 178c 3abe 10b8 4b3e c625 cb3c
00000120: b009 57bd ace5 31be 977d 86bd 3333 46bd
00000130: cb48 32be 6be1 c2bc 91dd bd3d b1c2 27be
00000140: 2624 0bbe 106f 2e3e ef2f f7bd 0250 35be
00000150: d269 eb3d 5b70 4e3e 4e4a 263e cfd6 573e
00000160: 9d86 21bd 273d 013e 10f0 6c3d e61b 91bc
00000170: edbf 073e 7bad a7be 3945 75be 1b98 73be
00000180: 53b2 4b3c 6833 443e 6aa7 6e3d 86f7 3fbe
00000190: fb37 0cbe 7b82 8cbd 2693 5dbd 027c af3d
000001a0: affe 2bbd fee1 f23d 4d5d 4abe f104 a63d
000001b0: 477a a7bd 4b17 43be 77c0 3a3d 9d82 46bd
000001c0: 5c22 bcbd 6541 2bbd 6a70 e63c 2bb7 123e
000001d0: 043f 9ebd 3677 fa3c eab4 303e f059 f1bd
000001e0: 6279 e43d 2109 c93d 69fc 3d3d 1dc8 483e
000001f0: 0ecf 3cbd ee7d b43d b321 27bd 7c28 17be

linear_stack.3.bias f4 [8]
0.2585178 -0.066152565 0.167671 -0.12986763 -0.07426869 0.25846073 0.20746027 0.15977623
00000000: 725c 843e ff7a 87bd f2b1 2b3e 05fc 04be
00000010: 2f1a 98bd f754 843e 7770 543e 619c 233e

linear_stack.6.weight f4 [8, 8]
0.100978784 0.042931236 -0.2620899 -0.30453354 -0.25779474 0.29443857 0.35098502 0.30273387
0.015158325 0.1605353 -0.24318375 -0.18869789 0.1819483 0.029687384 -0.090133056 0.22412524
-0.075135216 -0.010006265 -0.2651802 0.14307277 0.24465586 0.37309772 0.22300217 -0.035780527
0.2827696 0.22588243 -0.0939223 -0.16242978 -0.06768083 -0.25621706 -0.32256085 -0.24046832
-0.20088077 -0.21462189 -0.1631478 -0.22713533 0.3049213 -0.25098708 0.2999853 0.05108938
0.14925914 0.09773751 -0.34235278 -0.18393676 0.1995277 0.24719717 -0.014823894 -0.11004042
-0.32039133 -0.2149018 0.18757266 -0.22912458 -0.114009544 -0.11138247 0.28656822 -0.039189015
0.012061641 0.20080373 0.01981883 0.30092213 -0.062369633 -0.38242587 -0.30905965 0.20740002
00000000: f7cd ce3d aad8 2f3d a630 86be d2eb 9bbe
00000010: acfd 83be a7c0 963e 4fb4 b33e efff 9a3e
00000020: a05a 783c 5e63 243e 2905 79be 053a 41be
00000030: a850 3a3e f532 f33c ae97 b8bd 1681 653e
00000040: 7ee0 99bd 51f1 23bc b3c5 87be ab81 123e
00000050: 1187 7a3e aa06 bf3e ae5a 643e 9a8e 12bd
00000060: 2dc7 903e b94d 673e 565a c0bd fe53 26be
00000070: 3f9c 8abd e22e 83be b226 a5be 543d 76be
00000080: b0b3 4dbe d7c5 5bbe 3810 27be 2a96 68be
00000090: a51e 9c3e 6181 80be ac97 993e 1943 513d
000000a0: 63d7 183e 9b2a c83d dd48 afbe eb59 3cbe
000000b0: fd50 4c3e 4121 7d3e ebdf 72bc df5c e1bd
000000c0: 550a a4be 380f 5cbe 0c13 403e a29f 6abe
000000d0: d67d e9bd 7e1c e4bd 12b9 923e a984 20bd
000000e0: 309e 453c 7e9f 4d3e 195b a23c 7712 9a3e
000000f0: 4d77 7fbd 53cd c3be 113d 9ebe ac60 543e

linear_stack.6.bias f4 [8]
0.13895248 -0.05355896 0.16966277 0.15813774 0.12333618 -0.16722827 -0.04475626 0.27092087
00000000: 8f49 0e3e a460 5bbd 14bc 2d3e dcee 213e
00000010: ae97 fc3d e33d 2bbe 5752 37bd 24b6 8a3e

linear_stack.9.weight f4 [8, 8]
0.017440842 -0.11353903 -0.051666327 0.33392203 -0.25014177 -0.21834241 -0.30533037 0.19154401
-0.036904637 -0.14394173 -0.024867427 0.120213546 0.2784796 -0.02510243 -0.23900367 0.19560814
-0.21678942 -0.19501297 0.25209475 -0.0625077 -0.06254005 -0.20225056 0.33003074 0.021188943
-0.1835225 -0.09770036 -0.4038404 -0.27620718 -0.0920588 0.22064403 0.08459063 0.14022097
-0.14729257 -0.13583533 0.18811938 -0.28314632 -0.2804284 0.2208622 -0.17838694 0.33481485
-0.06587869 -0.22334005 0.2275511 -0.245394 0.089640714 -0.23302701 0.29892594 -0.18451685
-0.17692082 0.22775635 0.01762357 0.15130256 -0.049382262 -0.18059522 -0.122532055 0.14658412
-0.0458477 -0.3303426 -0.21744218 0.31654093 -0.01642672 0.1510036 -0.22586209 -0.29310685
00000000: 19e0 8e3c 2787 e8bd 12a0 53bd d4f7 aa3e
00000010: 9512 80be 2795 5fbe 4354 9cbe 1d24 443e
00000020: 5129 17bd 7665 13be c6b6 cbbc 8532 f63d
00000030: e194 8e3e 9ca3 cdbc 61bd 74be 804d 483e
00000040: 0cfe 5dbe 7bb1 47be 9012 813e 0904 80bd
00000050: ff14 80bd c51a 4fbe caf9 a83e 6f94 ad3c
00000060: 52ed 3bbe 2017 c8bd 2bc4 cebe 076b 8dbe
00000070: 5389 bcbd 82f0 613e da3d ad3d 1696 0f3e
00000080: ddd3 16be 6b18 0bbe 5ea2 403e 8ef8 90be
00000090: 5094 8fbe b329 623e 11ab 36be da6c ab3e
000000a0: 68eb 86bd 41b3 64be 2803 693e 9148 7bbe
000000b0: 8d95 b73d a29e 6ebe d20c 993e fcf1 3cbe
000000c0: bb2a 35be f638 693e 4e5f 903c 0fef 1a3e
000000d0: 0e45 4abd f4ed 38be 16f2 fabd 261a 163e
000000e0: ccca 3bbd aa22 a9be 2aa9 5ebe a711 a23e
000000f0: 5491 86bc b0a0 1a3e 6448 67be 1a12 96be

linear_stack.9.bias f4 [8]
0.080083884 0.013208834 -0.16684775 0.0109087685 -0.30697298 -0.030472813 0.09811186 0.25310278
00000000: 0503 a43d de69 583c 23da 2abe b1ba 323c
00000010: 902b 9dbe 1fa2 f9bc dfee c83d b096 813e

linear_stack.12.weight f4 [2, 8]
-0.14146829 -0.14549376 0.27322912 -0.21676487 -0.051227603 0.35732442 -0.13312154 -0.10312982
0.14780657 -0.007180176 0.11197974 -0.11103063 0.19044715 -0.058378283 0.16116902 0.08373003
00000000: 10dd 10be 51fc 14be b0e4 8b3e 9cf7 5dbe
00000010: 09d4 51bd 3af3 b63e 0351 08be ba35 d3bd
00000020: 9b5a 173e af47 ebbb a255 e53d 0764 e3bd
00000030: 9404 433e 111e 6fbd 7e09 253e a67a ab3d

linear_stack.12.bias f4 [2]
-0.087126635 -0.20475496
00000000: 736f b2bd 49ab 51be
