models/model_sk_c2_s0.1_b16_lr0.001_d0.5_e100.pth (torch, 6143 bytes, 10 tensors)

linear_stack.0.weight f4 [16, 16]
0	0xbea998e2	-0.33124453
1	0x3d83c490	0.06433976
2	0x3dc749c7	0.09730869
3	0x3e0f46d2	0.1399186
4	0xbbebd33f	-0.0071968134
5	0xbdca6ecf	-0.09884416
6	0x3c81207b	0.015762558
7	0x3da764d2	0.08173527
8	0x3d5bb595	0.053639967
9	0x3dba0354	0.09082666
10	0x3d274f6c	0.040847227
11	0xbeda2cb0	-0.4261222
12	0x3dc43a1e	0.095813975
13	0xbd1538fb	-0.036431294
14	0x3d896c56	0.067101166
15	0xbeacb712	-0.33733422
16	0x3e1a81f2	0.15088633
17	0xbc9aca5a	-0.018895317
18	0x3e45959b	0.19295351
19	0xbe9a4428	-0.30130124
20	0xbd6343ab	-0.055484455
21	0x3d321206	0.04347422
22	0xbc517e90	-0.0127865225
23	0xbddb3c1d	-0.10704825
24	0xbe0100de	-0.12597987
25	0xbeba9d45	-0.36448112
26	0xbead1a52	-0.33809143
27	0xbdb74440	-0.089485645
28	0x3e0a2023	0.13488822
29	0x3e78b020	0.24285936
30	0x3e5bf8c3	0.21481614
31	0x3e77efdc	0.24212593
32	0x3ed3ba19	0.4135292
33	0xbebda373	-0.37038764
34	0x3e5b76f7	0.214321
35	0xbd8a73fc	-0.067604035
36	0xbd87bdba	-0.06627984
37	0xbe258418	-0.16163671
38	0x3c672035	0.0141068
39	0x3ddabeb9	0.10680909
40	0x3d5a5e38	0.05331251
41	0x3e003214	0.12519103
42	0x3d777f20	0.06042397
43	0xbe50a19e	-0.20374152
44	0xbd20cc32	-0.039257236
45	0xbc6bad59	-0.014384591
46	0x3e488fca	0.19586101
47	0x3e18884f	0.14895748
48	0xbcecfb03	-0.028928285
49	0x3e071744	0.13192469
50	0xbe88828f	-0.26662108
51	0x3ea2ff8c	0.31835592
52	0x3d318246	0.04333713
53	0xbd940592	-0.07227625
54	0x3a3c5a96	0.0007185129
55	0x3e975521	0.29557136
56	0xbd804a4a	-0.062641695
57	0xbd8d862f	-0.06910359
58	0xbd84b509	-0.06479842
59	0xbd98860e	-0.07447444
60	0x3e20e327	0.15711652
61	0xbe2becb3	-0.16789512
62	0x3db9078f	0.09034645
63	0xbe29acd5	-0.16569836
64	0x3f27cbe4	0.6554549
65	0xbd884d78	-0.06655401
66	0x3ededdec	0.43528688
67	0x3de89ff4	0.11358634
68	0xbd9843a2	-0.07434775
69	0xbd989e23	-0.07452037
70	0xbd21b2b4	-0.039477065
71	0x3de6f3ad	0.11276946
72	0x3c3453be	0.011006294
73	0x3d916e18	0.07101077
74	0xbdc1d2ea	-0.09464057
75	0xbe83702d	-0.2567152
76	0x3cf09562	0.029368106
77	0xbde02fd9	-0.10946626
78	0x3db5feb5	0.08886472
79	0x3e0dc77e	0.13845631
80	0x3e8c938f	0.27456328
81	0x3e988311	0.29787496
82	0x3e82411c	0.254403
83	0x3ba80fa8	0.0051288195
84	0x3eac1d4c	0.33616102
85	0x3decfbe6	0.11571483
86	0xbc057f51	-0.00814803
87	0x3d6721c3	0.056428682
88	0x3e5598a2	0.20859006
89	0x3d85ef39	0.06539769
90	0xbe113f79	-0.14184369
91	0x3dc8da31	0.09807242
92	0xbdeeb487	-0.116555266
93	0xbeb6273d	-0.3557681
94	0xbb3fb658	-0.0029252972
95	0xbde947b4	-0.113906294
96	0x3e364b0d	0.17802067
97	0xbebca576	-0.36844987
98	0x3e893d2f	0.26804492
99	0x3df8659f	0.12128758
100	0x3d83327e	0.06406115
101	0x3dd9c89f	0.106339686
102	0xbe4a2f4f	-0.1974461
103	0x3e236740	0.15957355
104	0xbe0239c1	-0.12717344
105	0x3da657d7	0.08122223
106	0xbe07a14c	-0.13245124
107	0xbc22f950	-0.009947136
108	0x3e42388c	0.18966883
109	0xbe2a0403	-0.16603093
110	0x3d0b395b	0.033990245
111	0x3e773bd9	0.24143924
112	0x3d8cee03	0.06881335
113	0x3cde4bc0	0.02713573
114	0x3c2276e7	0.009916044
115	0xbe672826	-0.22573909
116	0xbe355e8f	-0.17711852
117	0xbd8ece5e	-0.06972955
118	0x3de3f595	0.111308254
119	0xbe4d3860	-0.20041037
120	0xbe1aad80	-0.15105247
121	0xbe96cb49	-0.2945197
122	0x3e1f07e8	0.1553036
123	0x3eca9527	0.3956692
124	0xbdf5a078	-0.119934976
125	0x3e3efbe3	0.18650775
126	0xbd753e34	-0.059873775
127	0xbe30b91d	-0.17258115
128	0x3e3b513c	0.18292707
129	0x3ea1d677	0.31608936
130	0x3d9edb7b	0.07756706
131	0xbcb89cf4	-0.022535779
132	0xbe5145d1	-0.20436789
133	0x3e103148	0.140813
134	0xbe378798	-0.17922819
135	0xbd14cc24	-0.036327496
136	0xbe8c6e81	-0.27428058
137	0xbed29bdf	-0.41134545
138	0x3e855446	0.26040858
139	0xbca7b958	-0.020474121
140	0xbdae575b	-0.085127555
141	0x3e8495ed	0.25895634
142	0x3e58e3a3	0.21180587
143	0xbcad22e1	-0.021134796
144	0x3e296b34	0.16544801
145	0x3eaf9c2e	0.34298843
146	0xbd6c9673	-0.057760667
147	0xbe29f402	-0.16596988
148	0xbdcc1d42	-0.09966518
149	0xbd6b3383	-0.057422172
150	0xbcc390e7	-0.023872806
151	0xbe07117a	-0.1319026
152	0xbbec888d	-0.0072184266
153	0xbe11b5c4	-0.14229494
154	0xbdcb119a	-0.099154666
155	0x3e98ff11	0.298821
156	0xbdd261f8	-0.10272592
157	0x3e7b3ed4	0.24535686
158	0x3dcc1118	0.09964198
159	0x3e380f57	0.17974602
160	0xba35e29e	-0.00069383706
161	0x3cfb006b	0.030639848
162	0x3d23b0bd	0.039963473
163	0xbe51b998	-0.20480955
164	0xbd76fd1f	-0.06029999
165	0x3db740a9	0.0894788
166	0xbd7b7425	-0.06139006
167	0xbd18f044	-0.03733851
168	0xbe6664b5	-0.22499354
169	0x3c423400	0.011853218
170	0xbd86f473	-0.06589594
171	0x3e905865	0.2819244
172	0xbe511ebb	-0.20421879
173	0x3ea202b5	0.3164269
174	0xbdec8762	-0.1154926
175	0xbe495e8f	-0.19664977
176	0xbe404575	-0.18776496
177	0xbd69a193	-0.057038855
178	0xbd277268	-0.04088059
179	0xbdc4e8b2	-0.096146956
180	0x3eba5506	0.36392993
181	0xbed31ff2	-0.4123531
182	0x3bdb404a	0.0066910135
183	0x3e4d04b3	0.20021324
184	0x3dbe4d8a	0.09292133
185	0xbef788c3	-0.48346528
186	0xbe75c58f	-0.24001144
187	0x3dcc967e	0.099896416
188	0x3e0d58dc	0.13803428
189	0xbdc52963	-0.096270345
190	0xbd8788c4	-0.06617883
191	0x3d1fe3d2	0.039035626
192	0x3e74fc7b	0.23924439
193	0xbde5a608	-0.112133086
194	0xbe25db6f	-0.16196989
195	0x3ec47d48	0.38376832
196	0xbd6763f1	-0.056491796
197	0xbae97e9a	-0.001781422
198	0x3dea9508	0.11454207
199	0x3d93aaeb	0.072103344
200	0x3e8059bd	0.25068465
201	0x3e147cf4	0.14500791
202	0x3e1b69a9	0.15177025
203	0x3c92c4fe	0.017916199
204	0xbc315863	-0.010824296
205	0xbeaa680f	-0.33282515
206	0x3e6f3d85	0.23363312
207	0xbef354b6	-0.47525567
208	0xbec3bd84	-0.38230526
209	0xbea29554	-0.31754553
210	0xbe46278e	-0.19351026
211	0xbd037e5a	-0.03210292
212	0x3df2306a	0.118256405
213	0xbd9fba55	-0.07799212
214	0xbe0b74c8	-0.13618767
215	0x3e394da0	0.18096018
216	0x3d4f61a5	0.05063023
217	0xbe941871	-0.28924897
218	0x3dfc6e76	0.12325756
219	0xbd5cb5c1	-0.05388427
220	0x3e55647a	0.2083911
221	0xbe28450a	-0.16432586
222	0x3e17bdfc	0.14818567
223	0xbe1472bf	-0.14496897
224	0x3e11dfcd	0.1424553
225	0x3e2c45bc	0.16823477
226	0x3db7aa15	0.089679874
227	0xbe1abbbf	-0.15110682
228	0xbe1a820d	-0.15088673
229	0xbd88a273	-0.0667161
230	0xbe0f185a	-0.13974133
231	0xbd64c206	-0.055849098
232	0xbd04abf5	-0.032390554
233	0xbe26e30a	-0.16297546
234	0x3db821c1	0.08990813
235	0x3e77c84f	0.24197505
236	0xbe2a08a7	-0.16604863
237	0x3ea517e0	0.32244778
238	0xbd4fe4fa	-0.05075548
239	0xbc0fb80c	-0.008771908
240	0x3e9fdc5d	0.3122281
241	0xbe388e5b	-0.18023054
242	0xbeb20db1	-0.3477607
243	0x3e692c4a	0.22770801
244	0x3e5f4849	0.21804918
245	0xbe428768	-0.18996966
246	0xbd29fddb	-0.04150186
247	0x3cd2454b	0.025667807
248	0x3ecc79cc	0.39936674
249	0xbe917d44	-0.28415883
250	0xbd063669	-0.032766733
251	0x3e7e5c0b	0.24839799
252	0x3dd4dde9	0.103938885
253	0xbe1727f1	-0.1476133
254	0xbeb2eacc	-0.3494476
255	0xbdcc68e3	-0.09980943

linear_stack.0.bias f4 [16]
0	0xbe291384	-0.16511351
1	0xbf1e2898	-0.6178069
2	0xbb71b478	-0.003688125
3	0xbd490f42	-0.049086817
4	0xbc95cf6f	-0.018287389
5	0xbe957ca8	-0.29196668
6	0xbeaacd2b	-0.33359656
7	0xbf28c1e2	-0.6592084
8	0xbe94ad80	-0.2903862
9	0xbeb3220d	-0.34986916
10	0xbef261c3	-0.4734021
11	0xbeca106f	-0.39465663
12	0xbcba8888	-0.022770181
13	0xbe8b03df	-0.2715139
14	0xbf04299c	-0.5162599
15	0x3c2a1d2d	0.010382933

linear_stack.3.weight f4 [8, 16]
0	0x3e895b33	0.26827392
1	0xbe7cee0b	-0.24700181
2	0xbeab2973	-0.3343006
3	0x3c953b0b	0.01821663
4	0xbebf8eec	-0.37413728
5	0xbed7eed8	-0.4217441
6	0xbe8225e4	-0.25419533
7	0xbedb7f32	-0.4287048
8	0xbe64675c	-0.22305053
9	0xbf11833d	-0.5684088
10	0xbe978ea1	-0.29601005
11	0x3ec34868	0.3814118
12	0xbe090b13	-0.1338313
13	0x3ec73249	0.38905552
14	0xbe39fe28	-0.18163359
15	0x3bea5b62	0.007152007
16	0x3e1f7ac9	0.15574183
17	0xbe856316	-0.2605216
18	0xbec08d00	-0.37607574
19	0x3d361e79	0.044462655
20	0xbeb3e85f	-0.35138223
21	0xbedd3a0a	-0.43208343
22	0xbe5871b2	-0.21137121
23	0xbf11e275	-0.5698617
24	0xbe4ef1d7	-0.20209442
25	0xbf1c1c6f	-0.60980886
26	0xbe19284b	-0.14956777
27	0x3efbbd7c	0.49168003
28	0xbd8f8cca	-0.07009275
29	0x3ebd004a	0.36914283
30	0xbe8c1c90	-0.2736554
31	0xbddd28d1	-0.10798801
32	0x3dde2e7c	0.1084871
33	0xbe24a0e4	-0.16077
34	0xbe2deae9	-0.16984142
35	0xbd0547bc	-0.032539114
36	0xbeb060e3	-0.3444892
37	0x3cd3f4bc	0.025873534
38	0xbe24ab27	-0.16080914
39	0xbdc2e7b1	-0.09516848
40	0xbe1b2121	-0.15149356
41	0xbda6dc1a	-0.0814745
42	0xbde5c3a1	-0.11218954
43	0x3d05b605	0.03264429
44	0x3e2ff820	0.17184496
45	0x3cbea16a	0.023270328
46	0xbe3a6091	-0.182009
47	0x3e2331e5	0.15937002
48	0x3e8f3055	0.27966562
49	0xbd9cd83c	-0.07658431
50	0xbe3d8057	-0.18505989
51	0xbbc36ac1	-0.005963654
52	0xbe6ae1e3	-0.22937731
53	0xbda29ea8	-0.079404175
54	0xbe65c825	-0.2243963
55	0xbe4a5958	-0.19760644
56	0xbe043d48	-0.12914002
57	0xbe2c0965	-0.16800459
58	0xbea5781b	-0.32318196
59	0x3e90b158	0.28260303
60	0x3cba8a88	0.022771135
61	0x3ebf9e00	0.37425232
62	0xbe0c4352	-0.13697556
63	0xbcfcc16a	-0.030853946
64	0xbdb91b43	-0.09038403
65	0x3f21048e	0.62897575
66	0xbd4dcff6	-0.050247155
67	0xbe0d75ae	-0.13814422
68	0xbda6b429	-0.081398316
69	0xbe806b31	-0.2508178
70	0x3e82c149	0.2553809
71	0x3ea1ef4f	0.3162789
72	0x3e70e490	0.2352469
73	0x3e0b7264	0.13617855
74	0x3e384515	0.17995103
75	0xbe49bb1f	-0.19700287
76	0xbeaee40b	-0.34158358
77	0xbc42ec4e	-0.01189716
78	0x3e96a000	0.29418945
79	0xbdd3bdf9	-0.10338969
80	0xbe06f008	-0.13177502
81	0x3f043e82	0.5165788
82	0x3c98d1db	0.018654754
83	0xbe8f14de	-0.27945608
84	0xbc480778	-0.012208812
85	0xbd364f30	-0.044509113
86	0x3e143cca	0.14476314
87	0x3ecb5618	0.39714122
88	0x3e2cf67d	0.16890903
89	0x3e8a7350	0.270411
90	0x3e98407b	0.29736695
91	0xbdf11b69	-0.11772806
92	0xbe29390a	-0.16525665
93	0xbda2fb16	-0.07958047
94	0x3e264dc5	0.16240604
95	0xbec0f404	-0.3768617
96	0xbe1add80	-0.15123558
97	0x3f05537a	0.520805
98	0x3d15f526	0.036610745
99	0xbe741515	-0.23836167
100	0x3c7da779	0.015481823
101	0xbea6ac13	-0.32553157
102	0x3d8f0fcb	0.06985434
103	0x3e75e6ee	0.24013874
104	0x3da8f872	0.08250512
105	0x3e856f62	0.2606154
106	0x3da54b2b	0.08070978
107	0xbddbcaf5	-0.1073207
108	0xbe94b0a5	-0.2904102
109	0xbcb665a6	-0.022265267
110	0x3e7ff178	0.24994457
111	0xbec85124	-0.39124405
112	0xbe111518	-0.14168203
113	0x3f153e43	0.5829813
114	0x3d449761	0.04799593
115	0xbe4e030f	-0.20118354
116	0xbdc362cb	-0.09540328
117	0xbcb85f0c	-0.02250626
118	0x3e14c1c4	0.1452704
119	0x3e502e7d	0.20330234
120	0x3e21e976	0.15811715
121	0x3e96c5d3	0.29447803
122	0x3e89d76f	0.26922175
123	0xbe4378ea	-0.19089094
124	0xbe1bde52	-0.15221527
125	0xbc46c993	-0.01213302
126	0x3e8a31e2	0.26991183
127	0xbecf61ae	-0.4050421

linear_stack.3.bias f4 [8]
0	0x3e4c4b5a	0.1995062
1	0x3de7945b	0.113075934
2	0x3e0c9edf	0.1373248
3	0x3dd65935	0.10466234
4	0xbdbdb45c	-0.092629164
5	0x3d120445	0.035648603
6	0x39915fdf	0.00027727985
7	0x3c09fa14	0.00842144

linear_stack.6.weight f4 [8, 8]
0	0xbe245b2f	-0.16050409
1	0xbe7509be	-0.23929498
2	0xbed20c4b	-0.41025004
3	0xbeae0912	-0.33991295
4	0x3e9bfe4f	0.3046746
5	0x3f00951d	0.5022753
6	0x3eeb5edc	0.4597081
7	0x3f02af8a	0.510491
8	0x3eccbd4f	0.3998818
9	0x3ee7a7a6	0.45245093
10	0x3d105783	0.035239708
11	0x3e5b1b2b	0.21397083
12	0xbe1ea7ff	-0.15493773
13	0xbe3d55d1	-0.18489768
14	0xbe6eb83c	-0.23312467
15	0xbdb7be50	-0.08971846
16	0xbe4a7733	-0.19772033
17	0xbe5bed12	-0.21477154
18	0xbefccbc8	-0.49374223
19	0xbe47e6f3	-0.19521694
20	0x3f01fd3e	0.5077704
21	0x3eaeb072	0.34118992
22	0x3eb1f12b	0.3475431
23	0x3e6fca92	0.23417118
24	0x3ede1681	0.43376544
25	0x3ecad60b	0.39616427
26	0xbc5a1bf7	-0.013312331
27	0x3e744c71	0.23857285
28	0xbeb2e259	-0.34938315
29	0xbef11660	-0.47087383
30	0xbee05d4a	-0.43821174
31	0xbed7ad99	-0.42124632
32	0xbe775503	-0.24153523
33	0xbec72241	-0.3889332
34	0xbe654279	-0.22388639
35	0xbee33f13	-0.4438406
36	0x3f12ee07	0.5739445
37	0x3e3b8f25	0.18316324
38	0x3f039fa4	0.5141547
39	0x3eb01d36	0.34397286
40	0x3ed9b3b6	0.4251992
41	0x3e95b9f1	0.29243425
42	0xbd8c0641	-0.0683713
43	0x3e29b0f6	0.16571411
44	0xbd7acc3a	-0.061229922
45	0xbc8ee9db	-0.017445495
46	0xbe5f11bb	-0.21784107
47	0xbe1fc365	-0.15601881
48	0xbe695c38	-0.22789085
49	0xbe7a63da	-0.24452153
50	0x3d300a8d	0.042978812
51	0xbea9d8bd	-0.3317317
52	0x3eaf9b74	0.3429829
53	0x3e0979d9	0.13425387
54	0x3ec7eec0	0.3904934
55	0x3e98b663	0.2982665
56	0x3e9d3ed8	0.30712008
57	0x3ebdd4d8	0.3707645
58	0x3b2f3108	0.0026732106
59	0x3ec98d9a	0.39365846
60	0xbea71fa3	-0.32641324
61	0xbef110e4	-0.470832
62	0xbf075eff	-0.5287933
63	0xbe88a30f	-0.26686904

linear_stack.6.bias f4 [8]
0	0x3cf2db90	0.029645711
1	0x3af1ce2a	0.0018448282
2	0x3d56819a	0.05236969
3	0x3bf2955c	0.007403059
4	0x3d62ba58	0.055353492
5	0xbbc3790e	-0.0059653586
6	0x3c909743	0.017650252
7	0x3d271a69	0.04079667

linear_stack.9.weight f4 [8, 8]
0	0xbe3e9359	-0.18610896
1	0x3e8b6b69	0.27230385
2	0xbe86bae8	-0.26314473
3	0x3ee30293	0.443379
4	0xbeba1a7b	-0.36348328
5	0x3de80026	0.11328153
6	0xbf11e2aa	-0.56986487
7	0x3e62fa6d	0.22165842
8	0xbe3e76a4	-0.18599945
9	0x3e4e9e60	0.20177603
10	0xbe980ce6	-0.2969734
11	0x3ecbdb27	0.39815637
12	0xbe9a3d78	-0.30125022
13	0x3e37d5b2	0.17952612
14	0xbefc5797	-0.49285576
15	0x3e902144	0.2815038
16	0x3e3f0f08	0.18658078
17	0xbdc5100b	-0.096222006
18	0x3ec3a11b	0.3820885
19	0xbdab45f0	-0.08362949
20	0x3e9714fc	0.29508197
21	0xbdf51dd9	-0.119685836
22	0x3ef9ecaa	0.48813373
23	0xbdafbd49	-0.08581025
24	0xbe8149c8	-0.25251603
25	0x3eaaffec	0.33398378
26	0xbedc1957	-0.42988083
27	0x3e28987f	0.16464423
28	0xbea52acf	-0.32259223
29	0x3ec7fb4f	0.3905892
30	0xbec21d20	-0.37912846
31	0x3e9e41ad	0.30909482
32	0xbe042ed4	-0.12908489
33	0x3ea1284a	0.3147605
34	0xbde756de	-0.112958655
35	0xbdfbbe50	-0.122921586
36	0xbe561155	-0.20905049
37	0x3eec48d9	0.46149328
38	0xbe98af5f	-0.29821298
39	0x3f0f56be	0.55991733
40	0x3e594381	0.21217157
41	0xbe0e35e6	-0.13887748
42	0x3e928a56	0.28621167
43	0xbecc63ae	-0.399198
44	0x3e96e079	0.29468134
45	0xbddbcc00	-0.10732269
46	0x3eb15678	0.34636283
47	0xbe303d3e	-0.17210862
48	0xbe85463e	-0.26030153
49	0x3ec32df0	0.38120985
50	0xbe807931	-0.25092462
51	0x3e99ca94	0.30037367
52	0xbe9d9536	-0.307779
53	0x3dc4bd88	0.09606463
54	0xbed1a0b9	-0.40942934
55	0x3e391e07	0.18077861
56	0xbe783165	-0.24237593
57	0x3e98810a	0.2978595
58	0xbeb7bed2	-0.35887772
59	0x3f0dac9d	0.5534151
60	0xbeb809d6	-0.35945004
61	0x3ecf8f47	0.40539
62	0xbef7d8e1	-0.48407653
63	0xbd6b5dde	-0.057462566

linear_stack.9.bias f4 [8]
0	0x3e0f8708	0.14016354
1	0x3e0afa3b	0.13572018
2	0x3c5b4df8	0.013385288
3	0x3e1d6421	0.15370227
4	0x3d9345ab	0.071910225
5	0x3b10c829	0.002209196
6	0x3e059893	0.13046484
7	0x3e7e5452	0.24836853

linear_stack.12.weight f4 [2, 8]
0	0xbe93c47c	-0.28860843
1	0xbeabf9aa	-0.33588916
2	0x3ef89ca7	0.48557016
3	0xbee8bef8	-0.45458198
4	0xbe4e5aeb	-0.2015187
5	0x3eea3169	0.45740822
6	0xbe8e9e0c	-0.27854955
7	0xbe84c7cb	-0.2593368
8	0x3e970346	0.29494685
9	0x3e3b9cdd	0.18321557
10	0xbdcd89a7	-0.10036021
11	0x3e01d44b	0.1267864
12	0x3eae755a	0.34073907
13	0xbe22435e	-0.15846011
14	0x3e9cfa3a	0.30659658
15	0x3e75b220	0.2399373

linear_stack.12.bias f4 [2]
0	0x3bf6c9d0	0.007531382
1	0xbe994cbd	-0.2994136
