models/model_wly_c2_s0.1_b16_lr0.001_d0.5_e100.pth (torch, 6143 bytes, 10 tensors)

linear_stack.0.weight f4 [16, 16]
-0.3391812 0.32159454 0.03931633 0.08117798 -0.10688147 -0.063093364 0.082885765 0.07455234
-0.027791861 0.30063605 0.08753757 0.11212232 0.37162182 -0.2803173 -0.1464788 0.15617087
0.0042687864 -0.059974063 0.17886074 0.13092387 0.501057 -0.32338157 0.16920774 0.075175636
-0.05546822 -0.14605251 -0.04137084 0.14184727 -0.33659348 -0.0035408083 -0.09796116 -0.14915213
0.272449 0.16767782 -0.037070256 -0.11314116 -0.10742772 -0.12002688 0.06342079 0.22304274
0.032966662 0.14208211 0.31715524 0.40916005 0.11860681 0.21945152 -0.43459076 -0.060790326
0.1311114 0.2052576 -0.1950541 0.24285042 -0.15394998 0.36519656 -0.13664706 0.006152449
-0.15526246 0.020788824 -0.23378244 0.3989748 0.22100535 -0.3274339 -0.20540021 0.1057112
-0.005959294 0.031576112 0.11850361 0.0794487 -0.0472454 -0.29542127 -0.0048840935 0.15319054
-0.17076388 -0.24027053 0.13876253 -0.23872007 -0.23161396 0.265374 -0.0068862424 -0.09358927
0.061671495 -0.02378582 0.20739083 0.019028425 0.45350865 -0.22412357 -0.14615273 0.18189733
0.0053917463 -0.025081858 -0.0666628 -0.13493742 -0.24134734 0.074510224 -0.06133301 0.0058027357
-0.0307005 -0.245874 0.1720661 0.30673906 0.30338666 -0.16223714 -0.04419528 0.09288051
-0.05164356 0.10599466 -0.19827624 -0.02781989 -0.0829871 0.00082634075 -0.32643405 0.1977272
0.11886544 -0.062187303 -0.23675671 -0.12229839 -0.05145699 -0.11376718 0.025880883 0.020746285
-0.23477039 -0.5148198 0.23620227 0.03851287 -0.16508251 0.36621398 0.31427827 -0.17818362
0.27621114 0.2915283 -0.05049292 0.1517675 -0.08693398 0.3571927 0.0037137473 -0.016187694
-0.13752413 -0.010571829 -0.09756339 0.12175339 0.08439335 -0.0704296 0.048042614 -0.18641764
0.31909874 0.087509975 0.025666414 -0.0145828035 0.038729392 0.030064458 0.09204411 -0.11898285
0.17898816 0.1269324 0.13627312 -0.26817212 0.08500747 0.005029139 -0.2624625 0.22614186
-0.0595899 -0.08136645 0.09919425 -0.081896394 -0.004789835 0.30518755 0.072634324 0.017750049
-0.12900323 0.2405832 0.0024335082 0.2936936 -0.14903475 0.3022533 -0.30755234 -0.04119995
-0.10339215 -0.13777766 -0.037407998 -0.3117708 0.038529333 -0.17678931 -0.05021873 0.095756754
-0.08776469 -0.35461265 -0.059812266 0.21155886 -0.27814186 0.49596357 0.22554594 -0.100573085
0.09671818 -0.12510774 -0.2638093 0.051498666 -0.41345772 0.052748457 0.07587081 -0.077648684
0.27134493 -0.091717266 0.34258774 0.040676598 0.049317956 0.18176435 0.048038032 -0.34636846
-0.45112684 -0.1303464 -0.15268634 -0.048437748 0.00073342293 0.24609272 -0.16585341 -0.12245649
0.09066723 -0.076701984 -0.23709086 0.28827977 -0.04014785 -0.45231095 0.2242624 0.036879618
0.25110266 0.18745828 0.0018189707 -0.040401854 -0.025980974 -0.06318277 -0.08946207 0.2606866
0.09707596 0.08491722 -0.068211816 0.22999574 0.21827284 0.07167981 -0.5449705 -0.059416283
0.063034825 -0.14697635 -0.30302215 -0.17331937 -0.28205517 0.17160743 -0.11154811 0.10795243
0.040246878 -0.10222432 0.4484473 0.5807709 -0.14335321 -0.04593077 -0.27120385 0.059190236
00000000: 29a9 adbe 0aa8 a43e 290a 213d a440 a63d
00000010: ace4 dabd 1837 81bd 03c0 a93d e6ae 983d
00000020: c2ab e3bc f8ec 993e e646 b33d 63a0 e53d
00000030: 3745 be3e c085 8fbe 8afe 15be 42eb 1f3e
00000040: 2de1 8b3b 5da7 75bd 4527 373e e810 063e
00000050: 4645 003f 4592 a5be cb44 2d3e aff5 993d
00000060: a532 63bd ca8e 15be 7874 29bd 6940 113e
00000070: fb55 acbe e80c 68bb dc9f c8bd 56bb 18be
00000080: 6f7e 8b3e bcb3 2b3e fbd6 17bd 8db6 e7bd
00000090: 1103 dcbd a7d0 f5bd c2e2 813d 5165 643e
000000a0: 0d08 073d f97d 113e 2c62 a23e 6d7d d13e
000000b0: 21e8 f23d e6b7 603e ae82 debe 47ff 78bd
000000c0: 1142 063e 0c2f 523e 43bc 47be c8ad 783e
000000d0: 10a5 1dbe 0bfb ba3e 35ed 0bbe 7c9a c93b
000000e0: 1ffd 1ebe 534d aa3c aa64 6fbe 6d46 cc3e
000000f0: 3a4f 623e 6ba5 a7be 6f54 52be 1d7f d83d
00000100: 2e46 c3bb f455 013d 05b2 f23d 00b6 a23d
00000110: 6484 41bd 7541 97be bf0a a0bb fbdd 1c3e
00000120: badc 2ebe 7a09 76be c417 0e3e 0973 74be
00000130: 362c 6dbe 1adf 873e fda5 e1bb bbab bfbd
00000140: 409b 7c3d 7bda c2bc 435e 543e 80e1 9b3c
00000150: 4932 e83e a680 65be 10a9 15be 4b43 3a3e
00000160: 3fad b03b 7878 cdbc 8286 88bd 092d 0abe
00000170: c223 77be d198 983d 5338 7bbd e024 be3b
00000180: 9d7f fbbc 65c6 7bbe 1932 303e e70c 9d3e
00000190: 7f55 9b3e 7e21 26be 1c06 35bd 2338 be3d
000001a0: 3388 53bd ba13 d93d ed08 4bbe 8ae6 e3bc
000001b0: 24f5 a9bd ca9e 583a 5d22 a7be 0079 4a3e
000001c0: b96f f33d 1db8 7ebd 5a70 72be 9477 fabd
000001d0: 91c4 52bd c4fe e8bd 2504 d43c 1df4 a93c
000001e0: a667 70be 3bcb 03bf 02df 713e acbf 1d3d
000001f0: 640b 29be 6680 bb3e 15e9 a03e c475 36be
00000200: 8c6b 8d3e 3343 953e aad1 4ebd f168 1b3e
00000210: 710a b2bd f6e1 b63e 5762 733b 0e9c 84bc
00000220: 20d3 0cbe 7735 2dbc 51cf c7bd d759 f93d
00000230: 6cd6 ac3d 653d 90bd 55c8 443d 44e4 3ebe
00000240: e960 a33e 6e38 b33d 5f42 d23c b6ec 6ebc
00000250: b6a2 1e3d bd49 f63c 9f81 bc3d 48ad f3bd
00000260: ac48 373e 91fa 013e 2e8b 0b3e db4d 89be
00000270: 6518 ae3d 7acb a43b 7c61 86be bb91 673e
00000280: 8a14 74bd 74a3 a6bd 5b26 cb3d 4cb9 a7bd
00000290: 0cf4 9cbb 8b41 9c3e 4ec1 943d 8d68 913c
000002a0: 6c19 04be 715b 763e 7e7b 1f3b 025f 963e
000002b0: 919c 18be f2c0 9a3e 8077 9dbe 47c1 28bd
000002c0: 43bf d3bd 9615 0dbe 2139 19bd 6ca0 9fbe
000002d0: efd0 1d3d 4208 35be 28b2 4dbd 1e1c c43d
000002e0: f9bd b3bd ca8f b5be b5fd 74bd e3a2 583e
000002f0: 9c68 8ebe f0ee fd3e 84f5 663e 43f9 cdbd
00000300: 2e14 c63d 3e1c 00be 0312 87be 44f0 523d
00000310: bbb0 d3be c40e 583d 2862 9b3d 4606 9fbd
00000320: b9ed 8a3e 43d6 bbbd a967 af3e 819c 263d
00000330: a001 4a3d 6f20 3a3e 87c3 443d 3557 b1be
00000340: 19fa e6be 8779 05be cf59 1cbe a966 46bd
00000350: 2e43 403a bbff 7b3e 7ad5 29be 78ca fabd
00000360: beaf b93d ee15 9dbd f2c7 72be 6899 933e
00000370: 1272 24bd 4d95 e7be 0ba5 653e 150f 173d
00000380: 8790 803e 10f5 3f3e 876a ee3a 6a7c 25bd
00000390: 0dd6 d4bc f865 81bd e437 b7bd b778 853e
000003a0: c3cf c63d 14e9 ad3d a3b2 8bbd 0184 6b3e
000003b0: ea82 5f3e ddcc 923d 3083 0bbf 7d5e 73bd
000003c0: 6718 813d f880 16be b825 9bbe a27a 31be
000003d0: 8969 90be dcb9 2f3e 5673 e4bd 2a16 dd3d
000003e0: e9d9 243d fc5a d1bd e29a e53e 67ad 143f
000003f0: 2fcb 12be e721 3cbd 3bdb 8abe 7671 723d

linear_stack.0.bias f4 [16]
-0.34785816 -0.41732818 -0.100946285 -0.05319815 -0.034457456 -0.25351098 -0.4356013 -0.21458593
0.10116014 -0.16147293 -0.10892942 -0.2839307 -0.08722177 -0.21325299 -0.12610969 0.04504241
00000000: 771a b2be 0aac d5be edbc cebd 4ee6 59bd
00000010: 4323 0dbd 31cc 81be 2207 dfbe 6abc 5bbe
00000020: 0c2d cf3d 2959 25be 6316 dfbd 5d5f 91be
00000030: 54a1 b2bd fe5e 5abe e622 01be 647e 383d

linear_stack.3.weight f4 [8, 16]
0.38921252 -0.24308428 -0.02766781 0.20323928 -0.23422962 -0.42366523 -0.29836145 -0.31686708
0.05841308 -0.37550983 -0.12778576 -0.2863088 -0.25644135 0.3084747 0.30457455 -0.017404744
0.35384387 -0.14022557 -0.08330374 0.2420298 -0.13009523 -0.17594543 -0.1375437 -0.51086825
0.06608789 -0.33872256 0.091891944 -0.14729697 -0.27404398 0.35003355 -0.16748133 -0.017228495
-0.09293459 -0.27125475 0.12840177 0.05366435 -0.20035766 -0.22854239 -0.19919144 -0.20643681
0.043857247 -0.014599053 0.0973937 -0.23334293 0.21575764 0.099760436 -0.034122426 0.101119444
0.32856572 -0.15310681 -0.063621216 0.2602144 -0.15251823 -0.058088426 -0.18246815 -0.104994684
-0.062616006 -0.09269582 -0.1796727 -0.19018793 -0.14216872 0.3816762 -0.06030941 0.029102508
-0.09170818 0.43380126 -0.4948365 -0.32416308 0.14947265 0.025905304 0.41645336 0.15026306
-0.12400894 0.1785692 -0.28340614 0.26608795 -0.060696047 -0.24029678 -0.19533972 -0.43917128
-0.22402216 0.42583516 -0.29257265 -0.36005202 0.097034656 0.15355273 0.282248 0.25852424
-0.020817937 0.19007482 -0.06728369 0.3051258 0.2302001 -0.44919375 -0.2815242 -0.50860757
-0.12377747 0.5184835 -0.2998035 -0.3763478 0.044546798 0.04918602 0.23241246 0.15497528
-0.1537273 0.13595533 -0.4079946 0.28763744 0.040248994 -0.29416203 -0.14270392 -0.32590744
-0.17795534 0.41447714 -0.378881 -0.14757009 0.012753049 0.14794466 0.30438417 0.17700243
-0.040450487 0.20083529 -0.26035526 0.41013512 0.14750908 -0.25145406 -0.2228123 -0.33967096
00000000: dd46 c73e 16eb 78be 9aa7 e2bc f51d 503e
00000010: e4d9 6fbe a6ea d8be d5c2 98be 673c a2be
00000020: 8e42 6f3d d342 c0be 45da 02be 1197 92be
00000030: 484c 83be 65f0 9d3e 32f1 9b3e 6594 8ebc
00000040: 062b b53e 4b97 0fbe 279b aabd a9d6 773e
00000050: af37 05be 0a2b 34be 41d8 0cbe 43c8 02bf
00000060: 1659 873d 0b6d adbe d831 bc3d 04d5 16be
00000070: 7e4f 8cbe 9937 b33e 3a80 2bbe c622 8dbc
00000080: 7e54 bebd e7e1 8abe c17b 033e 26cf 5b3d
00000090: 8f2a 4dbe 0407 6abe d7f8 4bbe 2c64 53be
000000a0: a8a3 333d de30 6fbc 5976 c73d 73f1 6ebe
000000b0: 92ef 5c3e 334f cc3d f5c3 0bbd b617 cf3d
000000c0: c439 a83e 08c8 1cbe d74b 82bd d23a 853e
000000d0: bd2d 1cbe 21ee 6dbd eed8 3abe 7407 d7bd
000000e0: d23c 80bd 4ed7 bdbd 1ffc 37be a0c0 42be
000000f0: ad94 11be 106b c33e 0007 77bd 6268 ee3c
00000100: 80d1 bbbd 331b de3e 365b fdbe b4f8 a5be
00000110: 5c0f 193e 5c37 d43c 6039 d53e 8fde 193e
00000120: 66f8 fdbd d8da 363e 9c1a 91be ae3c 883e
00000130: 6b9c 78bd 5c10 76be 2307 48be 0fdb e0be
00000140: 1166 65be 1107 da3e 15cc 95be bd58 b8be
00000150: 1bba c63d ed3c 1d3e cf82 903e 4a5d 843e
00000160: 618a aabc f9a2 423e 08cc 89bd 7339 9c3e
00000170: 93b9 6b3e b9fc e5be f123 90be 1b34 02bf
00000180: 0b7f fdbd 56bb 043f d87f 99be a9b0 c0be
00000190: b476 363d 4877 493d 88fd 6d3e d7b1 1e3e
000001a0: b06a 1dbe e037 0b3e abe4 d0be 3745 933e
000001b0: 21dc 243d 689c 96be fa20 12be 57dd a6be
000001c0: ed39 36be 5936 d43e b1fc c1be 9d1c 17be
000001d0: 2af2 503c ce7e 173e 3ed8 9b3e 2040 353e
000001e0: 69af 25bd c4a7 4d3e 494d 85be 3bfd d13e
000001f0: 9f0c 173e 96be 80be e828 64be 5ae9 adbe

linear_stack.3.bias f4 [8]
0.15596609 0.055356532 0.08285927 0.006635765 0.057360664 0.05590832 0.07595957 0.06200317
00000000: 93b5 1f3e 88bd 623d 1fb2 a93d d570 d93b
00000010: 04f3 6a3d 1f00 653d b190 9b3d 09f7 7d3d

linear_stack.6.weight f4 [8, 8]
-0.13561 -0.23131326 -0.22737177 -0.43725756 0.0945626 0.577417 0.5444679 0.504135
-0.19658732 -0.11443758 -0.20665593 -0.31117135 0.35026988 0.3404579 0.21829164 0.4172915
-0.3053176 -0.23517156 -0.17899483 -0.13218479 0.47257406 0.42536378 0.34900042 0.23373348
0.2882633 0.19182703 -0.09103983 0.1910596 -0.33557528 -0.31584233 -0.36775395 -0.31511047
-0.303793 -0.34601766 -0.20017344 -0.3084625 0.5267128 0.049853217 0.5376322 0.35603386
-0.12626295 -0.09138752 -0.36798263 -0.22543544 0.5376995 0.44185358 0.22660497 0.25140983
-0.35571906 -0.33976477 0.12188311 -0.2848235 0.31780517 0.15919374 0.4345881 0.278159
0.19378796 0.25401458 -0.07018042 0.38951516 -0.37291962 -0.46979514 -0.42597586 -0.17181416
00000000: 59dd 0abe 62dd 6cbe 25d4 68be 39e0 dfbe
00000010: 09aa c13d 9ad1 133f 4062 0b3f fe0e 013f
00000020: 304e 49be 405e eabd 9d9d 53be da51 9fbe
00000030: 9356 b33e 7f50 ae3e d887 5f3e 3ba7 d53e
00000040: 9752 9cbe d0d0 70be 6c4a 37be 735b 07be
00000050: 3af5 f13e 48c9 d93e 2fb0 b23e d457 6f3e
00000060: 3f97 933e 4e6e 443e 1773 babd 21a5 433e
00000070: 86d0 abbe 16b6 a1be 3f4a bcbe 2956 a1be
00000080: c28a 9bbe 3a29 b1be 44fa 4cbe ccee 9dbe
00000090: a6d6 063f e332 4c3d 44a2 093f 124a b63e
000000a0: 134b 01be 6129 bbbd 3868 bcbe 8cd8 66be
000000b0: ada6 093f a23a e23e 220b 683e cab8 803e
000000c0: cf20 b6be a6f5 adbe da9d f93d 63d4 91be
000000d0: 5cb7 a23e af03 233e 5582 de3e db6a 8e3e
000000e0: 5a70 463e 330e 823e c1ba 8fbd 886e c73e
000000f0: 52ef bebe fd88 f0be 8219 dabe 0df0 2fbe

linear_stack.6.bias f4 [8]
0.055058744 0.042909306 0.031809557 0.05573699 0.059428968 0.06739531 -0.020934025 0.1693893
00000000: 4785 613d abc1 2f3d bd4a 023d 784c 643d
00000010: ca6b 733d 8d06 8a3d d57d abbc 6374 2d3e

linear_stack.9.weight f4 [8, 8]
-0.21675897 -0.3324536 -0.2191299 0.28540435 -0.29369694 -0.4043481 -0.38704422 0.059747998
-0.30654177 -0.40241197 -0.24551448 0.17837965 -0.23973015 -0.336941 -0.43764117 0.20764887
0.24859563 0.3138181 0.3350531 -0.22749797 0.28342956 0.36708528 0.49122718 -0.043653417
-0.2763026 -0.44787315 -0.37541837 -0.035289183 -0.39479738 -0.29543066 -0.3858974 0.21287502
-0.24578136 -0.11914936 0.042728428 -0.2519143 -0.32628813 0.018746173 -0.24896328 0.5095028
0.18354467 0.24364214 0.30002218 -0.42853954 0.22791629 0.19715607 0.40234935 -0.1252727
-0.29735878 -0.17102972 -0.24118225 0.159524 -0.35374838 -0.49895814 -0.4620963 0.105886735
-0.34048218 -0.5703135 -0.4141066 0.3419806 -0.3722059 -0.26865834 -0.55659366 -0.24813627
00000000: 10f6 5dbe 5c37 aabe 9763 60be 8520 923e
00000010: 725f 96be b706 cfbe a92a c6be 51ba 743d
00000020: 0bf3 9cbe f108 cebe 2668 7bbe 28a9 363e
00000030: d27b 75be 8883 acbe 8112 e0be e8a1 543e
00000040: da8f 7e3e c4ac a03e 148c ab3e 3af5 68be
00000050: ae1d 913e 9af2 bb3e 2182 fb3e edcd 32bd
00000060: 8977 8dbe a14f e5be d636 c0be 648b 10bd
00000070: e222 cabe b042 97be 5894 c5be e9fb 593e
00000080: 1cae 7bbe 9404 f4bd 0104 2f3d e9fa 80be
00000090: 3d0f a7be 9391 993c 3bf0 7ebe c76e 023f
000000a0: 22f3 3b3e 537d 793e 829c 993e 8969 dbbe
000000b0: e362 693e 48e3 493e bc00 ce3e 7d47 00be
000000c0: 693f 98be 6a22 2fbe 7bf8 76be 425a 233e
000000d0: 821e b5be 7177 ffbe e397 ecbe 25db d83d
000000e0: ae53 aebe 1100 12bf c805 d4be 1518 af3e
000000f0: c691 bebe 968d 89be ec7c 0ebf 6f17 7ebe

linear_stack.9.bias f4 [8]
0.25911707 0.21692944 0.0018932481 0.240522 -0.10873071 -0.009095565 0.2296746 0.3005277
00000000: feaa 843e c022 5e3e dd26 f83a 664b 763e
00000010: 35ae debd 9105 15bc d12f 6b3e c4de 993e

linear_stack.12.weight f4 [2, 8]
-0.22518547 -0.28821173 0.4917212 -0.41297844 -0.18407764 0.5139837 -0.27401793 -0.22630996
0.23152368 0.13553688 -0.10651298 0.08518415 0.3232962 -0.2150375 0.3020652 0.20691018
00000000: 0597 66be 7d90 93be e2c2 fb3e e971 d3be
00000010: d97e 3cbe 7094 033f 144c 8cbe ccbd 67be
00000020: 8b14 6d3e 2eca 0a3e 7a23 dabd 0775 ae3d
00000030: 1487 a53e ca32 5cbe 4aa8 9a3e 43e0 533e

linear_stack.12.bias f4 [2]
-0.010914479 -0.2809672
00000000: a5d2 32bc efda 8fbe
