models/model_hr_c2_s0.1_b16_lr0.001_d0.5_e10.pth (torch, 6143 bytes, 10 tensors)

linear_stack.0.weight f4 [16, 16]
00000000: 1f2f 55be c958 c43e d293 d0bc 0c73 84bc
00000010: c54e 3abe 4364 c7bd eb76 d73d 79fd 7e3d
00000020: ff37 a2bc 38b5 a83d 1c89 263e 2069 e9bd
00000030: 7926 8d3e c0c4 943e 68cc 0e3e 2267 f83c
00000040: beb1 e73d 8a7c 0e3e 3fd1 e03d 578f 81be
00000050: ded7 e63d 7629 41be 9a6d 133e 423c 45bd
00000060: 3238 06be a31c 82be ab17 c0be 0dcd 0c3e
00000070: 9dd0 38be 7784 efbd 5f57 cd3d 1885 973a
00000080: bf8e 973e 9744 46be 3a37 063e 230d f7bd
00000090: 1fcd 00be 46bd 25be 2171 f83d 44b5 ee3d
000000a0: 5944 073d e56c 753e e83b 203e c41c 163d
000000b0: c966 57bd 97ff 8bbe 1726 dd3d e193 0f3d
000000c0: 7011 e03b ec79 b33e 20c8 b2be 269b 8b3e
000000d0: 82bc 10bd 4d08 e93c 5eb5 4abd 68f2 01bd
000000e0: c0c6 01be 15fa bebc faef 0f3e c55c 653e
000000f0: dd0a c83d 793b 9b3e a36d e5bb 9168 9c3c
00000100: f4fc 2c3e 29af 5e3e 5a05 c23d ca02 a63d
00000110: c667 dabd 15b9 aabd dd92 4e3d 42b1 263e
00000120: 9678 333c 97bd 10be 4ba6 d6bd 73a3 453c
00000130: 2a67 82bd d15f 8ebd bfec 90be 876f c0bd
00000140: c419 8b3d a7d8 ab3e 0bd3 b33d 1fb6 09be
00000150: ab41 803e 5a04 c0bd 117c 72be 515d 57be
00000160: b71a 92ba 1cb6 4ebd b2a0 02be 6038 04be
00000170: 167a d33c 1d07 803d e585 23bc 548a 43be
00000180: 4796 b83c 2e71 32be c227 483e 7add 493e
00000190: 45e4 013e 5743 2e3e 64f8 1ebe c50f 4c3e
000001a0: 3900 a8bd e850 82bd 8bd8 bbbd d24a 503e
000001b0: 322d 233d f544 fabd baa4 0fbe 1fff 573e
000001c0: e1cc 723e 72d9 91bd d310 bfbd df67 76be
000001d0: 47e1 d8bd 23b7 8bbe 70df 663e efb8 e4bd
000001e0: b160 f9bd b7ac 9fbe 514d 8bbd 212a 38bc
000001f0: c9ef aebd d83c 5bbe 2caa 7e3e 02bc 9ebb
00000200: 3709 cf3c 46f6 b93e c92e 54be 4917 b23d
00000210: b3d7 d1bd 6c01 243e daf5 073d 4d11 79bd
00000220: bf9d 5bbd 8ae7 b6bd f3ef 923e ac5e d7bd
00000230: e860 603e 5cc6 983e bd5f b03d 3b41 50be
00000240: 7c40 cc3d 46c5 f23d cc89 b9bd 4c17 24be
00000250: 5ece ccbd ad74 cebc 5bfe 253e 9f60 3dbe
00000260: adc6 283e cd8c a4bc 1e7f e33d d2d7 333d
00000270: 2e06 b9bd f059 b03d 7d77 73bd 28f5 2c3e
00000280: 6b03 b6be 76f2 03bd f05e 9ebd e023 9e3d
00000290: cffc 4a3e 2ab1 c93d 6d90 36bd e905 89bd
000002a0: 4d07 26be e666 273e c0ec 1cbd d685 163e
000002b0: b44e 233b b350 903e 1cf9 2abe fadb 2ebe
000002c0: 504c debd f79e fbbc 24b0 b8bb 9627 90be
000002d0: cc62 c03d 76f1 64be b467 a53d a181 20bc
000002e0: f169 153e b92e 82be 80b0 a1be 449c fa3d
000002f0: c244 6cbe c6df 46bd 3ede 923d 2e2d b9bd
00000300: e0cb d23d 4b78 67be c06d 71be ecd7 423e
00000310: a14c 84be 5a75 4f3c 1d9b 53bd ea97 dc3d
00000320: 8af7 293e 5c1e 523a 1276 473b 438b 87bd
00000330: 14c5 cebd 721b 9abc 47dd 203e 82fe 96be
00000340: 69c3 b4be 2f73 99bc f899 44be a886 21bd
00000350: 984e d13d 7b89 2ebd 945c 71be d6db 85bd
00000360: 134c 393e 3600 e4bd dbc8 2f3d ef61 7f3e
00000370: 1fef 253e feeb b73d d62d c43b 3cc1 d3bd
00000380: c14a c9bd 4ef5 613e 563d 48be 37a6 5dbd
00000390: 639f a8ba 753a 4cbe cad2 b6bd 2a83 dd3c
000003a0: 7cad 003e 9d99 43be 5381 8b3d ea70 893d
000003b0: 53ae d0bb 6b6b b73e dc92 39be 9a34 82be
000003c0: e1cb f23d 571a 90be 01b4 25be e0e9 243e
000003d0: a68f e33d a420 c6bd 3e46 0abd d201 d73d
000003e0: c5a8 6f3e 581f 4bbe 0e7e 9cbd b2b3 313e
000003f0: 4723 cebc 22b9 4fbe 69be 77be c4b8 35bd
-0.20818757 0.38348988 -0.025461111 -0.01616814 -0.1819411 -0.0973592 0.10520729 0.06225345
-0.019802092 0.0823769 0.1626324 -0.11397004 0.27568415 0.29056358 0.13945162 0.030322615
0.113131985 0.13914695 0.109774105 -0.25304672 0.11271642 -0.18863472 0.14397278 -0.04815317
-0.13107374 -0.25412473 -0.37518057 0.13750096 -0.1804833 -0.116951875 0.1002643 0.0011560051
0.29601094 -0.19362102 0.13107005 -0.120630525 -0.12578247 -0.16185483 0.121309526 0.116556674
0.033024166 0.23967321 0.15647852 0.036648527 -0.052588258 -0.27343437 0.10798281 0.035053138
0.006838016 0.35053957 -0.34918308 0.27266806 -0.035336025 0.028446341 -0.04948937 -0.031725317
-0.12673473 -0.023312608 0.14056388 0.2239867 0.09767697 0.30318812 -0.007001595 0.01909283
0.16893369 0.21746506 0.09473677 0.08106001 -0.106643245 -0.08336083 0.05043303 0.16278556
0.010954043 -0.14134823 -0.104809366 0.012062895 -0.06367333 -0.06951869 -0.28305623 -0.09396272
0.06792024 0.3356373 0.087804876 -0.1344838 0.250501 -0.0937583 -0.2368014 -0.21031691
-0.0011146878 -0.05046664 -0.12756613 -0.1291213 0.025815051 0.06251357 -0.009980653 -0.19095737
0.022532595 -0.17425987 0.19546416 0.19713393 0.12684734 0.17017876 -0.15524441 0.1992789
-0.082031675 -0.06363088 -0.09172162 0.20341042 0.039838023 -0.12220184 -0.14027682 0.21093415
0.23710968 -0.071215525 -0.09329381 -0.24063061 -0.10589843 -0.2728816 0.22546172 -0.11168086
-0.121766455 -0.31186458 -0.06801856 -0.011240513 -0.08541829 -0.21409929 0.24869603 -0.0048441896
0.025272949 0.36320704 -0.20720972 0.086958475 -0.102462195 0.16016167 0.033193447 -0.060807515
-0.053617235 -0.08930881 0.28698692 -0.10516104 0.21911967 0.29838836 0.08612011 -0.20337383
0.09973237 0.11854033 -0.09059486 -0.16024512 -0.10000299 -0.02520212 0.1621031 -0.1849389
0.16482039 -0.02008667 0.1110823 0.043906994 -0.09034382 0.08610904 -0.059440125 0.16890395
-0.35549483 -0.03221365 -0.07732952 0.07721686 0.19823001 0.098482445 -0.04457133 -0.066905804
-0.16213723 0.16347846 -0.03831172 0.14699492 0.0024918737 0.2818657 -0.1669659 -0.17076102
-0.10854399 -0.030715449 -0.005636232 -0.28155202 0.09393844 -0.22357735 0.080764204 -0.009796531
0.14591195 -0.25426272 -0.3157997 0.122368366 -0.23073104 -0.04855325 0.071712956 -0.090418205
0.10292792 -0.22604482 -0.23577023 0.1902768 -0.25839713 0.012662256 -0.0516616 0.10771163
0.16598335 0.0008015388 0.0030435366 -0.06618359 -0.100961834 -0.018811915 0.1570941 -0.2949105
-0.35305336 -0.018731682 -0.1919936 -0.03943506 0.10220069 -0.04261158 -0.23570472 -0.06536071
0.18095426 -0.11132853 0.04291616 0.24939702 0.16204499 0.08980559 0.0059869094 -0.10339591
-0.09828711 0.22066233 -0.19554648 -0.054113593 -0.0012864884 -0.19944175 -0.089269236 0.027040083
0.12566179 -0.19101568 0.06811776 0.0671099 -0.0063684373 0.3582414 -0.18122429 -0.25430757
0.11855293 -0.28145096 -0.16181947 0.16104841 0.11111383 -0.096741945 -0.033758394 0.10498394
0.23404224 -0.19836175 -0.076412305 0.17353705 -0.025163306 -0.20285466 -0.2419373 -0.04436566

linear_stack.0.bias f4 [16]
00000000: 4567 453e b933 9ebd ac32 153e 87a6 5d3e
00000010: ae9b 293e 0b0c 0bbe ee74 183e bb36 70be
00000020: 8173 af3d cd34 17bd 5fde 3a3d e8b8 43be
00000030: 8b6f bd3d 2c14 013e 7ff2 d93d b765 8f3e
0.19277675 -0.07724709 0.14570111 0.21645556 0.16563293 -0.13578813 0.14888355 -0.23458378
0.085669525 -0.03691559 0.045622226 -0.19113505 0.09249791 0.12605351 0.106419556 0.2800729

linear_stack.3.weight f4 [8, 16]
00000000: d0c2 8d3e e180 a23d 0dc7 64bd eb05 503e
00000010: 26d1 6bbd e9a5 60be e64c 64bd 1d89 0bbe
00000020: 3fd4 883d 48bd 3ebe aaef 19be b382 5fbe
00000030: 441f 79be 5dd1 853e 1df8 953e 70d9 90be
00000040: 423e 723e 8475 81bd 282d 75be 15a7 753e
00000050: 2503 26be 4057 7cbd a72e 013e f9dc 67be
00000060: 5ef7 513e 48c0 0fbe f867 a43e 85b5 683d
00000070: e246 b33c e265 8a3e 8545 a3bd 2616 54bd
00000080: e913 363e eb42 1dbd ef4f 86bd 422b 0e3d
00000090: 92d3 6abe 96a6 463d a2c2 5abe 130b 32be
000000a0: 1097 0d3e 5e33 5f3e 17c4 913d 7a6f 94be
000000b0: 0900 103e 0398 b33c d35d a93c 0220 473e
000000c0: 9eb8 9f3e fb1d edbd 4e72 8ab8 cb5f 113e
000000d0: 03a9 6abd f45e 7b3e 2a3f 69be 27d8 29bd
000000e0: 3180 103a bc0e 333e 55c9 2fbd bed2 37be
000000f0: 4dad e33a a044 463d cc3c 083e 0279 8ebe
00000100: 46b9 473d 18bb 2a3e f3ce eabd 074a 7ebe
00000110: d5f9 103e 17a8 4fbe 633c 853e 1f4c de3d
00000120: 9f46 afbd d447 ffbd f76a 9dbd b18e 0a3c
00000130: 4bbf f0bd 4188 283d 3559 973d 5823 93bd
00000140: 8bc4 1fbe ea83 0b3e 7741 22be d6f6 23be
00000150: f01e 183e 321b 1d3e 8e4d 203e a5b7 043e
00000160: 5721 e3bc 6a96 303d f3ff 9d3d 718b 88bc
00000170: 2b1e 4c3d 6370 88be 9800 5cbe d75e 69be
00000180: 4be8 97bd aa39 a63e 7209 0e3e 7c29 96be
00000190: 6b9c f9bd 28b9 d0bd c4f6 48bc 0f0b 5e3e
000001a0: 19c4 4fbd ebab 043d 61fc 54be d0f4 263e
000001b0: 4103 a43d 7625 44be 6e54 2fbc eab8 113d
000001c0: 07d3 bd3d 5120 c5bd 9fa8 5abd 43e9 5c3e
000001d0: 5743 e5bd 3bf0 c63d 22b2 093e c22b 5fbe
000001e0: 7ddb 5f3e 875a 133e 82c3 2b3e 933d 383b
000001f0: bf61 7fbd ef37 0d3e 8674 a53d 05e9 38be
0.27687693 0.07934738 -0.055853892 0.20314758 -0.057572506 -0.2193829 -0.0557374 -0.13626523
0.06681108 -0.18626893 -0.15032831 -0.21827202 -0.24328333 0.26136294 0.29290858 -0.28290892
0.23656562 -0.063212425 -0.23943007 0.23989518 -0.16212137 -0.061606646 0.12615453 -0.22642888
0.2050452 -0.14038193 0.32110572 0.056813736 0.021884385 0.27030855 -0.07972244 -0.051778935
0.17781033 -0.038393896 -0.06558215 0.034709223 -0.2293227 0.048498712 -0.21363309 -0.17387037
0.13827157 0.21796939 0.07117479 -0.289913 0.14062513 0.02192307 0.020674622 0.19445804
0.3119554 -0.11577984 -6.601644e-05 0.14196698 -0.05729009 0.2454794 -0.22778001 -0.041465905
0.0005512266 0.1748609 -0.042916615 -0.17951486 0.0017370373 0.04840529 0.13304442 -0.27826697
0.048760675 0.16672933 -0.11465254 -0.24832927 0.14157803 -0.20278965 0.26022634 0.10854363
-0.08558392 -0.12464872 -0.076864175 0.008456872 -0.11755236 0.041145567 0.07390062 -0.07184476
-0.15602319 0.1362454 -0.15845285 -0.16012129 0.14855552 0.15342405 0.15654585 0.1296068
-0.027725859 0.043112196 0.07714834 -0.016668053 0.049833458 -0.26648244 -0.21484601 -0.22790085
-0.07417353 0.3246587 0.1387079 -0.29328525 -0.121880375 -0.10191566 -0.012265865 0.21683906
-0.050724123 0.032390516 -0.207994 0.16304326 0.08008433 -0.19154915 -0.010701282 0.03557674
0.09268766 -0.096253045 -0.053383466 0.21573357 -0.11194485 0.09713789 0.13446859 -0.21794036
0.21861072 0.14390002 0.16773799 0.0028112873 -0.062349077 0.13790868 0.08078866 -0.1805764

linear_stack.3.bias f4 [8]
00000000: 800f 5e3e 5393 8dbd b513 533e b8d1 9abc
00000010: 409f 6ebd 1f56 473e 6ad3 5e3e ee4f 223e
0.216856 -0.069128655 0.20612986 -0.01889883 -0.05825734 0.19466446 0.21760336 0.15850803

linear_stack.6.weight f4 [8, 8]
00000000: 5bbe 023e 0424 073e 734f 9ebe 9c71 99be
00000010: c2b6 98be febf 783e 7114 f23d 21fe 9d3e
00000020: 7492 fe3b ee31 6f3e aaa1 49be 0171 3fbe
00000030: 41c4 293e 7350 8dbc 8428 12be fe89 823e
00000040: 5474 cdbd df49 bfbd 772b 89be d7d5 4b3d
00000050: cd75 7c3e 6cf9 b43e ed41 c03e 71d7 d1bd
00000060: d5f1 9c3e fa38 6b3e fbc2 f4bd f919 afbd
00000070: e917 e4bd ab19 83be 341a a0be 8d2b 3cbe
00000080: e864 4bbe 2b3e 77be 6ea9 debd b134 98be
00000090: c789 a13e ef2d 54be 582c d63e f162 b7bc
000000a0: 05c9 423e bb17 e33d ace0 adbe 271d 16be
000000b0: c866 3f3e 8de9 703e 86c0 0ebe 6993 d2bd
000000c0: 96b6 7ebe 4b6b 55be 94eb 263e 6cb1 bebe
000000d0: a2c8 81bd ac82 66bd 5345 be3e 1b30 bdbd
000000e0: 7a35 c83d ec82 7a3e c042 383e 6aec dd3e
000000f0: d26a 22bd 7454 a9be bd32 b9be 525c 8c3e
0.12767927 0.13197333 -0.3091999 -0.2996949 -0.29826933 0.24291989 0.11820305 0.30857947
0.0077689234 0.2335889 -0.19690576 -0.18695451 0.16578771 -0.017250275 -0.14273268 0.25495905
-0.100319535 -0.09340262 -0.26790974 0.04976448 0.24654312 0.35346544 0.37550297 -0.1024617
0.30653253 0.22970954 -0.11951252 -0.08549876 -0.11137373 -0.2560552 -0.3126999 -0.18375988
-0.19862711 -0.24144809 -0.1087216 -0.297277 0.31550428 -0.20720647 0.41830707 -0.022386046
0.19021995 0.110885106 -0.33960474 -0.14659558 0.18691552 0.23526593 -0.1394063 -0.102820225
-0.24874339 -0.2084171 0.16300803 -0.37244737 -0.06337096 -0.056276962 0.37162265 -0.09237691
0.09775825 0.24464005 0.17994213 0.43344432 -0.039652653 -0.33072245 -0.36171523 0.27414185

linear_stack.6.bias f4 [8]
00000000: f1ba 1e3e 810f b2bd ac62 6d3e 5a74 823d
00000010: d71e 763e 6ca2 1dbe 7e65 9f3d 26b6 903e
0.15501 -0.086943634 0.23182172 0.063698485 0.24035202 -0.1539399 0.0778303 0.28263968

linear_stack.9.weight f4 [8, 8]
00000000: bb9d a73d 0ce3 dfbc e663 f1bd 8073 9d3e
00000010: 8cd5 a3be 310c 3dbe ed9f c0be 2316 5a3e
00000020: ce2d 3a3d d5ab f5bc c88a 9cbd df5a b53d
00000030: 8711 ca3d c5ad 50bd ec47 41be 2e95 8e3e
00000040: a043 07be 6a9f 1fbe c391 a03e cdea a3bd
00000050: 3713 b73d a200 3dbe 941e ca3e 8555 a63b
00000060: c868 13be 8484 c0bd 2cb2 a8be 849c 9bbe
00000070: bb27 1abe 36a2 783e dd4d 2b3a 80d7 733e
00000080: 0a9b 04be 1c12 02be bbc7 2b3e 2338 2bbe
00000090: adf3 a5be 5c89 8f3e 6e00 19be 8955 cc3e
000000a0: 2aab 60bc 9b9f 7bbe 976a 813e e98f 19be
000000b0: f9ff 933e 2389 57be 2524 af3e fb57 abbd
000000c0: e439 4dbe d5cd a53e 4c15 c0bc 7f9e 173e
000000d0: 97b9 14be f31f 12be afa4 1dbe c14f 293e
000000e0: 073a 033c c5f5 8ebe 6b61 54be 852d a63e
000000f0: 7a37 c7bd 1748 4b3e cf7b 81be 7799 b1be
0.081843816 -0.027329944 -0.11786632 0.30752182 -0.3199886 -0.18461682 -0.37622014 0.21297507
0.04545384 -0.029989162 -0.07643658 0.08855223 0.09866624 -0.05094697 -0.18875092 0.2784819
-0.1320939 -0.15588155 0.31361207 -0.08003769 0.08939212 -0.18457273 0.39476454 0.0050761127
-0.1439544 -0.09400275 -0.32948434 -0.3039285 -0.15054218 0.24280629 0.0006534735 0.23812675
-0.12949768 -0.1270222 0.1677541 -0.16720633 -0.32412472 0.28034484 -0.1494157 0.39909008
-0.013712684 -0.24572603 0.25276634 -0.14996304 0.2890623 -0.21048407 0.34207264 -0.0836639
-0.20041615 0.323836 -0.023447655 0.14806555 -0.14523922 -0.1427 -0.15394853 0.1653433
0.00800944 -0.27921882 -0.20740287 0.32456604 -0.09727378 0.19851719 -0.2528977 -0.34687397

linear_stack.9.bias f4 [8]
00000000: e480 d43d 475f 8bbd 6f86 ffbd 9e02 ee3c
00000010: c49d 87be 7b31 df3c 35db 863d bbbc 6c3e
0.103761464 -0.06805282 -0.12476813 0.029053982 -0.26487553 0.027245274 0.06584779 0.2311887

linear_stack.12.weight f4 [2, 8]
00000000: 091a 33be 251c 2bbe c1ec ba3e 5b8d 9fbe
00000010: fdce 27be da06 df3e 22da 30be f590 cfbd
00000020: 9297 393e b358 6c3c 76d6 a43c 7f78 84bc
00000030: 3f2f 9b3e acee 0bbe 9a92 4d3e dfd5 a73d
-0.174904 -0.16709955 0.36508754 -0.31162533 -0.16387554 0.43559915 -0.17270711 -0.1013507
0.18124226 0.014425444 0.020121794 -0.016170738 0.30309483 -0.13665265 0.20075455 0.081950895

linear_stack.12.bias f4 [2]
00000000: ebd1 fcbc 5ca4 85be
-0.030861815 -0.2610196
