models/model_hr_c2_s0.1_b16_lr0.001_d0.5_e100.pth (torch, 6143 bytes, 10 tensors)

linear_stack.0.weight f4 [16, 16]
-0.16357538 0.4309904 0.066295415 -0.03474679 -0.20846444 -0.08516424 0.125404 -0.025944943
-0.014676504 -0.03947092 0.4087854 -0.1986075 -0.069847725 0.21197268 0.15286039 0.13144709
0.16073975 0.09189101 0.17385432 -0.41691092 -0.12857221 -0.05683411 0.04982823 -0.016705764
-0.17820498 -0.09001821 -0.41852763 0.28874132 -0.207996 0.043547828 0.12089508 0.030363342
0.3075614 -0.10249863 0.23064311 -0.25766712 -0.27158505 -0.1763167 0.082347944 0.05248815
-0.0932392 0.15441772 0.025222272 0.09369006 0.32431102 0.12836502 0.1540051 0.29462957
0.15584749 0.2529192 -0.17207976 0.20116413 -0.13914144 0.0903292 -0.09126783 -0.09023102
-0.069807716 -0.35720176 0.3079203 0.20851974 0.11565604 0.21590611 -0.04829 -0.10394037
0.10193901 0.2578295 -0.050564058 0.057740934 -0.115232356 -0.0914064 -0.051755194 0.06479181
0.06976368 0.2589426 -0.21504194 0.16422845 -0.41502237 -0.063435696 -0.3277284 0.19728133
0.0017990133 0.5384887 0.088055536 -0.1288403 0.26044595 -0.105356395 -0.027096294 0.055959098
0.09909143 0.18134357 0.19383986 -0.2614837 0.0441476 0.21584485 0.09377316 -0.2525726
0.0739536 -0.057024617 0.2623008 -0.0051282668 -0.11400396 0.16918358 -0.124818854 0.1405345
-0.17430519 0.247316 -0.0961592 0.26552483 0.003609093 -0.06094121 -0.09445401 0.3470137
0.24500373 -0.10427974 -0.03949651 -0.3964161 -0.3298056 -0.17167614 0.13429342 -0.027472893
-0.17576589 -0.1961045 -0.26379234 0.12926407 -0.10853582 -0.07477413 0.28134102 -0.027502324
0.024576606 0.41027856 -0.19478334 0.017254358 -0.17540438 0.14344335 0.017735029 -0.04242214
-0.06970787 -0.1826964 0.55815655 -0.06343897 0.0027136346 0.29185194 0.100845575 -0.09481684
-0.0053404993 0.26888546 -0.19249187 -0.29853323 -0.24850176 -0.053103995 0.14224592 -0.06273433
0.009980591 -0.30841905 0.31862327 0.1570292 -0.10248157 0.035836533 -0.0027316962 0.22166114
-0.26457196 -0.07081491 0.028145608 0.086345606 0.18347697 0.14038256 -0.17627198 -0.041809935
-0.018126931 -0.17041373 0.16715668 0.18143311 0.26983622 0.28247473 -0.15306588 -0.1977628
-0.010529441 -0.05495615 0.04408866 -0.16282725 0.14925455 -0.018778276 -0.064584486 0.11847399
0.14724591 -0.19414248 -0.43209144 0.23461834 -0.44752067 0.19524324 -0.025725102 -0.0729336
0.02725435 -0.06413522 -0.33031756 0.13056286 -0.305503 -0.004923084 -0.0904865 0.026520722
0.09701941 0.25184366 -0.062292308 0.06176619 -0.35356694 -0.24233684 -0.19502206 -0.016899103
-0.19686168 -0.041465744 -0.06358834 -0.061004277 0.05870644 0.014226574 -0.13811894 -0.10596466
0.12954248 -0.37056643 0.3003976 0.2824134 0.09835084 0.13716494 -0.026010774 -0.19332267
0.04123778 0.13581552 -0.04150614 0.021831619 0.042988095 -0.107959144 -0.07204785 -0.043112084
0.18840455 -0.33215111 0.3742936 0.17819417 0.065610945 0.3268041 -0.05997808 -0.23931767
0.18513595 -0.3195988 -0.17543812 0.24345455 0.21921058 -0.15254524 -0.0093079405 0.07064627
0.23266889 -0.043507814 -0.23466542 0.29020575 -0.060074076 -0.11372243 -0.27218014 -0.18085147
00000000: 4e80 27be c6aa dc3e e4c5 873d a652 0ebd
00000010: b477 55be 976a aebd e869 003e 7d8a d4bc
00000020: b875 70bc 42ac 21bd 524c d13e c45f 4bbe
00000030: 530c 8fbd 5e0f 593e 6f87 1c3e 119a 063e
00000040: f698 243e 5b31 bc3d de06 323e 5975 d5be
00000050: 6fa8 03be e2ca 68bd b018 4c3d 87da 88bc
00000060: 5e7b 36be 785b b8bd 4149 d6be e7d5 933e
00000070: e7fc 54be 355f 323d d797 f73d 8bbc f83c
00000080: b078 9d3e cdea d1bd b52d 6c3e f2ec 83be
00000090: 320d 8bbe 5d8c 34be 0aa6 a83d d0fd 563d
000000a0: 32f4 bebd ae1f 1e3e f09e ce3c 93e0 bf3d
000000b0: 180c a63e 1f72 033e 83b3 1d3e b0d9 963e
000000c0: 7c96 1f3e a07e 813e ad35 30be f8fd 4d3e
000000d0: 187b 0ebe 84fe b83d a1ea babd 0acb b8bd
000000e0: 59f7 8ebd 26e3 b6be bba7 9d3e 3386 553e
000000f0: 13dd ec3d 7e16 5d3e bccb 45bd b0de d4bd
00000100: 66c5 d03d 3a02 843e 421c 4fbd c281 6c3d
00000110: f1fe ebbd 4733 bbbd 41fd 53bd 92b1 843d
00000120: 43e0 8e3d 2094 843e f433 5cbe 812b 283e
00000130: d07d d4be 93ea 81bd 04cc a7be 1e04 4a3e
00000140: dfcc eb3a 65da 093f 7656 b43d b6ee 03be
00000150: 2c59 853e 18c5 d7bd 0cf9 ddbc 5e35 653d
00000160: 73f0 ca3d 21b2 393e f57d 463e 31e1 85be
00000170: 1dd4 343d 6f06 5d3e 240c c03d 3251 81be
00000180: fc74 973d a592 69bd 4a4c 863e 050b a8bb
00000190: e87a e9bd 763e 2d3e 07a1 ffbd 47e8 0f3e
000001a0: 0f7d 32be 6840 7d3e 1def c4bd dff2 873e
000001b0: 8886 6c3b 7d9d 79bd 1b71 c1bd c8ab b13e
000001c0: 42e2 7a3e 9e90 d5bd 18c7 21bd 0df7 cabe
000001d0: 48dc a8be dfcb 2fbe 3784 093e d50e e1bc
000001e0: f9fb 33be 9ecf 48be ca0f 87be cd5d 043e
000001f0: 0748 debd 2e23 99bd ee0b 903e 8e4c e1bc
00000200: e154 c93c 0810 d23e 4975 47be 0359 8d3c
00000210: 359d 33be d0e2 123e 0d49 913c d6c2 2dbd
00000220: 00c3 8ebd c414 3bbe 59e3 0e3f 4aec 81bd
00000230: 3cd7 313b 9e6d 953e 2088 ce3d 552f c2bd
00000240: 5bff aebb 5bab 893e 971c 45be 59d9 98be
00000250: 3f77 7ebe 9383 59bd eaa8 113e db7a 80bd
00000260: a285 233c 1ae9 9dbe 9722 a33e 43cc 203e
00000270: dbe1 d1bd 54c9 123d 4206 33bb 23fb 623e
00000280: fa75 87be 6807 91bd 9e91 e63c f7d5 b03d
00000290: 63e1 3b3e 72c0 0f3e a480 34be e540 2bbd
000002a0: ee7e 94bc f080 2ebe 1f2b 2b3e 9ac9 393e
000002b0: f927 8a3e 87a0 903e 4dbd 1cbe 5582 4abe
000002c0: ad83 2cbc b319 61bd 5096 343d 30bc 26be
000002d0: 2fd6 183e e6d4 99bc df44 84bd 7ea2 f23d
000002e0: a2c7 163e 49cd 46be 173b ddbe ca3f 703e
000002f0: 6e21 e5be d8ed 473e 73bd d2bc 365e 95bd
00000300: 8444 df3c 5459 83bd 621f a9be 45b2 053e
00000310: e46a 9cbe d251 a1bb fc50 b9bd fc41 d93c
00000320: 1db2 c63d a7f1 803e 3826 7fbd 8bfe 7c3d
00000330: ba06 b5be 2627 78be ddb3 47be fd6f 8abc
00000340: 1c96 49be fcd7 29bd 9b3a 82bd 9fdf 79bd
00000350: 2a76 703d 9416 693c 0d6f 0dbe 0004 d9bd
00000360: c9a6 043e e2ba bdbe b7cd 993e 7d98 903e
00000370: 2a6c c93d f774 0c3e 8c14 d5bc 61f6 45be
00000380: f2e8 283d 3913 0b3e 5802 2abd 39d8 b23c
00000390: 4914 303d af19 ddbd d38d 93bd 4c96 30bd
000003a0: 1fed 403e b60f aabe 69a3 bf3e 8878 363e
000003b0: 085f 863d de52 a73e 93ab 75bd b10f 75be
000003c0: 4794 3d3e 74a2 a3be 0da6 33be 264c 793e
000003d0: bd78 603e d234 1cbe 5580 18bc feae 903d
000003e0: c140 6e3e 4035 32bd 224c 70be d995 943e
000003f0: 3c10 76bd 4ee7 e8bd 325b 8bbe 2131 39be

linear_stack.0.bias f4 [16]
-0.37331215 -0.38152403 -0.08497428 -0.1462649 -0.25671726 -0.43420032 -0.27585122 -0.5200803
-0.3023516 -0.32661763 -0.21714494 -0.4994596 -0.350378 -0.31208855 -0.14618248 0.0047559864
00000000: c522 bfbe 1e57 c3be ff06 aebd 77c6 15be
00000010: 7270 83be 814f debe 5f3c 8dbe fc23 05bf
00000020: d4cd 9abe 6d3a a7be 3e5b 5ebe 2bb9 ffbe
00000030: bf64 b3be 12ca 9fbe dcb0 15be 1bd8 9b3b

linear_stack.3.weight f4 [8, 16]
0.34177446 -0.25641096 -0.24445567 0.09825177 -0.2373337 0.20312427 -0.114753194 -0.3909562
0.23420215 0.34205115 0.0024538327 -0.34709212 -0.17222781 0.23998356 0.22091363 -0.5708922
0.32286915 -0.1221685 -0.11368256 0.14545928 -0.4159135 0.42197967 -0.036542445 -0.35076755
0.21158104 0.37856105 0.21189442 -0.17892098 -0.07773364 0.2452951 0.09166912 0.031396393
0.28199148 -0.40370345 -0.2721663 0.029417232 -0.27752408 0.42574215 -0.15810242 -0.2960892
0.19588162 0.47533658 0.12326223 -0.40127146 -0.18421626 0.2143675 0.1082158 0.048947617
0.34059528 -0.29741865 -0.14565325 0.12740482 -0.13374542 0.5008507 -0.08416704 -0.19676523
0.082952395 0.50474304 0.009083462 -0.2763634 -0.11087565 0.1327014 0.100938484 -0.34236488
-0.18832974 0.30808452 0.014546682 -0.31370196 0.2718733 -0.11312374 0.31542417 0.25716534
-0.2675128 -0.20744373 -0.28498363 0.39750814 0.24429938 -0.24066144 -0.16263708 -0.0026640026
-0.34338686 0.29241502 0.12977585 -0.20893781 0.247822 -0.08664777 0.21237262 0.26877484
-0.39963952 -0.17546824 -0.21679229 0.3191309 0.289719 -0.40668267 -0.22690323 -0.016983515
-0.268609 0.27576277 0.112786755 -0.45500672 0.07998764 -0.20806327 0.23196232 0.15081702
-0.34448078 -0.14798975 -0.34638584 0.28899848 0.24485435 -0.40120253 -0.17934048 -0.026498893
0.24951236 -0.33638647 -0.24397004 0.1090576 -0.27825063 0.4730251 -0.046333015 -0.45258364
0.21756436 0.6010043 0.16839238 -0.26027867 -0.11985829 0.14637403 0.12526181 -0.0819756
00000000: 10fd ae3e 4c48 83be 9652 7abe 3938 c93d
00000010: 9b07 73be cfff 4f3e b903 ebbd 692b c8be
00000020: b0d2 6f3e 5421 af3e 7bd0 203b 0fb6 b1be
00000030: 7d5c 30be 40be 753e 2f37 623e fe25 12bf
00000040: 1b4f a53e 7b33 fabd 67d2 e8bd 47f3 143e
00000050: 9df2 d4be b80d d83e 88ad 15bd ce97 b3be
00000060: b3a8 583e c1d2 c13e dafa 583e 1037 37be
00000070: d132 9fbd a42e 7b3e 05bd bb3d 8199 003d
00000080: 3061 903e 38b2 cebe 6259 8bbe 68fc f03c
00000090: a317 8ebe e0fa d93e 9ae5 21be 0199 97be
000000a0: 3195 483e 515f f33e e870 fc3d 7473 cdbe
000000b0: 30a3 3cbe 2783 5b3e 3fa0 dd3d 4c7d 483d
000000c0: 8162 ae3e 4247 98be 2026 15be 6976 023e
000000d0: 8ff4 08be c037 003f c55f acbd d37c 49be
000000e0: f2e2 a93d d736 013f cdd2 143c 817f 8dbe
000000f0: c612 e3bd e0e2 073e d6b8 ce3d 734a afbe
00000100: 83d9 40be 41bd 9d3e 3555 6e3c 8b9d a0be
00000110: fa32 8b3e 6bad e7bd 477f a13e 2dab 833e
00000120: 70f7 88be 216c 54be 60e9 91be 3086 cb3e
00000130: 9e29 7a3e f46f 76be 568a 26be 8c96 2ebb
00000140: 67d0 afbe 6cb7 953e f6e3 043e cbf3 55be
00000150: 0dc5 7d3e 6374 b1bd 3578 593e db9c 893e
00000160: 8d9d ccbe f2ad 33be ccfe 5dbe 2065 a33e
00000170: 0c56 943e b638 d0be 5259 68be 0321 8bbc
00000180: 1e87 89be c730 8d3e befc e63d a4f6 e8be
00000190: 8fd0 a33d 8a0e 55be 8887 6d3e c76f 1a3e
000001a0: c95f b0be a08a 17be 7c59 b1be 9cf7 933e
000001b0: 19bb 7a3e 6b6a cdbe 08a5 37be 3514 d9bc
000001c0: 2b80 7f3e d93a acbe 48d3 79be 9759 df3d
000001d0: de76 8ebe 5930 f23e b0c7 3dbd 0bb9 e7be
000001e0: 31c9 5e3e 6bdb 193f 0d6f 2c3e 3f43 85be
000001f0: 4378 f5bd 13e3 153e a244 003e d3e2 a7bd

linear_stack.3.bias f4 [8]
0.13229772 0.024764517 0.106486015 0.07791825 -0.029795242 -0.018845482 -0.00247202 0.07155819
00000000: 0e79 073e f5de ca3c 5715 da3d 9a93 9f3d
00000010: 2715 f4bc d761 9abc 9d01 22bb 1a8d 923d

linear_stack.6.weight f4 [8, 8]
0.3184006 0.25992516 0.14542438 0.06155674 -0.43036893 -0.2924184 -0.38890794 0.49317434
0.21250361 0.2588811 0.24001612 0.21526268 -0.25582018 -0.17706215 -0.28661785 0.42926085
-0.29057935 -0.36581767 -0.29085496 -0.27856764 0.44049668 0.4577625 0.4558867 -0.3379504
0.31546006 0.21305841 0.2971487 0.32678297 -0.28042793 -0.2712286 -0.26959488 0.022811955
-0.33278462 -0.39241812 -0.31623936 -0.569999 0.53648114 0.27870283 0.5330175 -0.30090868
0.33757624 0.3080878 0.10416415 0.24949192 -0.1656407 -0.211158 -0.22372486 0.17584148
-0.35738862 -0.4534065 -0.20714135 -0.55192494 0.34197736 0.34246883 0.45099235 -0.26255825
0.11100593 0.09187581 0.33116055 0.472169 -0.47188213 -0.49907482 -0.5352084 0.26093745
00000000: 6705 a33e e914 853e 21ea 143e ec22 7c3d
00000010: 5159 dcbe ddb7 95be f11e c7be 5981 fc3e
00000020: 8c9a 593e 108c 843e c9c6 753e d26d 5c3e
00000030: ddfa 82be c84f 35be 93bf 92be 14c8 db3e
00000040: d1c6 94be 744c bbbe f1ea 94be 6ba0 8ebe
00000050: c888 e13e d95f ea3e fb69 e93e d607 adbe
00000060: fb83 a13e fc2b 5a3e e023 983e 1950 a73e
00000070: 4094 8fbe 7ade 8abe 5708 8abe 23e0 ba3c
00000080: bf62 aabe 07eb c8be 20ea a1be 74eb 11bf
00000090: d456 093f 23b2 8e3e d673 083f b410 9abe
000000a0: cbd6 ac3e afbd 9d3e 0454 d53d cf7a 7f3e
000000b0: b79d 29be ce39 58be 2118 65be ca0f 343e
000000c0: a4fb b6be e624 e8be dd1c 54be f44a 0dbf
000000d0: a817 af3e 1358 af3e 78e8 e63e 096e 86be
000000e0: 1457 e33d 6229 bc3d e08d a93e 23c0 f13e
000000f0: 899a f1be bc86 ffbe 6b03 09bf 9899 853e

linear_stack.6.bias f4 [8]
0.07526503 0.042177565 0.08087441 0.0538376 0.12944487 0.038748853 0.07511719 0.1368915
00000000: 8d24 9a3d 62c2 2c3d 7ca1 a53d d184 5c3d
00000010: 328d 043e 1eb7 1e3d 0bd7 993d 492d 0c3e

linear_stack.9.weight f4 [8, 8]
0.22057094 0.23516631 -0.37789446 0.267935 -0.52565646 -0.0619253 -0.6701767 0.11564085
0.23952803 0.22549944 -0.31267598 0.2966963 -0.27396506 0.1544977 -0.3165638 0.15836227
-0.3170007 -0.3054794 0.3341511 -0.3449168 0.33711037 -0.4047963 0.5793021 -0.2111038
0.08612126 0.15169035 -0.3607135 -0.11208276 -0.3571519 0.37256777 -0.3495178 0.2800892
-0.02016679 -0.20729992 -0.12875275 -0.15801553 -0.26495853 0.42422402 -0.18563156 0.39266464
-0.298461 -0.4421835 0.32222265 -0.44934338 0.32034057 -0.5040057 0.40986383 -0.26355425
0.085772455 0.35711384 -0.34033576 0.23686613 -0.3689348 0.08624038 -0.47663543 0.13345458
0.25898883 0.17687897 -0.440306 0.40817568 -0.40376902 0.33032236 -0.60415983 -0.366074
00000000: 59dd 613e 70cf 703e 627b c1be c72e 893e
00000010: 6c91 06bf 62a5 7dbd b390 2bbf 1cd5 ec3d
00000020: d646 753e 53e9 663e 1117 a0be 94e8 973e
00000030: 2645 8cbe a534 1e3e a714 a2be b829 223e
00000040: ea4d a2be cc67 9cbe da15 ab3e ef98 b0be
00000050: bb99 ac3e 7641 cfbe 244d 143f 982b 58be
00000060: 5860 b03d b754 1b3e 71af b8be a58b e5bd
00000070: 9ddc b6be 34c1 be3e fff3 b2be da67 8f3e
00000080: d334 a5bc 6e46 54be c3d7 03be d3ce 21be
00000090: a5a8 87be e433 d93e 3316 3ebe 570b c93e
000000a0: e1cf 98be e065 e2be 5efa a43e 5610 e6be
000000b0: ae03 a43e 8406 01bf acd9 d13e 95f0 86be
000000c0: 78a9 af3d a0d7 b63e 7d40 aebe 098d 723e
000000d0: 06e5 bcbe cc9e b03d 8f09 f4be 51a8 083e
000000e0: 2f9a 843e c31f 353e ca6f e1be 67fc d03e
000000f0: d0ba cebe 0320 a93e 38aa 1abf 0d6e bbbe

linear_stack.9.bias f4 [8]
0.17018801 0.10928627 0.1935665 0.14738026 0.07026793 0.18443504 0.16758026 0.2171967
00000000: c445 2e3e 7bd1 df3d 4c36 463e daea 163e
00000010: a2e8 8f3d 8adc 3c3e 299a 2b3e d068 5e3e

linear_stack.12.weight f4 [2, 8]
-0.22519554 -0.24933001 0.5940524 -0.3584685 -0.13404477 0.58657914 -0.21095285 -0.23353207
0.23153363 0.09665563 -0.20884526 0.030672051 0.2732639 -0.2876348 0.23900017 0.21413217
00000000: a999 66be 5e50 7fbe d113 183f 2f89 b7be
00000010: 0843 09be 0d2a 163f 0604 58be 0823 6fbe
00000020: 2717 6d3e 63f3 c53d 88db 55be f443 fb3c
00000030: 3fe9 8b3e de44 93be 76bc 743e 7745 5b3e

linear_stack.12.bias f4 [2]
0.08697938 -0.37886128
00000000: 3f22 b23d 1bfa c1be
