models/model_trt_c2_s0.1_b16_lr0.001_d0.5_e100.pth (torch, 6143 bytes, 10 tensors)

linear_stack.0.weight f4 [16, 16]
0	0xbe7e5b7a	-0.24839583
1	0x3eb5c32d	0.3550047
2	0xba6bc421	-0.0008993764
3	0x3bf33f5b	0.007423324
4	0xbe299799	-0.16561736
5	0xbdde175a	-0.10844298
6	0x3dfcffde	0.1235349
7	0xbdec8946	-0.1154962
8	0xbd7e0238	-0.062013835
9	0x3e9b40bf	0.30322835
10	0x3e0f3435	0.13984759
11	0xbe9252b7	-0.2857873
12	0xb9a1ed21	-0.00030884988
13	0x3ecc6e64	0.3992797
14	0xbdcad577	-0.099039964
15	0x3e6c574f	0.2308018
16	0x3e9c5f7c	0.305416
17	0x3e76bd69	0.24095692
18	0x3dfa2dc5	0.12215761
19	0xbd656dbd	-0.056012858
20	0x3ebb63a5	0.3659946
21	0xbe8eac4a	-0.2786582
22	0x3e59e3b1	0.21278264
23	0x3c21fd3c	0.009887036
24	0xbc56a2c1	-0.013100327
25	0xbd38b831	-0.045097534
26	0xbe19f1d0	-0.1503365
27	0x3ced79b7	0.028988702
28	0xbe1449f2	-0.14481333
29	0x3bcb5016	0.0062046153
30	0xbc809722	-0.015697066
31	0x3d3bc8cf	0.045845803
32	0x3efb5b89	0.49093273
33	0x3df65e89	0.1202975
34	0x3d17a650	0.037023842
35	0xbcca1798	-0.024669454
36	0xbca4f407	-0.020135893
37	0xbe10f8dd	-0.14157434
38	0x3e030838	0.12796104
39	0x3e3a56d3	0.18197183
40	0x3e115d4e	0.14195749
41	0x398dcc38	0.0002704577
42	0x3da2a747	0.07942062
43	0xba972ea3	-0.0011534285
44	0x3e48239a	0.19544831
45	0xbdeb88a0	-0.115006685
46	0x3e288370	0.1645639
47	0x3de1fd3a	0.11034627
48	0xbe60a8d2	-0.219394
49	0x3e829bf0	0.25509596
50	0xbe74bea1	-0.23900844
51	0x3e165990	0.14682603
52	0xbe2c55f8	-0.1682967
53	0xbc5a3091	-0.013317243
54	0x3d9e81ec	0.077396244
55	0xbd33e8fc	-0.043923363
56	0xbe125620	-0.14290667
57	0x3e8e7208	0.27821374
58	0xbd0729f9	-0.032999013
59	0xbdffe9ef	-0.12495791
60	0xbd45fd42	-0.04833723
61	0x3f034aaf	0.51285833
62	0xbe35b7bd	-0.17745872
63	0x3e91bd62	0.284648
64	0x3dccd39b	0.10001298
65	0x3ea77e98	0.3271377
66	0xbd0b2026	-0.033966206
67	0xbbce1847	-0.006289515
68	0xbe5478ec	-0.20749253
69	0xbceffeb3	-0.029296255
70	0xbb3eb360	-0.0029098615
71	0xbd75e827	-0.06003585
72	0xbd927afd	-0.071523644
73	0xbe196cff	-0.14982985
74	0x3c937504	0.018000133
75	0x3dcc34bc	0.09970996
76	0xbd8bf27f	-0.06833362
77	0xba0addb8	-0.0005297321
78	0xbe8a6262	-0.27028185
79	0xbe0514af	-0.12996171
80	0x3ea1ffb5	0.316404
81	0x3e861418	0.26187205
82	0x3e0c9152	0.1372731
83	0xbda95d2b	-0.082697235
84	0x3eb2bb2d	0.3490843
85	0xbe468bb9	-0.19389237
86	0x3ba2ea03	0.004971744
87	0x3dbff8d8	0.09373635
88	0x3d9ead4e	0.07747899
89	0x3c6822fc	0.014168497
90	0xbe037c37	-0.12840353
91	0xbdfcab9d	-0.1233742
92	0x3dceecc4	0.10103753
93	0xbe30a0f8	-0.17248905
94	0x3d96fd11	0.07372487
95	0x3b84eade	0.0040563187
96	0xbd14b811	-0.036308352
97	0xbdac1a02	-0.08403398
98	0x3e49cf3d	0.19707961
99	0x3e50ae06	0.20378885
100	0x3e34ac05	0.17643745
101	0x3dec43f0	0.115363955
102	0xbdb22a87	-0.08699518
103	0x3da9455c	0.082651824
104	0xbe1119c3	-0.14169984
105	0x3d313cfb	0.043271046
106	0xbd9e7e0d	-0.07738886
107	0x3ec938fb	0.39301285
108	0x3d6335bf	0.05547118
109	0xbdc5e2e7	-0.09662419
110	0x3e3febb0	0.18742251
111	0x3e7368e2	0.23770478
112	0x3da796dc	0.08183071
113	0xbd9e68c3	-0.077348255
114	0xbe5b9485	-0.21443374
115	0xbdbd3f94	-0.09240642
116	0xbd56ede9	-0.052472983
117	0x3d444609	0.047918353
118	0xbb8dd76a	-0.004328658
119	0xbe04b43f	-0.12959383
120	0xbcaeb436	-0.021326166
121	0xbe43f755	-0.19137318
122	0x3db076a6	0.086163804
123	0x3d8bd70f	0.068281285
124	0xbe69b40b	-0.22822587
125	0xbe8a1746	-0.2697088
126	0xbe0825ed	-0.13295718
127	0xbecbde24	-0.39817917
128	0x3d7a3cc5	0.06109311
129	0x3d9a6215	0.07538239
130	0xbdc22c31	-0.09481085
131	0x3bfcd940	0.007716328
132	0xbe7b29ff	-0.24527739
133	0x3e8c22b5	0.2737023
134	0x3e4f48f8	0.20242679
135	0x3cbf1359	0.023324655
136	0x3e0e8d50	0.13921094
137	0xbe8417f3	-0.25799522
138	0x3ebd3338	0.3695314
139	0xbcdf4e75	-0.02725909
140	0x3e83a298	0.25709987
141	0x3ee02af7	0.4378278
142	0x3d24e823	0.040260445
143	0xbb957820	-0.004561439
144	0x3ed3688e	0.41290706
145	0x3d89e7eb	0.06733688
146	0xbdb4beb2	-0.08825435
147	0xbd83d944	-0.064379245
148	0x3ce8c36d	0.028413499
149	0xbd71a661	-0.058996562
150	0x3ea35967	0.31904146
151	0x3b8ce3a9	0.0042996
152	0x3e6020c1	0.21887495
153	0x3d148762	0.036261924
154	0x3e8b7593	0.2723814
155	0xbda62761	-0.0811298
156	0x3d4a0c37	0.049328055
157	0x3d98c69f	0.07459759
158	0xbe56aef6	-0.2096518
159	0x3e25ffd1	0.16210867
160	0xbf1bbc76	-0.60834444
161	0xbe4187a8	-0.18899405
162	0xbdf8cf38	-0.12148899
163	0xbcf9254b	-0.03041329
164	0x3da876b4	0.08225766
165	0x3cd34830	0.025791258
166	0xbd1c0426	-0.038089894
167	0x3d701f14	0.05862339
168	0xbc3c63e9	-0.01149843
169	0x3e74d605	0.23909767
170	0xbe1297d9	-0.14315738
171	0x3e7718bf	0.24130534
172	0xbdf971e1	-0.12179924
173	0x3ef014d2	0.46890885
174	0xbe92fd51	-0.2870889
175	0xbbef3eac	-0.0073011722
176	0xbce3f0e5	-0.027824828
177	0xbe865376	-0.2623555
178	0x3e86b18c	0.26307333
179	0xbc8f37ab	-0.0174826
180	0x3ecbc02c	0.39795053
181	0xbe9229c8	-0.28547502
182	0x3db95a0f	0.090503804
183	0x3c5b5796	0.013387581
184	0x3de11970	0.1099118
185	0x3dc594ad	0.09647498
186	0xbe63b8a6	-0.22238407
187	0x3ed1bdb4	0.40965044
188	0xbe6d609c	-0.23181385
189	0xbd371559	-0.044698093
190	0x3e94082a	0.2891248
191	0xbdf89f2e	-0.12139736
192	0x3da28cef	0.07937037
193	0xbea500c8	-0.3222716
194	0xbe8b9856	-0.2726466
195	0x3e7b3309	0.24531187
196	0xbe092910	-0.1339457
197	0xbe21b641	-0.1579218
198	0xbd51635f	-0.05112016
199	0x3da371a2	0.07980658
200	0x3e0cab23	0.13737158
201	0x3d3c1f27	0.045928147
202	0x3e16286d	0.14663859
203	0x3e01c4dc	0.12672752
204	0x3dff11ff	0.12454604
205	0xbe97f5e5	-0.2967979
206	0x3e723f01	0.23656847
207	0xbe99c6dc	-0.3003453
208	0xbf21ff02	-0.63279736
209	0xbdac6eee	-0.08419596
210	0xbe363f86	-0.1779767
211	0xbe0f6c61	-0.14006187
212	0xbcc0e11c	-0.02354484
213	0xbd4aeed4	-0.04954417
214	0x3b09877e	0.00209853
215	0xbd5f38a7	-0.054497387
216	0x3d81786d	0.063217975
217	0xbb0dd798	-0.0021643396
218	0xbd03da2f	-0.032190498
219	0x3eb5d86b	0.35516676
220	0xbd328931	-0.043587867
221	0x3ea49895	0.3214766
222	0xbe13e19a	-0.14441529
223	0x3e1bf14f	0.1522877
224	0xbe67d709	-0.22640623
225	0xbe30737e	-0.17231557
226	0x3c87fdcb	0.01660051
227	0xbd62c044	-0.05535914
228	0xbd968fa2	-0.073516145
229	0xbddea017	-0.108703785
230	0x3e20a974	0.15689641
231	0x3d69b259	0.05705485
232	0x3e66371f	0.22481965
233	0xbbaf264f	-0.005345143
234	0x3d7d465d	0.06183468
235	0x3d621af3	0.055201482
236	0x3e7e95f4	0.2486189
237	0x3f45c6e3	0.772566
238	0xbe935109	-0.28772762
239	0xbd1ed131	-0.03877372
240	0x3df75369	0.12076456
241	0xbe6d1415	-0.23152192
242	0xbea23243	-0.31678972
243	0x3db3175a	0.08744688
244	0x3d612fb9	0.054977152
245	0xbdf85ebc	-0.12127444
246	0xbdfeb9f8	-0.124378145
247	0x3c4e0258	0.012573801
248	0x3db3f514	0.08786979
249	0xbecd7ffd	-0.4013671
250	0x3e23a27b	0.1597995
251	0x3f1d7527	0.61506885
252	0x3d5b0b31	0.05347747
253	0xbe3516ed	-0.17684527
254	0xbcd39af9	-0.025830733
255	0xbe954224	-0.29152024

linear_stack.0.bias f4 [16]
0	0xbd3a2379	-0.045443986
1	0xbe3bb791	-0.18331744
2	0xbd7aa430	-0.061191738
3	0xbd7ef980	-0.06224966
4	0xbdde77f8	-0.10862726
5	0xbe40c355	-0.18824513
6	0xbe38f59c	-0.18062443
7	0xbf12ceb8	-0.5734668
8	0xbc8dbae4	-0.01730103
9	0xbd9cff76	-0.07665913
10	0xbea0603b	-0.31323418
11	0xbf0487a4	-0.5176947
12	0x3c917984	0.017758138
13	0xbe3a2706	-0.18178949
14	0xbe409ae9	-0.18809094
15	0x3dfc20f0	0.1231097

linear_stack.3.weight f4 [8, 16]
0	0x3e8636b3	0.26213607
1	0x3e7436af	0.23848985
2	0x3d160cee	0.036633424
3	0x3e2b9059	0.16754283
4	0xbe05785d	-0.13034196
5	0x3d58f66b	0.052969377
6	0xbe317a9c	-0.17331928
7	0xbeac353d	-0.33634368
8	0x3d451a0b	0.04812054
9	0x3e15be86	0.1462346
10	0x3e57ef7a	0.21087447
11	0xbefd2e1a	-0.49449235
12	0xbea68d7e	-0.32529825
13	0x3e8f0658	0.27934527
14	0x3eb0ec53	0.345553
15	0xbf0abc78	-0.5419383
16	0x3e4c04ec	0.19923753
17	0x3e7cf5be	0.24703118
18	0xbecb9449	-0.3976157
19	0x3e262b67	0.16227494
20	0xbdd071d4	-0.10177961
21	0xbe78437f	-0.24244498
22	0xbde1c8db	-0.11024638
23	0xbe44d6c6	-0.19222555
24	0x3db3139c	0.087439746
25	0xbeab5cd7	-0.3346927
26	0x3f09e234	0.53860784
27	0xbe650120	-0.2236371
28	0xbd898d97	-0.06716459
29	0x3e7cdff6	0.2469481
30	0x3e3116b1	0.17293812
31	0xbe2053b9	-0.15656938
32	0xbd38f4d1	-0.04515535
33	0x3ba0c7f6	0.0049066497
34	0xbdaff486	-0.08591561
35	0xbe0b5d1e	-0.1360974
36	0xbe51aeb1	-0.20476796
37	0xbe0d1d93	-0.13780813
38	0xbeafae81	-0.34312823
39	0xbb7e976c	-0.0038847579
40	0xbb82423f	-0.0039751823
41	0xbd9fcc29	-0.07802612
42	0xbdf51fff	-0.119689934
43	0xbe861769	-0.26189736
44	0x3e4d2557	0.20033775
45	0xbe091f09	-0.13390745
46	0xbe131702	-0.14364246
47	0x3e1b347c	0.1515674
48	0x3e57ddb6	0.2108067
49	0x3e1d0158	0.15332544
50	0x3cfbd972	0.030743334
51	0x3e082182	0.13294032
52	0xbdc0d91c	-0.0941641
53	0x3dfe72e7	0.1242426
54	0xbe20f410	-0.15718102
55	0xbe7c07ec	-0.24612397
56	0xbc2c8503	-0.010529759
57	0x3e7fd646	0.24984083
58	0x3eae8c72	0.34091526
59	0xbebb1884	-0.3654214
60	0xbddd978b	-0.1081992
61	0x3e548d4b	0.20757024
62	0x3e9dd9c0	0.30830193
63	0xbeb4bd30	-0.3530059
64	0x3e50db0f	0.20396064
65	0x3e578a6a	0.21048895
66	0xbe9c736f	-0.3055682
67	0xbe4640c9	-0.19360651
68	0xbcf1e0e3	-0.02952618
69	0xbde39471	-0.11112297
70	0x3d0f9243	0.035051595
71	0xbb3504b7	-0.0027621218
72	0x3df32d03	0.1187382
73	0xbe6ad2e2	-0.22932008
74	0x3dcef3ea	0.10105117
75	0xbe3cf433	-0.1845253
76	0xbea4d830	-0.32196188
77	0x3e879705	0.26482406
78	0x3eb25cc7	0.34836408
79	0xbe770ebf	-0.24126719
80	0xbec4e7c3	-0.3845807
81	0xbe04cbc4	-0.12968355
82	0xbe458ba6	-0.19291553
83	0xbecc0623	-0.39848432
84	0x3d7a9ecb	0.061186593
85	0xbe5b9374	-0.21442968
86	0x3dd3da03	0.10344317
87	0x3e8193a0	0.2530794
88	0xbeb2269a	-0.34795076
89	0xbea616cd	-0.3243927
90	0xbecb3dc2	-0.39695555
91	0x3eed9f45	0.46410576
92	0x3d94fc2c	0.072746605
93	0xbee54cab	-0.44785056
94	0xbeb3b4f3	-0.3509899
95	0x3d67a57c	0.056554303
96	0xbe93fcf5	-0.28903928
97	0xbdfb1871	-0.12260521
98	0xbe151d9a	-0.14562073
99	0xbeb7c2f9	-0.3589094
100	0x3c5ecb27	0.01359824
101	0xbe2bbba0	-0.16770792
102	0x3db3e7a6	0.08784418
103	0x3eaf645a	0.3425625
104	0xbeb6cac8	-0.35701585
105	0xbea342ed	-0.31886998
106	0xbed24793	-0.41070232
107	0x3f045ee7	0.5170731
108	0x3d3cbf11	0.046080653
109	0xbedfb9bd	-0.43696395
110	0xbe98830b	-0.29787478
111	0x3d6b65c1	0.057470087
112	0x3d8a256d	0.0674542
113	0x3ddb9775	0.107222475
114	0xbd43504e	-0.047684006
115	0x3e4da272	0.20081499
116	0xbdd4d62a	-0.10392411
117	0x3e2a3ad8	0.1662401
118	0xbe4bbc24	-0.19895989
119	0xbe5d9909	-0.2164041
120	0x3d51b70d	0.05119996
121	0x3e7dfabb	0.24802677
122	0x3f041c8f	0.51606077
123	0xbef632df	-0.48085687
124	0xbe1a8e1e	-0.15093276
125	0x3e54ae44	0.20769602
126	0x3e43a34e	0.19105265
127	0xbeaade68	-0.33372808

linear_stack.3.bias f4 [8]
0	0x3df447f8	0.119277894
1	0x3cec37ce	0.028835203
2	0x3cb49858	0.0220453
3	0x3d825ec8	0.06365734
4	0xbb09ecfd	-0.0021045797
5	0x3d8e7658	0.06956166
6	0x3dc351b4	0.09537068
7	0x3da0134b	0.0781618

linear_stack.6.weight f4 [8, 8]
0	0xbe5e5a25	-0.21714075
1	0xbe84fd81	-0.25974658
2	0xbe089e57	-0.13341652
3	0xbef2b0b5	-0.47400442
4	0xbec5498b	-0.3853267
5	0x3f430f98	0.7619567
6	0x3f03c99a	0.51479495
7	0xbe80b46a	-0.25137645
8	0x3e08cd28	0.13359511
9	0x3e98072f	0.2969298
10	0xbe99a870	-0.3001132
11	0x3df1739c	0.11789629
12	0x3ea1985c	0.31561553
13	0xbe2a72a3	-0.16645293
14	0xbe9519ab	-0.29121146
15	0x3e8efcf6	0.2792737
16	0xbe9590fc	-0.29212177
17	0xbeb2414f	-0.34815452
18	0xbe2e807b	-0.17041199
19	0xbec9cb3e	-0.39412874
20	0xbe5bd4cd	-0.21467896
21	0x3f0aad9b	0.5417115
22	0x3ecbd847	0.39813444
23	0xbebebb59	-0.3725231
24	0x3e8e8d24	0.27842057
25	0x3e5868fb	0.21133797
26	0xbe88deb5	-0.26732412
27	0x3e5bffd3	0.21484308
28	0x3c93746e	0.017999854
29	0xbeaaa10f	-0.33326003
30	0xbebba521	-0.3664942
31	0xbbeca3e1	-0.0072216843
32	0xbe9eae94	-0.30992568
33	0xbeee853e	-0.4658603
34	0x3d1639ca	0.036676206
35	0xbf1a1a95	-0.6019681
36	0xbdf54cdd	-0.11977551
37	0x3ea7d768	0.3278153
38	0x3f289e44	0.65866494
39	0xbeb51044	-0.35363972
40	0x3e8071c1	0.25086787
41	0x3e70b423	0.23506217
42	0xbe2e846e	-0.17042705
43	0x3e7f89c7	0.24954902
44	0x3ebed86c	0.37274492
45	0xbd46bb4b	-0.04851846
46	0xbddb7076	-0.107148096
47	0x3e2ee280	0.1707859
48	0xbea13d7b	-0.31492218
49	0xbec6d647	-0.38835356
50	0x3e030387	0.12794314
51	0xbf19144e	-0.5979661
52	0xbe8d49d9	-0.27595404
53	0x3e95c905	0.29254928
54	0x3f033087	0.5124592
55	0xbea5fd83	-0.32419977
56	0x3de7fb31	0.11327208
57	0x3e956685	0.2917978
58	0xbe1375b5	-0.1440037
59	0x3eb2e126	0.349374
60	0x3e8ae732	0.27129513
61	0xbf00fe78	-0.5038829
62	0xbf1aa4fa	-0.60407984
63	0x3e91e0d7	0.28491852

linear_stack.6.bias f4 [8]
0	0x3df09071	0.117463
1	0x3d726e8e	0.059187464
2	0x3e02eba0	0.12785196
3	0x3d5eaf7a	0.054366566
4	0x3e221e6a	0.15831915
5	0x3c94fff2	0.01818845
6	0x3df6a916	0.12043969
7	0x3e15bd3f	0.14622973

linear_stack.9.weight f4 [8, 8]
0	0xbe8ddf98	-0.2770965
1	0x3e546b7e	0.2074413
2	0xbec97150	-0.39344263
3	0x3e857d08	0.26071954
4	0xbeedefff	-0.46472165
5	0xbc290d73	-0.010318148
6	0xbf264881	-0.6495438
7	0x3e1b6cac	0.15178174
8	0xbe8317b8	-0.25604033
9	0x3e4874b1	0.19575764
10	0xbee00a94	-0.4375807
11	0x3e9225bb	0.2854441
12	0xbe841919	-0.25800398
13	0x3d374f96	0.044753633
14	0xbf0a8aae	-0.5411786
15	0x3e5288c2	0.20559981
16	0x3e82a182	0.25513846
17	0xbea16acf	-0.315268
18	0x3ecf09e2	0.40437227
19	0xbe305beb	-0.17222564
20	0x3e7c2a59	0.2462553
21	0xbeaf1b2d	-0.3420042
22	0x3f0260e0	0.5092907
23	0xbe0d55c1	-0.13802244
24	0xbe9b8d06	-0.3038103
25	0x3e47a2b3	0.19495659
26	0xbef6bf43	-0.48192796
27	0xbdc31b30	-0.0952667
28	0xbebe4e7f	-0.37169263
29	0x3e8f974d	0.2804512
30	0xbebd331f	-0.36953065
31	0x3e18e7be	0.14932153
32	0xbe3cc573	-0.18434696
33	0xbdeee799	-0.116652675
34	0xbdcc73b4	-0.09983006
35	0xbe14ece3	-0.1454349
36	0xbe810a47	-0.25203153
37	0x3ed7ddc4	0.4216138
38	0xbe559bb1	-0.20860173
39	0x3eb8ee20	0.36119175
40	0x3e98c755	0.29839578
41	0xbf030533	-0.5117981
42	0x3e97f57d	0.2967948
43	0xbecd8c83	-0.40146264
44	0x3ea220da	0.3166569
45	0xbf0309ce	-0.51186836
46	0x3eec7bf2	0.46188313
47	0xbe15557b	-0.1458339
48	0xbe8dca4f	-0.27693412
49	0x3eb362eb	0.35036406
50	0xbe93fafa	-0.28902417
51	0x3e457f3a	0.19286814
52	0xbea7b6d4	-0.32756674
53	0x3d1bde2d	0.03805368
54	0xbeefea3d	-0.46858397
55	0x3dc0d6b8	0.09415954
56	0xbea4d27b	-0.32191834
57	0x3ded2dc0	0.11580992
58	0xbec24408	-0.3794253
59	0x3ea279a3	0.31733426
60	0xbea4d2b1	-0.32191995
61	0x3e939ec1	0.28832057
62	0xbefe54f3	-0.49674186
63	0xbee889a4	-0.4541751

linear_stack.9.bias f4 [8]
0	0x3e3d74a0	0.1850152
1	0x3e0f8e84	0.14019209
2	0x3d877101	0.06613351
3	0x3e3b517d	0.18292804
4	0x3d886ce0	0.06661391
5	0x3dbb6e9a	0.09151955
6	0x3e406b42	0.18790916
7	0x3e4316a3	0.19051604

linear_stack.12.weight f4 [2, 8]
0	0xbe558b67	-0.20853959
1	0xbe7bf0f0	-0.24603629
2	0x3f0c158d	0.54720384
3	0xbea93efd	-0.3305587
4	0xbdbc6df5	-0.0920066
5	0x3f07274b	0.5279433
6	0xbe55d041	-0.20880224
7	0xbe61e159	-0.2205862
8	0x3e5c08e3	0.21487765
9	0x3dbf3486	0.0933619
10	0xbe25e1d2	-0.16199425
11	0x3b34f19e	0.0027609835
12	0x3e6cc679	0.23122586
13	0xbe6a7e59	-0.2289976
14	0x3e7288af	0.23684953
15	0x3e4e03d2	0.20118645

linear_stack.12.bias f4 [2]
0	0xbe06ecd4	-0.1317628
1	0xbe23f62e	-0.16011879
