models/model_yt_c2_s0.1_b16_lr0.001_d0.5_e150.pth (torch, 6143 bytes, 10 tensors)

linear_stack.0.weight f4 [16, 16]
0	0xbec15755	-0.37761942
1	0x3e2ba423	0.16761832
2	0x3bd9e009	0.0066490215
3	0x3de2761b	0.11057683
4	0xbd83d6a1	-0.064374216
5	0xbd1eb247	-0.038744237
6	0x3e20004c	0.15625113
7	0x3df5c660	0.12000728
8	0x3d645ea8	0.055754334
9	0x3e9100e5	0.28320995
10	0xba65ebf2	-0.00087708153
11	0x3e788b1e	0.24271819
12	0xbe814259	-0.25245932
13	0x3ce50bd9	0.027959751
14	0x3de8e711	0.113721974
15	0xbdc40de9	-0.09572966
16	0x3d29cdb3	0.041455936
17	0x3e506b56	0.20353445
18	0xbd35a8c4	-0.0443504
19	0xbe35b59b	-0.17745058
20	0x3e2827b9	0.16421403
21	0xbe13453d	-0.14381881
22	0xbd170639	-0.03687117
23	0x3ca47d0b	0.020079156
24	0x3e0ff0a4	0.14056641
25	0xbedcf9a8	-0.43159223
26	0xbeb950f1	-0.36194566
27	0x3d8d5e99	0.06902809
28	0x3da9eb04	0.08296779
29	0x3e2d9a81	0.1695347
30	0x3d4e030f	0.050295886
31	0x3d0f0030	0.03491229
32	0x3c271fd7	0.010200462
33	0xbd470cf1	-0.048596326
34	0x3d61b249	0.055101667
35	0xbe466979	-0.19376172
36	0xbe66025e	-0.2246184
37	0xbdb52d5d	-0.08846543
38	0x3d0e6950	0.034768403
39	0xbe42eea5	-0.19036348
40	0xbdcb7a08	-0.09935385
41	0x3e91d767	0.2848465
42	0x3d30777d	0.043082703
43	0x3e31baef	0.17356466
44	0xbee5c03c	-0.44873226
45	0xbca0aec7	-0.01961459
46	0xbea5d789	-0.32391003
47	0x3e54b646	0.20772657
48	0xbe16d330	-0.14728999
49	0xbc706d95	-0.014674564
50	0xbe5e0292	-0.21680668
51	0x3e6a49af	0.2287967
52	0xbd9bfab5	-0.07616178
53	0x3d0fcd7e	0.035108082
54	0x3d988569	0.07447321
55	0x3bddfba3	0.006774382
56	0xbca3f271	-0.020013066
57	0x3ea77a8b	0.3271068
58	0xbd75a763	-0.059974086
59	0x3ed82a44	0.42219746
60	0xbe6d2966	-0.23160324
61	0xbc81f435	-0.015863517
62	0x3e5127c4	0.20425326
63	0xbd5dde95	-0.05416735
64	0x3d3d4147	0.04620483
65	0x3e8654ba	0.26236516
66	0xbd10895e	-0.035287254
67	0x3e01cfc0	0.12676907
68	0xbc8e22b7	-0.017350538
69	0xbe11f5e1	-0.14253952
70	0x3d12819d	0.03576814
71	0xbd259c12	-0.040432043
72	0x3dc06905	0.09395031
73	0xbeb7b0a5	-0.35876957
74	0xbe750bf2	-0.23930338
75	0xbe11ddf2	-0.14244822
76	0x3dacd6f8	0.084394395
77	0x3e5336a8	0.20626318
78	0xbd7ca238	-0.06167814
79	0x3dc219c5	0.094775714
80	0x3c61661f	0.013757258
81	0x3ea3002c	0.3183607
82	0x3d5063a8	0.05087629
83	0xbe228dbd	-0.15874381
84	0x3e62ab0c	0.22135562
85	0xbdb5c9bc	-0.088763684
86	0xbcb5c5f7	-0.022189124
87	0xbcb2137a	-0.021737803
88	0x3e8917f5	0.2677609
89	0xbec6b5f2	-0.38810688
90	0xbebde273	-0.3708683
91	0xbd3fdf42	-0.046843775
92	0x3d95a284	0.07306388
93	0x3e801906	0.2501909
94	0xbb41b02b	-0.0029554467
95	0xbd7c69b0	-0.06162423
96	0xbd2932cd	-0.041308213
97	0xbd95ff0a	-0.073240355
98	0x3e3cebf6	0.18449387
99	0x3dd0752b	0.10178598
100	0x3d992f72	0.074797526
101	0x3d56a868	0.0524067
102	0xbe38a070	-0.18029952
103	0xbd4f59cb	-0.050622743
104	0xbe396de4	-0.18108326
105	0x3e010f21	0.12603427
106	0xbcad65b7	-0.021166665
107	0x3e26b76a	0.16280904
108	0xbe99df6b	-0.30053267
109	0x3dee3da6	0.11632852
110	0xbef3d85e	-0.47626013
111	0x3e5fb831	0.21847607
112	0x3daf7107	0.0856648
113	0xbccf7314	-0.025323428
114	0xbe63a93e	-0.2223253
115	0xbde21d41	-0.11040736
116	0xbc4d187a	-0.012518043
117	0xbe19ca43	-0.15018563
118	0x3dcd198f	0.100146405
119	0xbda8a529	-0.08234627
120	0x3ddb97b0	0.107222915
121	0xbf15d73f	-0.58531564
122	0xbe4bbc55	-0.19896062
123	0xbe489e8f	-0.19591735
124	0xbd844d25	-0.06460027
125	0x3db195a7	0.08671122
126	0xbd2ceb58	-0.04221663
127	0x3d38542a	0.04500214
128	0x3d959c71	0.073052295
129	0x3da55a20	0.080738306
130	0xbdae0123	-0.084963106
131	0x3db761b0	0.08954179
132	0xbdbc32a3	-0.09189346
133	0x3dd3af83	0.103362106
134	0xbdf7b5f5	-0.120952524
135	0xbe56abd0	-0.20963979
136	0x3e458791	0.19289996
137	0xbea94001	-0.33056644
138	0x3dec0545	0.115244426
139	0xbe170bd6	-0.14750609
140	0x3e8bf3d5	0.27334467
141	0x3e0ff9b3	0.14060096
142	0xbdbf0911	-0.09327901
143	0xbcf7ed64	-0.030264564
144	0x3d63bb53	0.05559857
145	0xbdd14b27	-0.10219412
146	0x3c6f8ba2	0.014620693
147	0x3b131ec6	0.0022448762
148	0x3d8269e7	0.063678555
149	0x3d21bf46	0.039489053
150	0x3d26dfc8	0.04074076
151	0xbe1d0afc	-0.15336221
152	0x3e0935e2	0.13399461
153	0xbde763aa	-0.11298306
154	0x3da48a3b	0.08034178
155	0x3e74164f	0.23836635
156	0x3e4c4e89	0.19951834
157	0x3e4ebaa4	0.20188385
158	0xbe4f1f42	-0.20226768
159	0x3e7835c7	0.24239264
160	0xbe90316b	-0.28162703
161	0x3d8a3cf1	0.06749905
162	0xbe861315	-0.26186433
163	0x3c516b2f	0.012781902
164	0x3e3de8d2	0.18545845
165	0xbc0bdbc8	-0.008536287
166	0xbd042b93	-0.032268118
167	0x3dd38969	0.10328943
168	0xbd6e3900	-0.05815983
169	0x3eaf5ed5	0.3425204
170	0xbd33a117	-0.0438548
171	0x3ec37805	0.38177505
172	0xbe8eba34	-0.27876437
173	0xbe81420c	-0.25245702
174	0x3e07aa1b	0.13248484
175	0xbe307266	-0.1723114
176	0xbeb890b6	-0.36047906
177	0x3e0426fb	0.12905495
178	0xbe552a83	-0.20816998
179	0xbd701172	-0.058610387
180	0x3e7eb6ed	0.24874468
181	0xbbcc86cd	-0.0062416554
182	0xbc40fd0e	-0.011779083
183	0x3d997f4e	0.074949846
184	0x3e7cb759	0.24679317
185	0x3e1c3b12	0.15256909
186	0x3b6d8040	0.0036239773
187	0x3eb5f9a3	0.3554202
188	0xbea43ddd	-0.32078448
189	0xbc5f5f97	-0.01363363
190	0xbde9d7f8	-0.11418146
191	0xbd922bc7	-0.07137256
192	0x3e12f86a	0.14352575
193	0xbe2db091	-0.16961886
194	0xbe8cca07	-0.27497885
195	0x3ed37fdb	0.41308483
196	0x3d27c506	0.04095938
197	0xbe47b2e8	-0.19501841
198	0x3d82ec50	0.06392729
199	0x3e41dc6d	0.18931742
200	0x3c393c8b	0.0113059385
201	0xbe7bdf0c	-0.24596804
202	0xbc9f4ee0	-0.01944679
203	0xbe3846a6	-0.179957
204	0x3e1789a4	0.147986
205	0xbe0a9d29	-0.13536514
206	0x3db96fe3	0.09054544
207	0xbe4ff514	-0.20308334
208	0xbe743b16	-0.23850664
209	0x3d3f4adc	0.04670225
210	0xbe8d9527	-0.27652857
211	0xbbdd14ab	-0.0067468486
212	0x3e2072d2	0.156688
213	0xbdde27bb	-0.10847422
214	0xbcf64249	-0.030060904
215	0x3df1e0ec	0.118104786
216	0x3e10136a	0.14069906
217	0x3eb49e55	0.35277048
218	0x38e8c7c4	0.00011099831
219	0x3e922b9a	0.2854889
220	0xbe7d5f44	-0.24743372
221	0xbecee89b	-0.4041184
222	0x3dc0c0cd	0.09411774
223	0xbe1e0ced	-0.15434618
224	0x3d4b5ff7	0.049652066
225	0x3e6329ab	0.22183864
226	0xbcfab69b	-0.030604651
227	0x3c2d3d75	0.0105737345
228	0x3d6ebde3	0.05828656
229	0xbe457448	-0.19282639
230	0xbd8c076a	-0.068373516
231	0x3d4315c5	0.047628183
232	0x3e77f6d5	0.24215253
233	0xbf0c50f5	-0.5481103
234	0xbe88f574	-0.26749766
235	0x3deedde3	0.11663415
236	0x3e0a131b	0.1348385
237	0x3e5c1989	0.21494116
238	0x3d808d3e	0.0627694
239	0xbd65fdb4	-0.056150153
240	0x3eb9f405	0.36318985
241	0xbe75bf50	-0.23998761
242	0xbd20a543	-0.039220106
243	0x3e6523b3	0.223769
244	0x3e2619a6	0.16220722
245	0xbd9fd277	-0.07803815
246	0x3d957a4a	0.072987154
247	0xbcdfb36a	-0.027307231
248	0x3e3bb911	0.18332316
249	0xbe1f88fb	-0.15579598
250	0x3e351ede	0.17687556
251	0xbde046c2	-0.10950996
252	0x3de04402	0.109504715
253	0xbe8f3e97	-0.2797744
254	0xbeaec09f	-0.34131333
255	0x3db38a11	0.087665685

linear_stack.0.bias f4 [16]
0	0xbef90b85	-0.486416
1	0xbf2cc916	-0.6749433
2	0xbeaf0061	-0.34179977
3	0xbec5d4f1	-0.38639024
4	0xbefce0d4	-0.4939028
5	0xbf569505	-0.83821136
6	0xbeaed5bd	-0.34147444
7	0xbf5ccf1a	-0.8625351
8	0xbf167fd0	-0.58788776
9	0xbeeda4f0	-0.464149
10	0xbedfc6b0	-0.43706274
11	0xbed62ed1	-0.41832593
12	0xbec728e1	-0.38898376
13	0xbf1d7c95	-0.6151822
14	0xbf3dd0c5	-0.7414668
15	0xbcdb0aa4	-0.026738472

linear_stack.3.weight f4 [8, 16]
0	0x3e64bf38	0.22338569
1	0x3f005de0	0.5014324
2	0xbe9609d1	-0.29304364
3	0x3e076020	0.13220263
4	0xbd2bca9d	-0.041941274
5	0x3edfddf0	0.43724012
6	0xbef5d43a	-0.4801348
7	0x3ec6fd82	0.38865286
8	0x3e44db36	0.19224247
9	0xbe800514	-0.25003874
10	0x3e1656f6	0.1468161
11	0x3e1951c8	0.14972603
12	0xbe98b1a3	-0.29823026
13	0x3eca8c7d	0.3956031
14	0x3f20da9c	0.6283357
15	0xbe66a95e	-0.22525546
16	0x3e526a93	0.20548467
17	0xbda0a0b1	-0.078431495
18	0xbe519cae	-0.20469925
19	0x3e60d0a3	0.21954589
20	0xbf3b67b3	-0.7320511
21	0xbda5c53a	-0.080942586
22	0xbe98c226	-0.29835624
23	0xbefc49df	-0.4927511
24	0x3d39c588	0.045354396
25	0x3e27a90e	0.16373083
26	0x3e6e1b59	0.2325262
27	0x3e8b44f8	0.27201056
28	0xbe92e9d6	-0.28694028
29	0x3ec554cb	0.38541254
30	0x3ddfa2d5	0.109197296
31	0xbd217e55	-0.03942712
32	0x3e7baadd	0.24576898
33	0x3d3d653f	0.046239134
34	0xbdeddd2b	-0.1161445
35	0x3e692b4f	0.22770427
36	0xbe3659ce	-0.17807695
37	0x3f11f0b8	0.5700793
38	0xbdf833fe	-0.12119292
39	0x3d87996e	0.06621061
40	0x3eaa31a1	0.3324099
41	0x3ecc8119	0.39942244
42	0x3e97835a	0.295924
43	0xbd5dd62b	-0.054159325
44	0xbe0ee780	-0.13955498
45	0x3e66660d	0.22499867
46	0x3ed10d20	0.40830326
47	0xbd6c7686	-0.05773022
48	0x3dfe96e6	0.12431125
49	0x3ec5c75c	0.38628662
50	0xbd6c557b	-0.057698708
51	0x3dd42a72	0.10359658
52	0x3d6dbc00	0.05804062
53	0x3f51f5f5	0.82015926
54	0xbe860f9e	-0.2618379
55	0x3efa6c25	0.48910633
56	0x3e4c08fa	0.199253
57	0x3dffe06a	0.124939755
58	0x3e1aceed	0.15117998
59	0x3ddb9051	0.107208855
60	0xbe5bc607	-0.2146226
61	0x3eac9f5c	0.33715332
62	0x3f039d2e	0.5141171
63	0xbdce84b4	-0.10083905
64	0x3e8b9051	0.27258542
65	0x3eac7564	0.33683312
66	0xbeb7da6d	-0.35908833
67	0xbdfe9e8c	-0.12432584
68	0x3e11e66d	0.14248057
69	0x3f14f449	0.5818525
70	0xbe943101	-0.28943637
71	0x3eebe05f	0.4606962
72	0x3e5e41dc	0.21704811
73	0xbda35775	-0.079756655
74	0x3e18d027	0.14923154
75	0x3e15c025	0.14624079
76	0xbdf6d9af	-0.120532386
77	0x3eacc4fb	0.33744034
78	0x3f0bbb58	0.5458274
79	0xbdca4242	-0.09875919
80	0xbd9fb7d6	-0.07798736
81	0x3ed4273a	0.41436177
82	0xbe315efb	-0.17321388
83	0x3db4a40a	0.088203505
84	0x3e443201	0.191597
85	0x3f2c57c1	0.673214
86	0xbd8361ca	-0.06415136
87	0x3f0af719	0.5428329
88	0x3e99d92e	0.30048507
89	0x3e9e5ac8	0.30928636
90	0x3d804552	0.06263222
91	0x3e5b448a	0.21412864
92	0x3ccaece7	0.024771167
93	0xbe5e3cb7	-0.21702848
94	0x3e7686a6	0.24074802
95	0xbd2a0e5a	-0.041517593
96	0xbea5fdee	-0.32420295
97	0xbe55d0ac	-0.20880383
98	0x3dfedb42	0.12444164
99	0xbea256b8	-0.31706786
100	0xbda0e9f4	-0.07857123
101	0xbe8ac451	-0.27102903
102	0x3e352496	0.17689738
103	0xbe04adbd	-0.12956901
104	0xbd855632	-0.06510581
105	0xbe18f645	-0.14937694
106	0xbee89a35	-0.4543015
107	0xbebcbf32	-0.3686462
108	0x3d15f637	0.036611762
109	0xbeb945b5	-0.36185995
110	0xbe67f2fd	-0.22651286
111	0xbd7b6441	-0.061374906
112	0x3de02fca	0.10946615
113	0x3eeb59ea	0.45967036
114	0xbd907679	-0.07053847
115	0x3e1a58fe	0.1507301
116	0xbd1fe53b	-0.03903697
117	0x3f529116	0.82252634
118	0xbe124fdf	-0.14288281
119	0x3e56b7bd	0.20968528
120	0x3e989ba8	0.29806256
121	0x3e445072	0.19171312
122	0x3e71db42	0.23618796
123	0x3e25693f	0.1615343
124	0xbe28cb9e	-0.16483924
125	0x3eb0822f	0.34474322
126	0x3f17dbda	0.5931984
127	0x3d496c35	0.04917546

linear_stack.3.bias f4 [8]
0	0xbace8f9a	-0.0015759349
1	0xbb91df58	-0.0044516735
2	0x3c5dc7e2	0.013536425
3	0xbc2327bd	-0.009958205
4	0xbc8c69ef	-0.017140357
5	0xbdaa2ac4	-0.08308938
6	0x3dd6b2e3	0.10483339
7	0xbca0de1f	-0.019637166

linear_stack.6.weight f4 [8, 8]
0	0xbf06f9ce	-0.5272492
1	0xbee6d011	-0.45080617
2	0xbeebc696	-0.46049947
3	0xbf26a65e	-0.65097606
4	0xbf1ff883	-0.62488574
5	0xbebbba4e	-0.36665577
6	0x3f3dcfca	0.74145186
7	0xbf010b8a	-0.5040823
8	0x3e97f2ff	0.2967758
9	0x3e654ab0	0.22391772
10	0x3e7687cb	0.24075238
11	0x3e64271c	0.22280544
12	0x3f041d51	0.51607233
13	0x3f05824e	0.52151954
14	0xbe11062a	-0.14162508
15	0x3eabbc61	0.3354216
16	0x3eb10211	0.3457189
17	0x3e5d4483	0.21608166
18	0x3dfd98da	0.1238267
19	0x3eb8c9ad	0.36091366
20	0x3f09a473	0.53766555
21	0x3f07df12	0.53074753
22	0xbe1d8a06	-0.15384683
23	0x3e8c6dd2	0.27427536
24	0x3ee43978	0.44575095
25	0x3e63fc9c	0.22264332
26	0x3e5bfcf4	0.21483213
27	0x3ed43326	0.41445273
28	0x3eccd4e8	0.40006185
29	0x3e76e363	0.24110179
30	0xbe701c8a	-0.23448387
31	0x3de610fb	0.112337075
32	0xbf03f1b6	-0.51540697
33	0xbf1ed3ad	-0.6204174
34	0xbeb6f38f	-0.35732695
35	0xbf143a42	-0.57901394
36	0xbeec06b3	-0.4609886
37	0xbebaf13e	-0.36512178
38	0x3f14dbb0	0.58147717
39	0xbf0654e3	-0.52473277
40	0x3ece9729	0.403497
41	0x3e43fde9	0.19139828
42	0x3e024e67	0.1272522
43	0x3e9be2b5	0.304464
44	0x3ee54aa0	0.44783497
45	0x3ee0af12	0.43883568
46	0xbdb94506	-0.09046368
47	0x3e9c50c5	0.30530372
48	0xbf154aab	-0.5831706
49	0xbf09b394	-0.5378964
50	0xbea524df	-0.32254693
51	0xbf02a3ef	-0.5103139
52	0xbefaf88d	-0.49017754
53	0xbeb15cfd	-0.34641257
54	0x3ecba882	0.39777
55	0xbf0cb8f9	-0.54969746
56	0x3eb177b1	0.3466163
57	0x3e3d60cc	0.18493956
58	0x3e8d6efb	0.27623734
59	0x3efe5f5b	0.49682125
60	0x3eb11d10	0.34592485
61	0x3d9f109f	0.07766842
62	0xbed64278	-0.41847587
63	0x3ebd8e75	0.3702275

linear_stack.6.bias f4 [8]
0	0x3e234679	0.15944852
1	0x3b8fa292	0.0043833936
2	0x3b5c9ffe	0.0033664699
3	0x3a57d79f	0.0008233729
4	0x3e055ec8	0.13024437
5	0xbb2a6f52	-0.0026006293
6	0x3db7e8ac	0.089799255
7	0xba999e5d	-0.001172017

linear_stack.9.weight f4 [8, 8]
0	0xbed0c156	-0.40772504
1	0x3e9e1eb8	0.30882812
2	0x3e5391a5	0.20661028
3	0x3ebcb4f6	0.36856812
4	0xbf12abc6	-0.57293355
5	0x3ddfe8ca	0.10933073
6	0xbf2f5fee	-0.6850575
7	0x3e7f2ed8	0.24920213
8	0xbeacef05	-0.33776107
9	0x3e672fe6	0.22576866
10	0x3ea6d2a0	0.3258257
11	0x3ebfa72f	0.37432238
12	0xbebb0f25	-0.36534992
13	0x3ea17ff0	0.3154292
14	0xbf045128	-0.51686335
15	0x3e86fd76	0.2636525
16	0xbe9b3829	-0.30316284
17	0x3e801d09	0.25022152
18	0x3ee0ad2a	0.43882114
19	0x3e95e497	0.29275963
20	0xbeb0cc20	-0.34530735
21	0xbd73346a	-0.059376158
22	0xbee1f80f	-0.44134566
23	0x3eab9cfb	0.33518204
24	0xbed152ac	-0.40883386
25	0x3e939cf6	0.2883069
26	0xbd892a11	-0.06697477
27	0x3e3608ef	0.17776845
28	0xbecd35f1	-0.40080217
29	0x3ee40746	0.445368
30	0xbf0ce6aa	-0.55039465
31	0x3ebc9d69	0.36838844
32	0xbe4eb25c	-0.20185226
33	0x3e64020e	0.22266409
34	0x3efb7174	0.49109995
35	0x3e32d46a	0.17463842
36	0xbe7ef6a3	-0.24898772
37	0x3edc6db5	0.4305245
38	0xbeb7b717	-0.35881874
39	0x3ea8373a	0.32854635
40	0x3e637841	0.22213842
41	0xbf503624	-0.8133261
42	0xbeed95fc	-0.46403491
43	0xbf530b9c	-0.8243959
44	0x3e30fa9b	0.17283098
45	0xbf51ef02	-0.8200532
46	0x3ea6adf2	0.32554585
47	0xbf0048f4	-0.5011132
48	0xbeda2794	-0.4260832
49	0x3eaf67b4	0.34258807
50	0x3eba65af	0.36405703
51	0x3ea88890	0.3291669
52	0xbee269d1	-0.44221357
53	0x3e36109f	0.17779778
54	0xbf02418a	-0.50881255
55	0x3e56b8de	0.20968959
56	0xbef92755	-0.4866282
57	0x3e5b8a2c	0.21439427
58	0x3e81bc00	0.25338745
59	0x3efc414c	0.49268568
60	0xbf009957	-0.5023398
61	0x3eebb5d8	0.46037173
62	0xbf36b4ca	-0.7136961
63	0xbe4ae12a	-0.19812456

linear_stack.9.bias f4 [8]
0	0x3e2316d9	0.15926684
1	0x3e0428c3	0.12906174
2	0x3dc97093	0.09835925
3	0x3dda26ae	0.10651909
4	0x3dab45ca	0.083629206
5	0x3e1d4ede	0.15362117
6	0x3e04dbe4	0.12974507
7	0x3e209511	0.15681864

linear_stack.12.weight f4 [2, 8]
0	0xbea8bd17	-0.32956764
1	0xbebb902b	-0.3663343
2	0xbe10a6ff	-0.14126204
3	0xbef8bc4e	-0.48581165
4	0xbe767836	-0.24069294
5	0x3f068abd	0.5255545
6	0xbeb039ec	-0.3441919
7	0xbe978507	-0.2959368
8	0x3eabfbdd	0.33590594
9	0x3e5ac9da	0.21366063
10	0x3f06c6c1	0.52647024
11	0x3e21cebc	0.15801519
12	0x3ec283f2	0.3799129
13	0xbe680bb8	-0.2266072
14	0x3ebe961f	0.37223908
15	0x3e8d964d	0.27653733

linear_stack.12.bias f4 [2]
0	0x3e92d941	0.28681377
1	0xbf14256c	-0.578696
