models/model_zj_c2_s0.1_b16_lr0.001_d0.5_e20.pth (torch, 6143 bytes, 10 tensors)

linear_stack.0.weight f4 [16, 16]
000000 15 b3 e1 bc d4 a3 44 3e 97 5d 5a 3d bd ad c4 bd
       -0.027551213 0.1920312 0.05331191 -0.096034504
000010 f1 d6 8f be b2 6e 72 bd c5 e8 1e 3e 27 63 6c 3d
       -0.28093675 -0.0591876 0.15518482 0.057711747
000020 4b e1 14 bd 82 c7 dd 3c 62 54 94 3d fc 1f b0 bd
       -0.03634767 0.027072672 0.07242657 -0.085998505
000030 c7 b6 eb 3d c7 eb c8 3d 98 78 d9 3d 8a 2a 0d 3c
       0.115094714 0.09810596 0.106187046 0.008616099
000040 fd 2c bf 3d 00 22 22 3e 8f 59 d8 3d b2 77 99 be
       0.09334753 0.15833282 0.10563957 -0.29974133
000050 c0 25 8c 3d ed 5e 6c be 6e e4 0c 3e d7 03 12 bd
       0.06843138 -0.23083086 0.13759014 -0.035648193
000060 23 52 35 be 1f 0d 47 be c6 7a 87 be 9f 00 2c 3e
       -0.17707114 -0.19438599 -0.26460856 0.16797112
000070 ee b1 93 bd 41 63 8f bd 39 04 1c 3e 77 e6 f3 bb
       -0.07211672 -0.07001353 0.15235986 -0.007443245
000080 3d 2a 1b 3e 1e ff 9e be 34 5e 18 3e 88 0c df bd
       0.15152831 -0.31054014 0.14879686 -0.10891062
000090 d5 01 ca bd cf 70 5e be 87 51 a1 3d 12 73 a5 3d
       -0.09863631 -0.2172272 0.07876878 0.080785885
0000a0 66 fb 16 3d 0a dc 9c 3e 14 1e 97 3e b9 29 8c 3d
       0.036860846 0.30636626 0.29515135 0.068438955
0000b0 6c 52 04 3e 4c 7f ee bd 9d ab f7 3d c9 9e a2 3d
       0.12922066 -0.11645374 0.120932795 0.07940442
0000c0 cd 52 59 3e ed cc ba 3e 58 5d 75 be 1f 3f 8f 3e
       0.21222992 0.3648447 -0.23961389 0.27977845
0000d0 2d 98 66 bd d9 53 0f 3e 03 01 14 bd 29 0f 40 3d
       -0.05629747 0.13996829 -0.036133777 0.046889458
0000e0 45 92 93 bd 4c 25 85 bd c3 47 36 bd e7 99 8f 3e
       -0.07205633 -0.065012544 -0.04450203 0.28047106
0000f0 d4 cb d2 bc ef 3d 32 3e 91 74 03 be 6e af 4c 3d
       -0.025731958 0.17406438 -0.12837435 0.04997199
000100 d0 8f f2 3d 25 b4 b6 3e b9 f9 ef 3c 54 29 fe 3d
       0.11843836 0.35684314 0.029293882 0.124102265
000110 8c 22 3a bd 53 c4 00 be 33 e9 55 3d cb 74 5f 3d
       -0.045443103 -0.12574892 0.05222435 0.05455474
000120 63 35 04 3d 6c ac 02 be 92 18 ba bd 6d 94 cd bc
       0.032277476 -0.12761086 -0.09086718 -0.025095189
000130 66 04 18 bc 2e a2 8b 3d 10 f1 84 be ed 88 24 bd
       -0.009278392 0.06818043 -0.25965166 -0.040169645
000140 03 8c 72 3e c7 89 8a 3e e7 8f 22 3e 89 38 df bd
       0.23686223 0.2705824 0.15875207 -0.10899455
000150 c3 45 82 3e 31 1c 4b bb 31 5a 01 be 33 a4 bc bd
       0.2544385 -0.0030992145 -0.12632062 -0.09211006
000160 75 42 9b 3d 90 70 b8 bd 3a d6 14 be 8e b6 d4 bd
       0.07581035 -0.090058446 -0.14534846 -0.10386382
000170 87 44 2c bd a4 83 8a 3c 6d 6f c4 3d b3 e8 03 be
       -0.04205754 0.016908474 0.09591565 -0.12881736
000180 2d de ae 3d 83 04 53 be 92 fc 80 3e f7 91 37 3e
       0.085384704 -0.2060719 0.25192696 0.17926775
000190 f0 4c ba 3d b6 fe 59 3e 34 d7 fa bd 75 33 72 3e
       0.09096706 0.21288571 -0.12248078 0.23652442
0001a0 3c 0d 6d bd 85 9a a7 bb 9e 88 d4 b8 72 93 83 3e
       -0.05787395 -0.0051148557 -0.00010134395 0.2569843
0001b0 d2 a8 93 3c 14 62 09 be 23 c2 16 be d7 9e 4d 3e
       0.018024836 -0.1341632 -0.14722495 0.20080124
0001c0 8b 22 92 3e 6a 66 92 bd 29 33 13 bd 8c 54 9e be
       0.2854198 -0.0714844 -0.035937462 -0.3092388
0001d0 2a 61 f2 bd 5f 82 e2 be 42 a5 01 3e 61 a6 46 be
       -0.11834939 -0.4424009 0.12660697 -0.19399406
0001e0 88 73 9d be 34 1e 0a be 3b 7b 05 3e ff 85 15 bd
       -0.30752206 -0.13488084 0.1303529 -0.03650474
0001f0 b3 54 5a 3e 15 ff 15 3d f2 97 a1 3e 68 dc 32 bd
       0.21321373 0.03662022 0.31561238 -0.043667227
000200 bc a5 58 3e 06 65 36 3e 03 f7 23 bd e9 cf a5 bc
       0.21156973 0.17811975 -0.04003049 -0.02024074
000210 8a ad 60 be 41 c5 2a 3e bb 3c 92 3d b1 3c 97 3b
       -0.219412 0.16676809 0.0714049 0.0046153893
000220 66 03 e5 bd 4d eb 29 be 6e bc 12 3e a4 7d 38 be
       -0.11182289 -0.16593666 0.14329693 -0.18016678
000230 2f 4d 95 3d 5d 3d 21 3e 43 c4 1b 3d 4d 6d 60 be
       0.07290112 0.15746064 0.038028967 -0.21916695
000240 f3 5d b1 3d 5e 45 45 3d ce 27 a9 bc f7 6a d6 bd
       0.086604975 0.048161857 -0.020648863 -0.10469621
000250 cb 6a 98 bc 1d 71 b4 bd 2b 41 4d 3e 19 af 24 be
       -0.01860561 -0.08810637 0.20044391 -0.1608242
000260 c6 3e 19 3e c8 0c a9 3b 9c 52 df 3d c7 ac b6 3b
       0.14965352 0.0051589943 0.10904428 0.005574796
000270 eb 77 8f bd f3 c6 cf 3d fb f0 09 bc 3e 58 6f 3e
       -0.070052944 0.101453684 -0.008419271 0.23373505
000280 6c cf 21 be a6 93 85 bd a3 fd 6a bb 5a 24 27 3d
       -0.15801781 -0.06522302 -0.0035856746 0.040806152
000290 96 14 0c 3e 62 6e 32 3e 05 fb 73 3d 89 8e ea 39
       0.13679728 0.1742492 0.059565563 0.00044738155
0002a0 99 0e 0d be d7 fe 47 3e b4 e4 97 bd 09 ee 28 3e
       -0.137751 0.19530807 -0.074166685 0.16497053
0002b0 b9 d5 26 be 40 70 2b 3e d3 8c 47 be 31 01 1e be
       -0.16292466 0.16742039 -0.19487314 -0.15430142
0002c0 c6 24 cb be c8 cd 8c 3c 16 33 47 bc 0d 5a 7f be
       -0.39676493 0.017187968 -0.012158176 -0.24936695
0002d0 bb 4e f5 3d b9 e4 51 be 85 2e 13 3e b9 6f e0 bc
       0.11977907 -0.20497407 0.14373215 -0.027397024
0002e0 cc 78 25 3e 7a 1a 8e be 00 31 b2 be 7d ad 3c 3e
       0.16159362 -0.27754575 -0.3480301 0.18425556
0002f0 f8 02 68 be e0 ef e1 bc 92 7c 8b 3d 24 b9 3a bd
       -0.22657382 -0.027580202 0.06810869 -0.04558672
000300 31 89 15 3e d3 ad 81 be 32 28 af be f1 82 6b 3e
       0.14603116 -0.2532793 -0.34210354 0.22999169
000310 fe 84 59 be 0b 47 40 3d 63 fb 02 bd e4 6d 05 3e
       -0.21242139 0.04694275 -0.031978022 0.13030201
000320 1a 68 4a 3e 8a 7a 11 be 11 35 dd bd 46 7e 9b bd
       0.19766274 -0.14206901 -0.10801137 -0.07592444
000330 30 10 03 be 91 53 78 bd 66 d1 4e 3e 02 28 76 be
       -0.12799144 -0.06062657 0.20197067 -0.240387
000340 ef 92 a4 be be 19 ed bd eb 80 6a be cc 2a d4 bc
       -0.3214335 -0.115771756 -0.22900741 -0.025899313
000350 2c c5 f4 3d d6 87 c9 bc e6 16 04 be a8 d6 c2 3d
       0.1195167 -0.024600904 -0.1289936 0.09513599
000360 7c 88 4e 3e 5a 12 18 be a0 7d f2 bd 29 95 8f 3e
       0.20169252 -0.1485075 -0.11840367 0.28043488
000370 55 1e ce bd e6 b0 a8 bd b1 11 86 bc f8 a3 f1 bd
       -0.10064379 -0.08236866 -0.016365858 -0.11798853
000380 00 be d0 bc 32 26 1a 3e 11 fa 2a be b1 33 53 3c
       -0.025481224 0.15053633 -0.16696955 0.012890742
000390 f2 5c 38 3d 54 01 10 be 8b da cf bd 9d ca 0f 3e
       0.045010515 -0.14063007 -0.10149106 0.14042135
0003a0 ec df 4b 3e 88 8d 8b be e0 7f 08 bd 0c ed 8c 3d
       0.19909638 -0.27256417 -0.033325076 0.068811506
0003b0 c8 d1 aa bd c4 3a 40 3e 3f 1d 80 be 6a cf 60 be
       -0.08340794 0.18772417 -0.25022313 -0.21954122
0003c0 2c f6 d3 3d ed c7 85 be 48 f1 50 be d5 6c 58 3e
       0.10349688 -0.26129094 -0.20404541 0.21135266
0003d0 04 74 21 3e 4b f8 89 bd 29 2a 34 bd 47 7a 84 3d
       0.15766913 -0.06736811 -0.04398552 0.06468635
0003e0 92 ec 95 3e 48 1d 24 be fd 8b 8c 3a 6a 3e 5c 3e
       0.2928205 -0.16026795 0.0010722872 0.21508184
0003f0 02 46 9c 3d 33 f7 4f be d3 2a 2f be 80 94 a0 bc
       0.076305404 -0.20309143 -0.1710618 -0.01960206

linear_stack.0.bias f4 [16]
000000 8c 5b 3a 3e d4 cf c9 bd 92 f5 2e 3e e1 16 8a 3d
       0.18198985 -0.09854093 0.17085865 0.06742645
000010 58 28 22 3e 54 ba 55 be 7d c6 0e 3e 14 2a 4c be
       0.15835702 -0.2087186 0.13942905 -0.19937927
000020 72 e6 85 3c eb 75 b4 3a e1 8f 93 bd d8 eb 6f bd
       0.016345236 0.0013768052 -0.07205177 -0.058574528
000030 4e ac f5 3d 5d df 28 3e e6 32 f7 3c 5c 0d 53 3e
       0.11995755 0.16491456 0.030175637 0.20610565

linear_stack.3.weight f4 [8, 16]
000000 28 d8 50 3e 4d f7 80 3e fe 65 eb bd 41 2f 13 3e
       0.20394957 0.25188676 -0.11494063 0.14373495
000010 2b f3 06 3d 0a ed 38 be bb 25 4e bd cc 06 26 be
       0.032946747 -0.18059173 -0.05032895 -0.1621353
000020 a2 d6 b2 bd ae 0c 1e be 91 ef 6e be 58 0d 1b bd
       -0.08732344 -0.15434524 -0.23333575 -0.037854522
000030 ce fb 0f be 3d 39 7a 3e 00 75 8f 3e dd bc 0c be
       -0.140609 0.24435897 0.2801895 -0.1374392
000040 73 55 8b 3d ed a8 ae 3c 67 49 a0 be 5c 3c 02 3e
       0.068034075 0.021320784 -0.31306002 0.12718338
000050 ad 37 68 be 84 15 7c be 08 f3 b6 3d e6 e7 16 be
       -0.22677489 -0.24617583 0.08933073 -0.147369
000060 8e e1 12 bb fc 18 84 be 31 d6 36 3e 08 6c a0 3e
       -0.0022412273 -0.25800312 0.17855145 0.3133242
000070 63 0c 99 3d a2 92 3b 3e 4b bd 48 be 21 cc f5 3a
       0.07473066 0.18317655 -0.1960346 0.0018752852
000080 15 82 7e 3d 45 bf e1 3c b2 25 88 bd b6 06 9e 3c
       0.062135775 0.027557025 -0.06647815 0.01929031
000090 3f 00 11 be 95 75 ea bd 50 00 54 be 8d 98 49 be
       -0.1416025 -0.11448208 -0.20703244 -0.196871
0000a0 0e 38 11 3d 80 c4 6a 3e f0 9a 68 bd 01 69 d5 bd
       0.03545385 0.22926521 -0.056788385 -0.104204185
0000b0 a7 ab 8f 3e fc 94 bd bc d1 3c 91 bd 75 d1 5c 3e
       0.28060648 -0.02314233 -0.07091678 0.21564277
0000c0 7c f9 64 3e e4 f8 91 bd ea a2 b1 3d 2e 86 75 3d
       0.22360796 -0.0712755 0.086736515 0.059942417
0000d0 df 67 bc bd c1 21 ff 3d 9a 1b 60 be e7 b4 49 3e
       -0.09199499 0.1245761 -0.21885529 0.19697915
0000e0 13 dd 3d 3b 69 83 b0 3d b5 3c 4d be 21 06 3e be
       0.0028970882 0.086188145 -0.20042689 -0.18557025
0000f0 c6 be a3 bd c5 7f 64 bc a9 c4 f0 bb cc 03 82 be
       -0.079953715 -0.013946478 -0.0073476625 -0.25393522
000100 79 9a e6 3d dd d0 5f 3d 7e 6b c7 bd 80 31 66 be
       0.11259932 0.054642547 -0.097372994 -0.2247982
000110 a3 61 7e 3d d0 5c 73 be 27 14 86 3e 35 34 82 3e
       0.062104832 -0.23765874 0.2618725 0.25430456
000120 d1 37 d1 bc bd 44 d9 bd e7 30 3e bc 30 5c 40 be
       -0.02553931 -0.10608814 -0.011608339 -0.18785167
000130 9c 2e 24 be d1 55 a6 3c 08 7b 2c 3d a8 fd ca bd
       -0.16033405 0.020304592 0.04210952 -0.09911662
000140 8b 1d 90 bd b7 08 7e 3e c4 ae 26 bd e3 5e 3d be
       -0.07036885 0.24808012 -0.040694013 -0.18493228
000150 14 5c 10 3e 00 1b 59 3e 46 5c 39 3e 8f f4 56 3e
       0.14097625 0.21201706 0.18101606 0.20991729
000160 a9 d4 71 3d e5 a0 fc bc fa c4 de 3d 72 72 b8 bd
       0.0590407 -0.03083844 0.10877414 -0.09006204
000170 56 4b 6c 3c ac ea ad be e3 9e 58 be ea e5 80 be
       0.014422258 -0.33968103 -0.2115436 -0.2517541
000180 5f b0 04 3d 92 f0 0b 3e ce e8 7d 3e 04 6a 3a be
       0.032394763 0.13665989 0.24795839 -0.18204504
000190 37 eb 84 be 16 d0 75 bd 9d e0 42 3d 02 61 59 3e
       -0.25960705 -0.0600129 0.04757749 0.21228412
0001a0 a1 3d 94 3d f2 f2 ce 3c 6e f8 aa bd 4a 10 c9 bd
       0.07238317 0.02526233 -0.083481655 -0.0981756
0001b0 34 8d 08 be 77 35 6f be 84 2c df ba 46 d8 30 bd
       -0.13335115 -0.23360239 -0.0017026816 -0.043175004
0001c0 07 5e 6c bd df d9 d8 3c af fa ca bd 03 e6 72 3e
       -0.05770686 0.026471077 -0.09911095 0.23720555
0001d0 82 bb ad bc 57 5e 98 3c 54 92 08 3e e4 ba 55 be
       -0.021207575 0.018599672 0.1333707 -0.20872074
0001e0 9b c7 8a 3d 5a fe 12 3e 85 50 b9 3d 6a 7b 8c 3e
       0.06776353 0.1435484 0.09048561 0.27437907
0001f0 3f 87 71 bc 93 c4 5a 3d 7a 3b d7 3c 5d 09 38 be
       -0.014741718 0.053410124 0.026273478 -0.17972322

linear_stack.3.bias f4 [8]
000000 49 f9 77 3e f3 89 b1 bd d2 2a 17 3e 95 2c 31 bd
       0.24216188 -0.0866889 0.14762428 -0.043255407
000010 0a a6 53 bd af b7 67 3e 1c 01 66 3e 5f 34 33 3e
       -0.05167202 0.22628663 0.2246136 0.17500447

linear_stack.6.weight f4 [8, 8]
000000 66 a8 c4 3d 21 1a 33 3e 6f b0 93 be 15 b8 92 be
       0.09602432 0.17490436 -0.28845546 -0.28656068
000010 ac 70 8d be d1 3c 65 3e 75 ed 25 3e 3f 17 95 3e
       -0.27625024 0.22386481 0.16203864 0.29119298
000020 67 05 f7 3c cb 3f 56 3e 70 86 31 be e3 fc 60 be
       0.030153943 0.20922773 -0.1733644 -0.21971469
000030 46 fe 37 3e 89 b4 00 bd 2d db c5 bd f0 40 75 3e
       0.17968091 -0.03142217 -0.09660945 0.23950553
000040 d1 92 b0 bd 08 e5 17 bd 8b ae 96 be cb 52 a1 3e
       -0.08621753 -0.037083656 -0.2943004 0.3150848
000050 a7 dc b6 3e 6b 40 b6 3e 1b 7d a2 3e 78 99 e1 bd
       0.3571522 0.35596022 0.31736073 -0.110156
000060 8f 03 56 3e d6 d2 fa 3d e5 65 0b be 08 f6 91 be
       0.20899795 0.12247245 -0.13613088 -0.2850802
000070 92 9b d9 bd 6a d5 90 be 20 d8 ab be 2d 99 56 be
       -0.10625376 -0.28287822 -0.33563328 -0.2095687
000080 aa b8 85 be 13 e4 51 be b0 93 44 be 76 bd 6a be
       -0.2611745 -0.2049716 -0.19196963 -0.22923836
000090 2e 22 b0 3e 2f db 61 be 48 32 9c 3e fb 20 87 bc
       0.34401077 -0.22056268 0.30507112 -0.016495219
0000a0 fc 50 5e 3e 16 2e 29 3e 33 35 9c be 08 30 21 be
       0.2171058 0.16521487 -0.30509338 -0.15740979
0000b0 29 4d 25 3e 9a 64 90 3e 62 38 d9 bd 8b a3 cf bd
       0.16142716 0.28201753 -0.10606457 -0.10138615
0000c0 8a ec 8b be 44 8a 4b be 61 a0 38 3e ec 01 44 be
       -0.27328902 -0.19876963 0.1802993 -0.19141358
0000d0 f0 4b 83 bd c0 0d 30 bd ae b2 c9 3e 83 68 e1 bc
       -0.06410968 -0.042981863 0.39394134 -0.027515655
0000e0 ac 9c 0d 3d 33 dc ba 3d 83 44 df 3b 57 1a 46 3e
       0.034573242 0.09124031 0.006813587 0.19345985
0000f0 2a 0a a6 bd 55 5a b9 be 9d f8 d8 be 2a d5 8e 3e
       -0.081074074 -0.3620173 -0.42377177 0.27897006

linear_stack.6.bias f4 [8]
000000 0c 92 ba 3d f5 da 7c bd d0 d2 1c 3e 9b ab 04 3e
       0.091098875 -0.06173225 0.15314794 0.12956087
000010 22 e7 92 3d 95 89 04 be a5 93 34 bd 68 d8 90 3e
       0.07172991 -0.12943108 -0.044086117 0.28290105

linear_stack.9.weight f4 [8, 8]
000000 01 85 8e 3d 92 ba 5e bd d5 02 d1 bd 51 48 8a 3e
       0.06958962 -0.054377146 -0.10205618 0.27008298
000010 d4 2c 64 be 6b 1c 7d be d1 4a b9 be 28 dc 3a 3e
       -0.22282726 -0.24717872 -0.36189893 0.18248045
000020 8a bb 55 3d 57 56 64 bd dc 90 a8 bd 08 ac 23 3e
       0.052180804 -0.055746403 -0.08230755 0.15983593
000030 96 1d 26 3e f5 9e 3a be bf 46 85 be 78 bf 7b 3e
       0.16222224 -0.182247 -0.26030537 0.24584758
000040 c9 7c f7 bd 16 b7 5a be 24 5a c9 3e fb 72 82 bd
       -0.12084348 -0.21358904 0.39326584 -0.06369587
000050 03 81 7a 3d 3f 69 19 be bd 31 ce 3e 05 49 b0 3d
       0.06115819 -0.14981554 0.40272322 0.08607677
000060 e1 1b c1 bd 10 35 9a bd 61 20 bc be 8a fe 8d be
       -0.094291456 -0.07529652 -0.36743453 -0.2773326
000070 2a e5 95 bd 0e aa 79 3e fb b4 96 bd 13 d9 3d 3e
       -0.073191 0.24381277 -0.07358738 0.18539838
000080 c3 f2 3d be df 15 02 be cf ca 01 3e 5e 0f 90 be
       -0.18549637 -0.12703656 0.12675022 -0.28136724
000090 07 78 b0 be 40 9d 73 3e 58 e9 3f be 10 4e b0 3e
       -0.34466574 0.23790455 -0.18741357 0.34434557
0000a0 ab b4 44 bd 36 01 4f be 90 05 82 3e 98 85 8a be
       -0.04802386 -0.20215306 0.2539487 -0.2705505
0000b0 e4 78 41 3e 6e ea 67 be 54 85 b1 3e b1 19 20 be
       0.18893772 -0.22648022 0.34672034 -0.156348
0000c0 c6 c0 16 be 1c d4 a2 3e ff 51 0c bc cb 59 c5 3d
       -0.14721975 0.31802452 -0.008564471 0.09636267
0000d0 fe 2d a9 bd fc 96 53 be 29 a2 3e be 9c ca 17 3e
       -0.082607254 -0.20663065 -0.18616547 0.14823383
0000e0 64 d3 c0 3b 47 84 6b be b0 e8 41 be 6c 6e 8a 3e
       0.0058845747 -0.22999679 -0.1893642 0.2703737
0000f0 43 39 54 bd 5c 72 38 3e 4b 52 9d be 53 c6 9a be
       -0.05181242 0.18012375 -0.30726847 -0.30229434

linear_stack.9.bias f4 [8]
000000 d6 db 05 3e 2f 12 91 3d 49 d9 d5 bd 18 0a b9 3d
       0.13072142 0.07083546 -0.104418345 0.09035128
000010 57 7e 99 be d9 dc 56 bd 25 21 fb 3d 75 14 99 3e
       -0.29979202 -0.05245671 0.12262181 0.2989842

linear_stack.12.weight f4 [2, 8]
000000 15 5f 23 be bf 60 26 be ce 6e d9 3e 7c 09 84 be
       -0.1595424 -0.16247843 0.4246735 -0.25788486
000010 ac 6a 53 bd 1d 04 dd 3e 62 a6 2c be cf b5 09 be
       -0.051615402 0.431672 -0.16860345 -0.1344826
000020 9d dc 29 3e a0 a2 20 3c ea a4 21 bd 74 2d 8f bd
       0.16588064 0.009804398 -0.039463915 -0.06991091
000030 45 6a 43 3e 31 e9 07 be d3 5e 49 3e 93 b0 eb 3d
       0.19083507 -0.13272549 0.19665079 0.11508288

linear_stack.12.bias f4 [2]
000000 a4 92 58 be c7 a0 a4 bd
       -0.21149689 -0.08038478
