models/model_zs_c2_s0.1_b16_lr0.001_d0.5_e50.pth (torch, 6143 bytes, 10 tensors)

linear_stack.0.weight f4 [16, 16]
-0.11743233 0.61145455 0.036666725 -0.040772706 -0.15082328 -0.19938956 0.16236031 0.014243194
-0.19534585 0.1096166 -0.34558788 -0.44546083 0.18958586 -0.024039533 0.11014318 0.012939986
-0.074582346 0.50307626 0.015466194 -0.03762451 0.33732778 -0.17404073 0.15617318 -0.08508923
-0.09204363 -0.17706144 -0.30055943 0.0020763248 -0.11757621 -0.1493026 0.05129399 0.09358296
0.35812515 -0.45086455 0.19662033 -0.013068218 0.0044213473 -0.24154574 0.124921456 -9.286868e-05
0.027485905 -0.08470131 0.12989391 0.22726719 0.16143505 0.026034053 0.26917973 0.0354638
0.20337436 0.5620998 -0.19649982 0.2649482 0.005843942 -0.04308883 0.083321095 0.0011075224
-0.21255772 0.12238504 -0.15394 -0.066209026 -0.12919904 0.12359343 -0.05267288 0.18057425
0.06814179 0.3411768 -0.07824278 0.020254606 -0.15993564 -0.109387375 -0.002299855 -0.07147178
0.029781198 -0.24319881 -0.16917486 -0.1855651 -0.18696697 -0.0315964 -0.14270693 0.09284835
-0.047660608 0.4037329 -0.043160778 -0.19686224 0.101188146 0.06292492 -0.17568973 -0.010036847
0.04987541 -0.109925635 -0.3362848 -0.2909973 -0.06967565 -0.0512763 0.059773654 -0.11875452
-0.02365798 -0.038062267 0.15517817 0.20121275 0.13725057 0.16670866 -0.20540595 0.16857314
-0.15587634 -0.08046091 -0.098557204 0.12007343 -0.01906702 0.048333667 -0.21499623 0.30857572
0.017991826 -0.1180773 -0.3733276 -0.2110783 -0.07577182 -0.2231545 0.22746332 -0.22881998
-0.03977688 -0.4331971 0.10126477 0.16503759 0.05796698 0.07903886 -0.16638598 -0.023965655
0.23559766 -0.013833542 0.04413721 0.12748565 -0.07144743 0.24397597 0.01580996 -0.16422205
0.010119606 -0.37907422 0.31337434 -0.12918356 0.29777202 0.22390877 -0.33637905 -0.21987307
0.12729342 0.19924144 -0.07170663 -0.1838063 -0.1414363 -0.020933438 0.13915554 -0.16086747
0.13038929 -0.11908702 0.041649777 -0.034250632 -0.11970871 0.0929273 -0.13456382 0.31287798
-0.13187692 -0.116585866 0.14580224 -0.06233471 0.007877783 0.25842437 0.021231104 0.0035675205
-0.109440476 0.4199166 -0.16000023 0.0674558 -0.2263582 0.084893025 -0.25077543 -0.049788956
-0.31296656 0.36427036 -0.22016008 -0.06911541 0.34566396 -0.30646873 0.10333191 -0.0056525553
0.1101863 -0.04517345 -0.35373446 -0.09005632 -0.076216236 -0.18685469 0.16514698 -0.09842169
0.22760855 -0.45711237 -0.16732503 0.28435072 -0.074524045 -0.21076533 -0.058423422 0.034333233
0.09741945 -0.07752116 0.24277596 0.15708229 -0.12197342 0.038450193 0.20272864 -0.183819
-0.2858345 0.23916733 -0.1488443 0.07232305 0.25140488 -0.027097942 -0.04907654 -0.09483474
0.21646658 0.028984308 -0.27780357 -0.09695082 -0.050298 -0.041154616 -0.027539954 0.029099097
-0.019032279 0.23893261 -0.067828715 -0.07780987 -0.05655604 -0.12553863 -0.1386726 0.14032237
0.12334998 -0.21276979 -0.30016056 -0.24753344 0.019100174 0.08424436 0.044391543 -0.23629569
0.1435628 -0.39087602 -0.08878412 0.05726538 -0.015329589 -0.09378594 -0.045547977 0.0060974807
0.214154 -0.21494047 0.32717532 0.34868875 -0.0011336621 -0.19976604 -0.3937765 -0.06636872
00000000: 5d80 f0bd 4988 1c3f d92f 163d 4801 27bd
00000010: 6b71 1abe c72c 4cbe c841 263e 495c 693c
00000020: be08 48be ab7e e03d e5f0 b0be 7113 e4be
00000030: cc22 423e 8eee c4bc bf92 e13d 3c02 543c
00000040: a1be 98bd 9bc9 003f eb65 7d3c 281c 1abd
00000050: 3ab6 ac3e bc37 32be ddeb 1f3e 4343 aebd
00000060: 5f81 bcbd 984f 35be ede2 99be f312 083b
00000070: cccb f0bd c8e2 18be a619 523d 6ca8 bf3d
00000080: 2e5c b73e b8d7 e6be d756 493e 141c 56bc
00000090: f3e0 903b c457 77be d2d6 ff3d 7ec2 c2b8
000000a0: 1f2a e13c e177 adbd e902 053e bbb8 683e
000000b0: 3b4f 253e 5e45 d53c edd1 893e 7d42 113d
000000c0: 5e41 503e c6e5 0f3f 4037 49be 4aa7 873e
000000d0: 8a7e bf3b ea7d 30bd 40a4 aa3d 492a 913a
000000e0: bba8 59be 02a5 fa3d 73a2 1dbe 9998 87bd
000000f0: c14c 04be 8d1e fd3d 85bf 57bd 75e8 383e
00000100: ec8d 8b3d baae ae3e c03d a0bd fdec a53c
00000110: 2bc6 23be 7d06 e0bd 2ab9 16bb cc5f 92bd
00000120: b3f7 f33c 1c09 79be 2d3c 2dbe c704 3ebe
00000130: 4574 3fbe 3a6b 01bd c421 12be 4727 be3d
00000140: c537 43bd 14b6 ce3e 5bc9 30bd 4196 49be
00000150: bb3b cf3d c8de 803d 02e8 33be 9671 24bc
00000160: 284a 4c3d b120 e1bd 852d acbe 99fd 94be
00000170: 1bb2 8ebd 1907 52bd 38d5 743d 9235 f3bd
00000180: 61ce c1bc 2ee7 1bbd 07e7 1e3e b70a 4e3e
00000190: 6a8b 0c3e adb5 2a3e f055 52be 709e 2c3e
000001a0: 0c9e 1fbe b1c8 a4bd 5cd8 c9bd 0fe9 f53d
000001b0: 7032 9cbc 86f9 453d f927 5cbe a3fd 9d3e
000001c0: 9863 933c 83d2 f1bd cc24 bfbe e924 58be
000001d0: 422e 9bbd 9d82 64be 25ec 683e c94f 6abe
000001e0: 15ed 22bd 03cc ddbe e763 cf3d 9dff 283e
000001f0: c96e 6d3d 20df a13d 1661 2abe 9f53 c4bc
00000200: 8340 713e 15a6 62bc 38c9 343d 998b 023e
00000210: 0853 92bd d6d4 793e e483 813c d329 28be
00000220: b4cc 253c 0416 c2be 9a72 a03e b248 04be
00000230: 9375 983e 5748 653e e039 acbe 6826 61be
00000240: 3559 023e f305 4c3e edda 92bd b837 3cbe
00000250: add4 10be 9a7c abbc ca7e 0e3e 71ba 24be
00000260: c584 053e e5e3 f3bd f598 2a3d 644a 0cbd
00000270: d729 f5bd ab50 be3d 19cb 09be 8b31 a03e
00000280: be0a 07be 92c4 eebd 2f4d 153e ae52 7fbd
00000290: d111 013c 3350 843e daec ad3c 10cd 693b
000002a0: 5422 e0bd 4fff d63e 1ad7 23be 4426 8a3d
000002b0: 72ca 67be 65dc ad3d a365 80be 81ef 4bbd
000002c0: 273d a0be a581 ba3e a571 61be 618c 8dbd
000002d0: defa b03e 78e9 9cbe ae9f d33d 1239 b9bb
000002e0: 5ba9 e13d cc07 39bd af1c b5be 736f b8bd
000002f0: 4217 9cbd d656 3fbe 4a1c 293e 5091 c9bd
00000300: 3712 693e a20a eabe 4157 2bbe 6b96 913e
00000310: 10a0 98bd ded2 57be 664d 6fbd 01a1 0c3d
00000320: d983 c73d 6ac3 9ebd 439a 783e 2eda 203e
00000330: 33cd f9bd f37d 1d3d 1998 4f3e 0c3b 3cbe
00000340: e658 92be 48e8 743e a46a 18be 1b1e 943d
00000350: 24b8 803e 81fc ddbc 7b04 49bd b738 c2bd
00000360: 6aa9 5d3e 8070 ed3c 453c 8ebe 278e c6bd
00000370: 4705 4ebd be91 28bd 789b e1bc 3b61 ee3c
00000380: 95e9 9bbc c0aa 743e c8e9 8abd c85a 9fbd
00000390: 4ea7 67bd 338d 00be 3100 0ebe abb0 0f3e
000003a0: ea9e fc3d 53e0 59be a5ae 99be 6879 7dbe
000003b0: f877 9c3c 4f88 ac3d e8d3 353d 7ff7 71be
000003c0: 2002 133e e720 c8be 73d4 b5bd 1a8f 6a3d
000003d0: f528 7bbc d812 c0bd 8490 3abd 60cd c73b
000003e0: 304b 5b3e 5b19 5cbe 8683 a73e 5587 b23e
000003f0: 6397 94ba 788f 4cbe 139d c9be 53ec 87bd

linear_stack.0.bias f4 [16]
-0.019435106 -0.17505585 -0.003122736 -0.13255884 0.12243436 -0.079950415 -0.08084641 -0.4306726
0.0011301382 -0.094386764 -0.06145856 -0.2940263 0.09834261 -0.07950006 -0.03297862 0.23782201
00000000: 5f36 9fbc d741 33be d1a6 4cbb 81bd 07be
00000010: debe fa3d 0bbd a3bd cd92 a5bd 1e81 dcbe
00000020: 2521 943a d94d c1bd f9bb 7bbd 9d8a 96be
00000030: da67 c93d edd0 a2bd 9714 07bd 9d87 733e

linear_stack.3.weight f4 [8, 16]
0.43106547 0.3907893 -0.18687226 0.22848858 0.045918126 0.08544625 0.024788402 -0.3093214
-0.2805734 -0.0057744896 -0.24964777 0.17226928 -0.22598867 0.21725103 0.26480746 -0.34744442
0.3314045 0.28915632 -0.2541685 0.2651861 -0.002433596 0.13295521 0.07067144 -0.39448583
-0.12746765 0.04051072 0.32843858 0.46196508 -0.013025339 0.1045341 -0.046123408 -0.2504948
-0.084790945 -0.018823246 0.17132835 -0.06775948 -0.29557076 -0.15699093 -0.14043008 0.014040234
0.18674436 -0.039790496 -0.1819456 -0.22115219 0.21924657 0.030447189 -0.15613851 0.17241584
0.39482418 0.106334426 -0.09970786 0.19034985 0.007859245 0.21457244 -0.16365443 -0.15194948
-0.34072828 0.25749454 -0.15225337 0.18000203 -0.12145537 0.09585381 0.12382718 -0.38709825
0.36238435 0.13091652 -0.07957375 -0.13522561 0.07983116 -0.115101404 0.26832196 -0.09155639
-0.19140056 -0.01268377 -0.08014299 0.25261578 -0.20729494 0.2334812 0.1379368 -0.20182161
-0.13372095 0.1941284 -0.10171795 -0.23680964 0.084626846 0.08450243 0.15560718 0.027180763
-0.059692167 0.07726029 0.123061605 0.057680663 -0.052995928 -0.23206724 -0.15230031 -0.32527363
-0.10872719 -0.006350121 0.26322153 -0.079627916 -0.3030831 -0.31352666 -0.007906072 0.32656398
0.16891219 -0.29282 -0.15286425 -0.15690784 0.08428717 -0.12820737 -0.036982827 -0.019177286
0.237946 0.15129928 -0.10864064 0.18721054 -0.027105434 0.109140135 0.09308308 -0.19121456
-0.12500171 0.28930745 0.17647623 0.36995527 -0.13214858 0.031191047 0.058504302 -0.31531757
00000000: 9db4 dc3e 8915 c83e 715b 3fbe e9f8 693e
00000010: a514 3c3d 72fe ae3d 0c11 cb3c 605f 9ebe
00000020: 51a7 8fbe ee37 bdbb aaa3 7fbe 5c67 303e
00000030: 9369 67be 0e77 5e3e d894 873e 3ce4 b1be
00000040: daad a93e 4c0c 943e 6022 82be 79c6 873e
00000050: f77c 1fbb 6925 083e 30bc 903d 0cfa c9be
00000060: e186 02be 92ee 253d 1a29 a83e b086 ec3e
00000070: 3b68 55bc f915 d63d e6eb 3cbd db40 80be
00000080: e0a6 adbd 3533 9abc b370 2f3e 7bc5 8abd
00000090: 0d55 97be 3bc2 20be e7cc 0fbe 0209 663c
000000a0: ea39 3f3e 5cfb 22bd f34f 3abe b875 62be
000000b0: 2c82 603e 626c f93c c6e2 1fbe c78d 303e
000000c0: 6526 ca3e ddc5 d93d a233 ccbd 12eb 423e
000000d0: 10c4 003c e1b8 5b3e 0795 27be a598 1bbe
000000e0: f073 aebe 53d6 833e 4fe8 1bbe 7452 383e
000000f0: 98bd f8bd 014f c43d 1b99 fd3d be31 c6be
00000100: 718a b93e fb0e 063e 90f7 a2bd 9578 0abe
00000110: 857e a33d 49ba ebbd 7f61 893e eb81 bbbd
00000120: 82fe 43be 96cf 4fbc 0222 a4bd db56 813e
00000130: 2045 54be b215 6f3e 4e3f 0d3e 53aa 4ebe
00000140: 25ee 08be 98c9 463e 8051 d0bd 3a7e 72be
00000150: d750 ad3d 9c0f ad3d 7d57 1f3e 31aa de3c
00000160: c67f 74bd a53a 9e3d b907 fc3d 8f42 6c3d
00000170: 4212 59bd 09a3 6dbe 9df4 1bbe 448a a6be
00000180: 5cac debd ad14 d0bb f9c4 863e f613 a3bd
00000190: b52d 9bbe 9186 a0be 7888 01bc 6533 a73e
000001a0: 51f7 2c3e 81ec 95be 7288 1cbe 73ac 20be
000001b0: c09e ac3d cb48 03be 4e7b 17bd af19 9dbc
000001c0: 1ea8 733e 33ee 1a3e fc7e debd 1fb4 3f3e
000001d0: 370c debc dd84 df3d 58a2 be3d c0cd 43be
000001e0: 7300 00be 1b20 943e 2fb6 343e c76a bd3e
000001f0: f551 07be 5e84 ff3c 35a2 6f3d 4e71 a1be

linear_stack.3.bias f4 [8]
0.10800111 -0.08034084 0.15036888 -0.041782133 -0.023235962 0.14555554 0.18416114 0.081433654
00000000: b02f dd3d bd89 a4bd 4dfa 193e be23 2bbd
00000010: 5859 bebc 830c 153e bd94 3c3e b0c6 a63d

linear_stack.6.weight f4 [8, 8]
0.012344526 0.11924619 -0.17148176 -0.3117854 -0.38917235 0.30107883 0.10175483 0.26725227
0.11732112 0.29445714 -0.1452886 0.13048255 0.37876016 0.044112615 -0.07629483 0.40123355
-0.14658707 -0.106163345 -0.22761083 -0.06547301 0.109869614 0.05069526 0.43724284 -0.23824911
0.37764087 0.3534116 -0.16565065 0.37250063 0.1393393 -0.2219348 -0.47579038 -0.04209142
-0.22989179 -0.33111173 0.12269971 -0.3140067 -0.070963986 -0.26366025 0.46794686 -0.16941123
0.30698606 0.26395598 -0.34886292 0.24401331 0.38112783 0.347634 -0.18796994 0.15598327
-0.25363752 -0.22752948 0.22425832 -0.39167508 -0.2105325 -0.10239296 0.36284676 -0.12586585
0.08791478 0.19747177 -0.21334063 0.52277374 0.31257495 -0.2130606 -0.45337057 0.28736547
00000000: b240 4a3c 5937 f43d ea98 2fbe 56a2 9fbe
00000010: 9941 c7be 0127 9a3e d664 d03d 4ad5 883e
00000020: 0e46 f03d 16c3 963e 89c6 14be 389d 053e
00000030: daec c13e 6eaf 343d 7740 9cbd 7c6e cd3e
00000040: ec1a 16be 2b6c d9bd d012 69be b716 86bd
00000050: 5203 e13d d5a5 4f3d 4bde df3e 93f7 73be
00000060: 255a c13e 5ef2 b43e 53a0 29be 67b8 be3e
00000070: f6ae 0e3e e042 63be cc9a f3be 0e68 2cbd
00000080: c168 6bbe 7a87 a9be fc49 fb3d 7cc5 a0be
00000090: 9155 91bd 7afe 86be bb96 ef3e 237a 2dbe
000000a0: 472d 9d3e 3d25 873e 299e b2be a0de 793e
000000b0: 3023 c33e 15fd b13e 317b 40be 14ba 1f3e
000000c0: c7dc 81be 7dfd 68be f9a3 653e a389 c8be
000000d0: d595 57be 66b3 d1bd 0dc7 b93e fae2 00be
000000e0: aa0c b43d 0a36 4a3e f775 5abe 80d4 053f
000000f0: d309 a03e 8f2c 5abe 3020 e8be 9121 933e

linear_stack.6.bias f4 [8]
0.11905398 0.009426876 0.14076479 0.02595377 0.21913934 -5.3280324e-05 0.09346263 0.1595399
00000000: 93d2 f33d 2f73 1a3c a524 103e 009d d43c
00000010: 1066 603e 5079 5fb8 5669 bf3d 6d5e 233e

linear_stack.9.weight f4 [8, 8]
0.13991483 0.19071107 -0.02858366 0.35330173 -0.2891789 -0.07671231 -0.45024607 0.19478062
0.032832865 0.018523183 -0.03902478 0.21018219 -0.06518795 -0.07316379 -0.36862737 0.4080339
-0.024276752 -0.35560632 0.32113442 -0.097882725 0.22031759 -0.36803398 0.45347872 0.03971793
0.023748767 0.1516179 -0.2661407 -0.2234285 -0.13510315 0.5049133 -0.13203411 0.21953495
-0.14877109 -0.02678017 0.20786214 -0.27238694 -0.18330024 0.37451327 -0.17542553 0.36621112
-0.035798542 -0.33665586 0.17990206 -0.240354 0.24808294 -0.32597527 0.34283245 -0.09529548
-0.13315904 0.43474337 0.008997848 0.26580134 -0.15071452 0.1383659 -0.22569403 0.16818078
0.07703236 0.13011502 -0.16391078 0.47808093 -0.25858566 0.38330168 -0.34777308 -0.36957103
00000000: d545 0f3e c349 433e 4828 eabc f7e3 b43e
00000010: 420f 94be 581b 9dbd a786 e6be 9274 473e
00000020: c17b 063d eebd 973c 73d8 1fbd 003a 573e
00000030: 4381 85bd e6d6 95bd babc bcbe d2e9 d03e
00000040: 0ae0 c6bc 0812 b6be bb6b a43e bd76 c8bd
00000050: ef9a 613e f36e bcbe 5d2e e83e 45af 223d
00000060: c68c c23c b941 1b3e 9843 88be 71ca 64be
00000070: 7b58 0abe ff41 013f f333 07be c5cd 603e
00000080: 7357 18be 1662 dbbc d0d9 543e 4d76 8bbe
00000090: 0fb3 3bbe 34c0 bf3e c0a2 33be 0680 bb3e
000000a0: 7ea1 12bd 285e acbe 3f38 383e 5c1f 76be
000000b0: 7409 7e3e 3be6 a6be bc87 af3e 472a c3bd
000000c0: d85a 08be af96 de3e b66b 133c 1d17 883e
000000d0: e854 1abe caaf 0d3e 561c 67be 9537 2c3e
000000e0: 24c3 9d3d df3c 053e 3ad8 27be 06c7 f43e
000000f0: 5765 84be 1e40 c43e 500f b2be 6a38 bdbe

linear_stack.9.bias f4 [8]
0.017994756 -0.08955478 -0.034078196 -0.006639338 -0.20808372 0.06671184 0.042314615 0.1503736
00000000: bd69 933c 7f68 b7bd 9495 0bbd ce8e d9bb
00000010: e613 55be 38a0 883d 1752 2d3d 89fb 193e

linear_stack.12.weight f4 [2, 8]
-0.16505851 -0.31566775 0.41207105 -0.38619056 -0.1471727 0.3814615 -0.25181514 -0.19623405
0.17139673 0.16299354 -0.026861401 0.05839538 0.2863922 -0.082516 0.2798628 0.17683427
00000000: 1905 29be 349f a1be fafa d23e c5ba c5be
00000010: 71b4 16be ec4e c33e eaed 80be 94f1 48be
00000020: a082 2f3e c7e7 263e 710c dcbc fe2f 6f3d
00000030: 00a2 923e 26fe a8bd 2d4a 8f3e 0b14 353e

linear_stack.12.bias f4 [2]
-0.063239045 -0.22864248
00000000: 7983 81bd 4121 6abe
