models/model_sq_c2_s0.1_b16_lr0.001_d0.5_e100.pth (torch, 6143 bytes, 10 tensors)

linear_stack.0.weight f4 [16, 16]
000000 f4 66 07 3d c1 ec 64 3d cf f9 47 3e 8b 9f 57 3d
       0.033057168 0.05588985 0.19528888 0.052642386
000010 a9 c2 36 be 02 00 08 3e cb 60 46 3d 03 1b 6d be
       -0.17847694 0.13281253 0.048432153 -0.23154835
000020 b4 8f 04 3d cc 8d 87 3e 7d ff a5 3d 54 12 81 be
       0.03236361 0.2647537 0.08105371 -0.25209296
000030 1a ef 52 3e 9d 39 88 3e b5 8a 6c 3e fa 19 12 3e
       0.20599023 0.26606455 0.23099788 0.14267722
000040 2e b4 59 be b2 17 15 3e 64 ed 14 3e 23 77 89 bd
       -0.2126014 0.1455982 0.14543682 -0.06712177
000050 f4 c1 8e 3e 8c c0 cc bd 60 85 80 3d 10 9e 79 bd
       0.2788235 -0.09997663 0.06275439 -0.060941756
000060 aa d1 e7 3c ec d9 23 3e 52 b4 78 3d 65 20 9e 3c
       0.028298218 0.160011 0.06071884 0.019302556
000070 1d eb 38 be 5a 5e 0f bf bd 11 28 3e 43 37 80 be
       -0.18058439 -0.56003344 0.16413017 -0.2504216
000080 50 41 80 3c f6 95 e0 bc 19 d9 b2 3e 94 69 04 3e
       0.015656143 -0.027415257 0.34931257 0.129309
000090 ec e3 27 3e 60 82 6d be 53 57 36 3e 50 fd 88 3d
       0.16395539 -0.23194265 0.17806749 0.066889405
0000a0 5e c0 aa 3d 64 c9 e4 3d cf 8a 7a 3d 32 6a 19 be
       0.083374724 0.11171225 0.061167534 -0.14981917
0000b0 e8 dd 71 be 52 f4 9c be 18 e2 98 3d 6d 2b ec be
       -0.23619807 -0.30655152 0.07464999 -0.4612688
0000c0 d8 51 5a 3e 19 a2 18 3e 08 99 2f be fa 5d 98 3d
       0.21320283 0.14905585 -0.1714822 0.074397996
0000d0 94 e0 62 be 73 44 01 bd 9d b2 89 3d 8c ae 1a be
       -0.22155982 -0.03155942 0.06723521 -0.15105647
0000e0 d1 57 88 be 55 51 1b 3e 06 1e 8a 3e 39 7f 9c 3e
       -0.266295 0.15167744 0.2697603 0.30565813
0000f0 70 c2 9c ba c0 e7 d5 3c 59 24 2f 3d 22 97 89 3e
       -0.0011959802 0.026111484 0.042759273 0.26873118
000100 8a fd 8d 3d 4b 40 86 3d 25 3c f0 3d 94 0b 5f 3e
       0.06933124 0.06555232 0.11730222 0.2178176
000110 f0 9d 4b 3d 9e d0 03 be 17 dd b3 3d 8f 51 1c 3e
       0.049711168 -0.1287255 0.08782404 0.15265487
000120 f1 7f c6 3d 37 e6 b7 be df bc 8e be ac d8 d9 3c
       0.09692372 -0.35917827 -0.27878472 0.026592575
000130 cb 73 52 3d 88 87 b6 3d 64 0e a1 be df c7 80 3e
       0.05137996 0.08912569 -0.31456292 0.2515249
000140 1d 0e c6 3e 3f cd 9f 3d 7a 88 a4 3e 13 5b 11 be
       0.38682643 0.078028195 0.32135373 -0.14194898
000150 f8 97 75 3e 97 49 0c bd d2 80 3a bd 62 52 05 be
       0.23983753 -0.03424987 -0.04553301 -0.13019708
000160 47 b2 e4 3c 75 9a 65 bd d0 7e 55 bd 89 46 62 3d
       0.02791704 -0.056055505 -0.05212289 0.05524305
000170 4e cb a7 bd 7e 3f 0f be 6c b5 54 bd 6d c5 b2 be
       -0.08193074 -0.13989064 -0.05193083 -0.3491625
000180 e9 c3 e0 ba 91 2a a0 bb 0b c4 f2 bd d2 6d 48 3e
       -0.001714823 -0.004887887 -0.118537985 0.19573143
000190 f4 88 59 3e 3e 4d 62 bc 5e 3d 0c be 3e 97 a0 3d
       0.2124365 -0.013812361 -0.13695285 0.07841347
0001a0 90 9e 27 be 9f 11 fa bd 4f 00 cb be 37 51 10 bc
       -0.1636908 -0.12210392 -0.39648673 -0.008808426
0001b0 87 53 16 bc 4a 64 7f 3e a0 67 36 be 65 dc b1 3e
       -0.009175188 0.24940601 -0.17812967 0.3473846
0001c0 d4 d8 9d 3e c8 e2 6b 3d 12 90 dd bd c9 07 5c be
       0.3082949 0.057589322 -0.10818495 -0.21487345
0001d0 1c 36 3f be 57 40 82 3b 95 91 4d 3e 36 61 88 be
       -0.18672985 0.003974955 0.20075066 -0.26636666
0001e0 21 ef 26 bd 2d e7 ab be b1 27 1b 3c 97 7d 32 3e
       -0.040755395 -0.3357481 0.009469912 0.17430721
0001f0 76 77 66 be f1 bb 10 be 14 97 0b 3e 75 49 4f be
       -0.22506508 -0.14134194 0.1363185 -0.20242865
000200 d5 4a b4 3c 47 bd dd bc fd 69 e6 3d 56 a4 be 3d
       0.022008339 -0.027067794 0.112506844 0.09308688
000210 a9 ac 45 be be ae e4 3e 49 79 a4 3d eb 7f ae be
       -0.19304146 0.44664568 0.08030946 -0.3408197
000220 04 61 3b bd 64 bd 3d 3e 8e 41 94 3e 88 dc 36 be
       -0.04574682 0.18529278 0.28956264 -0.17857563
000230 9d 9c c4 3e ed 34 12 3e bd e0 65 3e d7 96 84 3d
       0.38400736 0.14278002 0.22449012 0.06474083
000240 f7 1c 23 3e 00 a9 93 bd a5 98 1c bd 6a 93 02 be
       0.15929018 -0.072099686 -0.03823151 -0.12751547
000250 e3 3c e5 3b 4c 10 5b be 34 97 d7 3d 55 a2 ce b9
       0.0069957837 -0.21392936 0.105268866 -0.0003941233
000260 39 b2 2f 3e a2 62 a7 be 0d e2 a5 be 9f cf 68 bd
       0.1715783 -0.32692438 -0.32399026 -0.056838628
000270 02 cd 08 be 3f c7 86 3c 50 bc 31 bd 3f ce bc 3e
       -0.13359454 0.01645243 -0.04339248 0.36876103
000280 b9 3d 7d bd 88 4f b4 bc ba 0f 58 3c 87 99 2e 3d
       -0.06182644 -0.02201058 0.013187343 0.042626884
000290 23 d9 b1 3d e2 a1 af 3e 21 4f 3e 3d c5 49 74 be
       0.08683994 0.34303194 0.046462182 -0.23856266
0002a0 51 10 4f bd 01 c0 ef 3e 1a 28 aa 3d c6 d6 9a 3c
       -0.05055267 0.46826175 0.0830843 0.01890124
0002b0 fb ed e0 3b 57 07 0f 3e c5 81 97 be f8 f2 bc bc
       0.006864307 0.13967644 -0.29591194 -0.023065075
0002c0 1f 9b e5 bd e7 5b c1 bd 13 a2 c4 3b ec 28 1e be
       -0.112112276 -0.09441357 0.006000766 -0.15445298
0002d0 42 87 8d 3e c9 cd a7 be 66 03 04 3d e7 4a 10 3e
       0.27642256 -0.3277419 0.032229804 0.14091073
0002e0 ad dd a1 3d 3b 69 44 be 9a 8a 16 bf 73 98 9b be
       0.079036094 -0.19180767 -0.5880524 -0.30389747
0002f0 2f 3e 8e be 73 ff b7 3e 0b 13 80 3e fe ce 97 3d
       -0.27781817 0.3593708 0.2501453 0.074125275
000300 46 cc 3e bd ae 11 b9 be 0d 7d 86 be 4d 5a 8f 3e
       -0.04658153 -0.361463 -0.2626728 0.27998582
000310 ad 4a a3 bd c2 38 19 be 6f ed d0 bd 8e ca 0d 3e
       -0.07973228 -0.14963058 -0.10201537 0.138468
000320 c7 cb 0d 3e bd 74 28 bd 4e 5f e5 be b3 52 01 bf
       0.13847266 -0.041126955 -0.44799274 -0.50516814
000330 53 c6 af bd 40 38 d7 3d 26 99 04 3e 40 01 22 3d
       -0.08582749 0.10508776 0.12949046 0.039551973
000340 91 43 b3 bc d4 30 2d be 0b fc bd 3d 4d 10 84 bd
       -0.021882804 -0.16913158 0.09276589 -0.064484216
000350 20 74 52 bd c2 9a a4 3e a6 65 05 be 21 e7 53 be
       -0.051380277 0.3214932 -0.13027057 -0.20693637
000360 16 74 71 3e 05 ae 93 3e 82 e0 51 3d 05 3a 77 3d
       0.2357944 0.28843704 0.051239498 0.060358066
000370 43 b2 92 3e 29 d1 02 bd 5c 54 6b be 39 a2 31 bc
       0.28651628 -0.031937752 -0.229814 -0.0108419
000380 01 f7 3e bd b8 3e bb bd c3 a4 27 bd 2b db a2 3d
       -0.04662228 -0.09142822 -0.040928613 0.07951959
000390 d5 77 37 3e d9 03 a4 be f9 88 82 bd 81 6d 6e 3e
       0.17916806 -0.32034186 -0.06373782 0.2328396
0003a0 6f 53 19 3e 3a 24 88 be c3 a8 8b be 63 18 33 be
       0.14973234 -0.2659014 -0.27277192 -0.17489772
0003b0 e7 d8 25 be e8 75 73 3e 34 2a 52 be 47 63 5e 3e
       -0.16196023 0.23775446 -0.20523912 0.21717559
0003c0 29 dd 96 3e 80 27 a8 be 33 fc 33 3e ac 60 44 3e
       0.29465607 -0.32842636 0.17576675 0.19177502
0003d0 5b b1 50 3e cc e1 86 be 62 5c cc 3d 62 05 bf bc
       0.20380156 -0.26344144 0.09978558 -0.023317996
0003e0 7c 6a ac 3d 27 4c 54 be d0 55 6d bb 1c d7 eb 3d
       0.08418748 -0.20732175 -0.0036214478 0.11515638
0003f0 cd 16 16 bd 76 e1 ad be e1 3e 14 be 2d 29 be be
       -0.03664284 -0.33961076 -0.14477111 -0.3714079

linear_stack.0.bias f4 [16]
000000 9d da 3d be a0 ce 7f be fa d6 0c be 43 70 b4 be
       -0.18540426 -0.24981165 -0.13753882 -0.352419
000010 9b 4f 50 bd 05 12 8b be 28 bd 94 bd 76 80 df be
       -0.050857168 -0.27162185 -0.07262641 -0.43652695
000020 b8 77 0c be 2a b4 bb bd d8 3a 9e be 7b 88 ee be
       -0.13717544 -0.09165223 -0.3090427 -0.465885
000030 59 f3 74 be 32 68 b2 be 86 31 1f be db f4 47 bd
       -0.23920955 -0.3484512 -0.15546235 -0.048817497

linear_stack.3.weight f4 [8, 16]
000000 df a2 5f 3e 1a e5 84 be b2 eb f0 be c0 13 6f 3e
       0.21839474 -0.2595604 -0.4705482 0.23347378
000010 7a be c7 3d 98 be c5 be a6 3f 00 3e 6e 40 b8 be
       0.097531274 -0.38621974 0.1252428 -0.35986656
000020 bb 99 56 3e 64 0c 1a 3d 85 fe 96 3d 4a 9a 91 3e
       0.20957081 0.037609473 0.073727645 0.28438026
000030 fa 0a c2 3d 9e c6 94 3e b1 32 9e 3e 73 f2 ac be
       0.0947475 0.29057783 0.3089805 -0.33778724
000040 52 54 89 3d 72 e0 1d be 9b d3 9d be a3 40 1c 3e
       0.06705536 -0.1541765 -0.30825505 0.15259032
000050 10 36 d4 bd c9 28 cb be 66 12 fb 3d 32 b1 84 be
       -0.10361874 -0.39679554 0.122593686 -0.2591644
000060 6a ea 59 3e da 9c c2 3d b5 78 9d 3e e7 91 0a 3f
       0.21280828 0.09502573 0.30756155 0.5412888
000070 7e ca 8e 3e 17 14 3b 3e bf f6 a5 bd 6a 2a 9c be
       0.27888864 0.18269382 -0.08103704 -0.3050111
000080 42 12 5f be 06 4d db 3e cb 38 81 3e dc bd 1c be
       -0.21784309 0.42832202 0.25238642 -0.153068
000090 7c d6 b4 be 2b 05 84 3d b4 c9 a0 be a6 91 d9 3d
       -0.3531989 0.06446298 -0.31403887 0.10623483
0000a0 03 9f 41 be 4b 9b 41 be 02 69 3b be 65 53 bf be
       -0.18908314 -0.18906896 -0.18301776 -0.37368312
0000b0 cd 1d d2 bd a6 37 77 be c8 0e 79 be 93 cc 8e 3d
       -0.1025959 -0.24142322 -0.24322045 0.06972613
0000c0 ef 67 84 3e 25 72 8a bd c3 9f 3a be f8 20 98 3e
       0.25860545 -0.067600526 -0.18225007 0.29712653
0000d0 d0 f1 81 3c f4 54 60 be 9b 6b 34 3d 7e 21 71 be
       0.015862375 -0.21907407 0.044047933 -0.23547933
0000e0 9d 7f 1e 3e f4 55 0d 3e 2d 40 34 3d cd 15 67 3e
       0.15478368 0.1380232 0.044006515 0.2256691
0000f0 c7 d0 45 3e 02 1d 7d 3e 86 b9 e4 3d 94 40 b5 be
       0.19317923 0.24718097 0.11168198 -0.35400832
000100 9f 55 4b 3e bd f9 43 be 18 8c 52 be 73 03 bc bd
       0.1985688 -0.19138236 -0.20561254 -0.091803454
000110 42 52 e9 3d 45 b5 90 be f6 3c 55 3e 16 98 66 be
       0.113926426 -0.28263298 0.20824036 -0.22518954
000120 00 78 7a 3e 00 22 91 3d 2b e5 5b 3e 69 91 4b 3e
       0.24459839 0.07086563 0.2147414 0.19879688
000130 40 ba bc 3d b8 59 8d 3e 00 9e 46 3e 93 93 92 be
       0.09215212 0.27607512 0.1939621 -0.28628215
000140 44 5a 51 be 9d 4a 4d 3e 65 5e b0 3d e6 1e bc bd
       -0.2044459 0.20047994 0.08611754 -0.09185581
000150 b0 93 07 bc 86 0c 89 3d b4 c4 38 3d c3 0f 7d 3d
       -0.008274958 0.06691842 0.045109466 0.06178261
000160 ba f5 c4 bd 61 df 81 bd 25 c9 90 bd 45 a0 3e be
       -0.09617181 -0.06341434 -0.07069615 -0.18615825
000170 f6 40 08 be 1c dc f0 bd 75 ca 70 be 17 54 5d be
       -0.1330603 -0.117607325 -0.23514731 -0.21614109
000180 e8 ca 24 be b3 07 be 3e c7 48 83 3e 1b 70 7f be
       -0.16093028 0.3711525 0.25641462 -0.24945109
000190 63 b4 91 be 42 a3 d1 3c 35 5d 4c be 0f 62 db 3d
       -0.28457937 0.025590543 -0.1995743 0.107120626
0001a0 ab 51 eb bd 2d 38 09 bf e2 63 23 be f4 f6 a1 be
       -0.11490186 -0.5360134 -0.15956071 -0.31633723
0001b0 4f 92 a5 be 82 b0 4a be 4a b1 41 be b3 36 e5 bc
       -0.32338187 -0.19793895 -0.18915287 -0.027980184
0001c0 6f 34 38 3c 42 d2 08 be 84 db 85 be fe 94 61 3e
       0.01124297 -0.13361457 -0.2614404 0.22029492
0001d0 ce 54 91 bd a8 5d b1 be d1 e2 22 3e 8c 99 fe be
       -0.07096253 -0.34641767 0.15906836 -0.49726522
0001e0 3a 94 87 3e bc 25 01 3e 0a 0e 7e 3e 06 b8 ce 3e
       0.26480275 0.12612051 0.24810043 0.40374774
0001f0 06 71 02 3e 8d 88 1f 3e 30 05 be 3d 86 f0 a4 be
       0.12738428 0.15579434 0.09278333 -0.32214755

linear_stack.3.bias f4 [8]
000000 de 55 31 3d 66 76 d9 3c 77 00 20 3e aa 3d 12 3a
       0.04329478 0.026545715 0.15625177 0.00055786467
000010 82 95 23 bd 72 8f 22 3e 42 cd d9 3d 10 a5 3d 3b
       -0.039937504 0.15875033 0.10634853 0.0028937496

linear_stack.6.weight f4 [8, 8]
000000 c8 0d af 3e 77 b2 90 3e 78 ee 87 be f6 ee 1f 3e
       0.34190202 0.28261158 -0.26549125 0.156185
000010 8d 04 84 bd f2 dd a4 bd 69 a0 76 be eb d1 e2 3e
       -0.064461805 -0.08050145 -0.24084629 0.4430078
000020 1e a9 25 3e 7f 27 77 3e 38 ed 10 be a8 bc ec 3d
       0.16177794 0.2413616 -0.14152992 0.11559421
000030 aa e8 b8 3e c1 f1 07 be 2f 82 8f be 78 65 bb 3e
       0.3611501 -0.13275816 -0.2802901 0.36600852
000040 c3 35 88 be c5 cd c2 be f4 24 83 3e 4a e6 8c be
       -0.26603517 -0.38047615 0.2561413 -0.27519447
000050 1d 9b 72 be 92 13 7f 3e 67 c2 0c 3f 11 0b 7a be
       -0.23691984 0.24909809 0.54984134 -0.24418284
000060 d4 11 59 3e 3b 09 63 3e ae b2 78 be 02 a7 55 3e
       0.21198207 0.2217149 -0.24286911 0.2086449
000070 8c ad 98 3d 88 52 c8 be fa d0 d6 be ad 33 b2 3d
       0.074549764 -0.39125466 -0.4195631 0.087012626
000080 cb a0 ba be db 88 bd be 2d ef cd 3e 63 44 03 bf
       -0.364508 -0.37018475 0.4022154 -0.51276225
000090 8b f1 8b be e6 7c 49 3d 65 34 19 3f 7e 23 94 be
       -0.2733272 0.049191378 0.5984557 -0.28933328
0000a0 7a c7 8f 3e ad 16 63 3e 9e b3 cc be 7d bd 1c 3e
       0.28081876 0.22176619 -0.39980787 0.15306659
0000b0 6b 11 bd 3e 83 19 28 3c ca 2c 82 be 48 b3 ea 3b
       0.3692735 0.010259989 -0.25424796 0.0071624853
0000c0 94 1b 91 be d9 e7 d9 be e0 c7 a3 3e 42 5b 26 bf
       -0.28341353 -0.42559698 0.3198843 -0.64983
0000d0 63 71 7b be 25 ed f0 3d be 90 f0 3e e5 ad 91 be
       -0.24554972 0.11763982 0.4698543 -0.28452983
0000e0 bc e0 1d 3e 15 ec 87 3e f9 2e 9f be a4 63 d5 3e
       0.1541776 0.26547304 -0.31090525 0.41677582
0000f0 0a bf 7f 3e a2 84 c7 be 82 90 11 bf 64 50 9f 3e
       0.2497522 -0.38968378 -0.56861126 0.3111602

linear_stack.6.bias f4 [8]
000000 02 ad 0f 3d 8b c5 3b 3d 38 78 d8 3d 5d c1 89 3d
       0.035077102 0.04584269 0.10569805 0.06726334
000010 30 cf 18 3e be 05 0e bc 90 bd 9d 3d 81 c5 ff 3d
       0.14922786 -0.008668361 0.07702172 0.12488843

linear_stack.9.weight f4 [8, 8]
000000 13 7e 83 3e 79 4f 13 3e d5 84 ab be 55 d3 73 3e
       0.25682124 0.14385785 -0.3349978 0.23811086
000010 b8 17 f3 be ba 7a 09 bd 86 ea 24 bf e5 b9 04 3e
       -0.47479033 -0.033564307 -0.64420354 0.12961538
000020 c2 f5 46 3e 0e c2 5d 3e 04 19 81 be a5 7f 6d 3e
       0.19429687 0.21656057 -0.25214398 0.23193224
000030 64 b9 59 be ad a5 06 3e 40 fe e1 be 35 97 11 3e
       -0.21262127 0.13149138 -0.4413929 0.14217837
000040 ac bd 92 be 29 f9 cc be 9d ab bc 3e 33 89 96 be
       -0.28660333 -0.40033844 0.3684968 -0.2940155
000050 c5 89 b0 3e 54 5e ca be 97 62 0b 3f d0 4f 0e be
       0.3448011 -0.39525092 0.5444731 -0.13897634
000060 3b ee 0b 3e f4 12 6d 3e 38 98 ea be f1 09 5c be
       0.13665096 0.23151761 -0.4581926 -0.21488167
000070 a7 96 da be 93 e7 9e 3e 01 f1 ef be 1a 41 46 3e
       -0.42693064 0.31036052 -0.4686356 0.19360772
000080 40 6e 0f be a1 9f eb bd b9 28 5d bd 9b 60 e6 bd
       -0.14006901 -0.11505056 -0.053993914 -0.11248895
000090 0f 12 a9 be 39 82 d3 3e 34 da 97 be bc 75 d3 3e
       -0.3302159 0.4131029 -0.29658663 0.41300762
0000a0 83 11 76 be bc 99 e5 be 13 f9 9b 3e 46 f6 b5 be
       -0.24030118 -0.44843853 0.30463466 -0.35539454
0000b0 e6 9f 94 3e fe 35 af be 04 f2 ea 3e b1 c5 4b be
       0.29028243 -0.3422088 0.45887768 -0.19899632
0000c0 be 4f 02 bc 83 3e b2 3e ea 5e 79 be 08 61 7a 3e
       -0.007953582 0.34813318 -0.24352613 0.24451077
0000d0 d6 e9 75 be ee 47 5c 3b d7 9f df be ae 1e 2a 3e
       -0.24014983 0.003361221 -0.43676636 0.16613266
0000e0 5c 78 3b 3e 95 c6 9e 3d 45 76 bd be 5e 92 b7 3e
       0.18307632 0.0775272 -0.37004295 0.35853857
0000f0 da fe bb be e0 fa 93 3e e5 60 0e bf 63 39 e3 be
       -0.36717874 0.2890234 -0.556166 -0.4437972

linear_stack.9.bias f4 [8]
000000 f3 d0 17 3e 2d 0b bb 3d e4 13 43 3e dc 3c 16 3e
       0.14825802 0.09132991 0.19050556 0.14671654
000010 83 74 90 3c 76 68 4c 3e 19 18 23 3e 3a 75 0c 3e
       0.017633682 0.19961724 0.15927161 0.13716593

linear_stack.12.weight f4 [2, 8]
000000 4d d8 48 be 28 3c 59 be 74 b2 02 3f bf bb b1 be
       -0.19613762 -0.21214354 0.5105355 -0.3471355
000010 b1 69 00 be 55 69 03 3f 07 15 4c be eb de 4b be
       -0.12540318 0.513326 -0.19929896 -0.19909255
000020 c5 55 4f 3e dd 95 73 3d bf 55 00 be 96 6c 9e 3c
       0.20247562 0.059469093 -0.1253271 0.019338887
000030 9c 7c 87 3e 4c 86 5b be 70 cd 68 3e 6b 01 38 3e
       0.26462257 -0.21437949 0.22734618 0.17969291

linear_stack.12.bias f4 [2]
000000 6b 3f 53 bd 75 13 76 be
       -0.051574152 -0.2403086
