models/model_mt_c2_s0.1_b16_lr0.001_d0.5_e100.pth (torch, 6143 bytes, 10 tensors)

linear_stack.0.weight f4 [16, 16]
00000000: d3ae c8bd 8122 783e e93a 523e ec8d 983d
00000010: 162b 47bd 5988 48be 98bc 973d d4ac 94bd
00000020: 70af 543e 8dcc 45bd f6c6 603e da18 233e
00000030: ae12 b0bc 49a8 2a3e f1a9 09bc bde4 c63d
00000040: 0c25 343e f74c 8e3c 665a 103e bb49 dfbd
00000050: 381e 543e 96b4 9bbc 70da ba3d 8707 513e
00000060: 7524 68be 9cd6 9abe fc76 7fbd d643 b33e
00000070: 135f 95bd 0ede 6e3e c9af 8bbd 2010 423e
00000080: 9057 a23e f47f fbbe 1ea4 763e 2f7e 7cbe
00000090: a14b 68be ccc2 7abe 6b37 153e a3a1 a0bc
000000a0: 7026 093e b631 3f3e 6eb3 e03d 937a ccbd
000000b0: c638 07be 2c5d 963e e80a 253d 2049 863d
000000c0: 7281 883d b480 6a3e a10b 49be 9360 5c3e
000000d0: a5b4 88bd 88e3 a0bc 4206 ae3d c035 0ebd
000000e0: 172e f73c 9742 20bc 518a 753e 4679 923e
000000f0: cff2 7dbd 9a57 283e be7c 44be 769e a73d
00000100: b2a6 d03e 47ad e03e 9052 183e 8f0d 893c
00000110: 4947 59be 218b 90bd 166a 183e cba4 683d
00000120: f6bf d3ba a570 a2bc 9d99 44be 8773 a3bd
00000130: 74ea 9b3d fe49 213d 0b22 9abe 29fb 1fbe
00000140: 25d8 c43e 6fb3 003f 9b02 343e 4068 8ebe
00000150: ccad a23d 33ec 98bd 278d 743d 04a0 9b3c
00000160: 8482 d53d 58dd 08bd f825 adbe 91b7 8f3c
00000170: 5b9e ea3d 964a e4bd a229 c23b 46c6 68be
00000180: 3e11 98be 9605 d93c e73e 57bd 2372 4f3d
00000190: a2cc 973c 7bb9 a53d 68f3 27be 4654 7abd
000001a0: 0363 c0bc 0ca2 e73b b121 333e c87b b53e
000001b0: c2c9 fb3d c090 23bc 809f 9bbc bbc2 fe3d
000001c0: 4836 903e c818 4dbd 7e50 abbd d59b cabe
000001d0: 3875 a2be 3cf4 29be 5af6 793e 9516 b7bc
000001e0: deae ebbd 898d 53be 73c9 773e 6429 143e
000001f0: 83be a93d 2b81 843e e8b1 8d3e 1330 94be
00000200: 2f20 043e 4693 6b3e 81cc cfbc b1ca 343e
00000210: 8d7a 433d d43f 6b3d 94f9 873d 6ad1 22be
00000220: deec ad3d 32d8 77bd c157 b83e 74ea 6b3e
00000230: f1f9 1dbd 1318 973e 516c 4abd 039d 053d
00000240: 4ed1 283e 01e3 73be 96fc 9d3c 7c4d 2abe
00000250: 9316 59bd 6ede 00be e325 b53d 4861 303d
00000260: 7cfb 543d 0a71 f7be a081 2b3e 6c1a 7a3e
00000270: 6836 21be ce36 fa3e 5fad f9bd 2581 913e
00000280: cca9 a1be 550a a2bd a8d7 0bbd 4b92 c33c
00000290: e254 423e 1f50 253d 13a6 ec3d 2627 723b
000002a0: 248e fe3c d56b b039 85b0 2b3e de6b 773e
000002b0: 57dd bbbd afc8 643e c994 98be 2913 ef3d
000002c0: 88d8 a0be 1a65 a1bd fe43 b6bd bc46 b9be
000002d0: 5557 47bc 4104 cfbd fbac 92bd 95c6 6e3d
000002e0: 43bf 23be ec94 fcbd 81aa b5be e721 6a3e
000002f0: 3346 40be d1e6 303e 6c6a a83e 3a89 153a
00000300: a3e7 2b3e 3692 13bf 99c7 09be ea5c 003e
00000310: c8e7 86be 3b83 08be c20e 57bd 0dcc fcba
00000320: 6766 103e 46ad df3c fd70 003e d963 b3bd
00000330: 6116 13be c3c0 5b3e d9f4 ad3e 44d8 68be
00000340: 2270 adbe 7e6d 50be f0cb 923a 5d8c 19bd
00000350: dd27 113e 35d1 d5bd 46f6 82be 573b b4bd
00000360: 8bce d43e 919f 17bb 593b 5a3d d6ca 683e
00000370: 9356 963c 15ba 45be d810 893e e7d8 9fbd
00000380: 82a1 623e a9bf 8a3e d105 9dbc 22e0 70bd
00000390: ed83 afbd a50b 6bbd 0acb 803c 307b 023e
000003a0: 5080 4b3e 22d7 6abe c9f0 253d a116 21be
000003b0: 5c6d 703d 4b8d 27bc 7254 11bf 33f6 7dbe
000003c0: 6c16 6c3d 121e 1cbf d3ae cebd 4da0 a13d
000003d0: 46ee 883c 2d10 5fbd 8589 bcbc 1329 883d
000003e0: fe30 a93d 128a d3be 5617 b33d bd8e 873e
000003f0: 6e25 bdbd 40d0 c53e 37fa 17be be3b d53c
-0.0979897 0.24231912 0.20530285 0.074489444 -0.048625074 -0.19583263 0.07409018 -0.07259527
0.20770049 -0.048290778 0.21950898 0.15927449 -0.021493282 0.16665758 -0.008402334 0.09711597
0.17592257 0.017370684 0.14096984 -0.10902735 0.20714653 -0.019007009 0.09123695 0.20413028
-0.22670157 -0.3024186 -0.06236933 0.35012692 -0.072935246 0.23326895 -0.06820638 0.18951464
0.3170743 -0.49121058 0.24086043 -0.2465751 -0.226851 -0.24488372 0.14571922 -0.019608324
0.13393569 0.18671307 0.109717235 -0.09984317 -0.13205251 0.2936796 0.040293604 0.06556916
0.06665315 0.22900659 -0.19633342 0.21521215 -0.0667508 -0.019639745 0.08497287 -0.03471923
0.030173345 -0.009781501 0.23978545 0.2860815 -0.06199914 0.16439667 -0.1918821 0.08184521
0.40752178 0.438822 0.14875245 0.016730098 -0.212186 -0.07057787 0.14884219 0.056797784
-0.0016155231 -0.019829104 -0.19199224 -0.079810195 0.07613078 0.039377205 -0.30104098 -0.15623154
0.38446155 0.50273794 0.17579119 -0.2781391 0.079433054 -0.074669264 0.059704926 0.0189972
0.104252845 -0.033414215 -0.3381803 0.017543586 0.11455985 -0.11147039 0.005925373 -0.22731885
-0.29700655 0.026491921 -0.052550223 0.05064596 0.018530194 0.08092018 -0.16401446 -0.061115526
-0.023484712 0.007068878 0.17493321 0.35446 0.122943416 -0.009983242 -0.018996954 0.12439486
0.28166413 -0.05007246 -0.08364962 -0.39572015 -0.31730056 -0.16597074 0.24410382 -0.022349635
-0.11507963 -0.2065946 0.2419794 0.14468914 0.0828829 0.25879797 0.27674794 -0.28942928
0.12902902 0.23005399 -0.02536607 0.17655446 0.047724295 0.057433918 0.066394 -0.15900198
0.084924445 -0.060508914 0.3600445 0.23038656 -0.03856844 0.29510555 -0.049419705 0.03262044
0.16486093 -0.23817064 0.019285481 -0.1663112 -0.053000044 -0.1258485 0.08845117 0.043061525
0.051997647 -0.4832843 0.16748667 0.24424142 -0.1574341 0.48869938 -0.12191271 0.28418842
-0.31574857 -0.07912127 -0.034141213 0.023873469 0.18977693 0.040359613 0.11555114 0.0036949604
0.031073637 0.00033649677 0.16766556 0.24162242 -0.091730766 0.2234218 -0.29801014 0.116735764
-0.314152 -0.07880612 -0.08899687 -0.3618678 -0.012166818 -0.10108233 -0.071619 0.05829485
-0.1599093 -0.12333092 -0.35481647 0.22864495 -0.18776779 0.1727555 0.32893693 0.0005704347
0.16787581 -0.57644975 -0.13455047 0.12535444 -0.2634871 -0.1333131 -0.05250431 -0.0019286886
0.14101563 0.027304303 0.12543102 -0.08759279 -0.14364006 0.21460252 0.33975866 -0.22738749
-0.33874613 -0.20354268 0.0011199694 -0.037487376 0.14175363 -0.10440294 -0.25578517 -0.08800381
0.4156383 -0.002313588 0.053279255 0.22733626 0.018351829 -0.19309266 0.26770663 -0.07805043
0.22131923 0.2709935 -0.019167813 -0.0588075 -0.08570085 -0.057384152 0.015721817 0.12742305
0.19873166 -0.22933629 0.040512834 -0.15731288 0.058698043 -0.010226558 -0.5676948 -0.24800949
0.05763857 -0.60983384 -0.10091939 0.07891903 0.01671518 -0.054458786 -0.023014793 0.06648459
0.08261298 -0.41316277 0.08744685 0.26476088 -0.09235655 0.38635445 -0.14841543 0.026029464

linear_stack.0.bias f4 [16]
00000000: bd65 d3be 9374 c2be c180 7bbe 830e 1abf
00000010: f4ac e5bd c293 34be 4300 d0be a223 a6be
00000020: 60de bdbe 6ec6 83be 3c71 01bf 0424 e2be
00000030: 4e0d 92bd bb5d c8be e15d cbbe 455c a6be
-0.41288558 -0.37979564 -0.24560834 -0.60178393 -0.11214629 -0.1763449 -0.406252 -0.3244906
-0.3708372 -0.25737327 -0.50563407 -0.44168103 -0.07131444 -0.3913401 -0.3972006 -0.3249227

linear_stack.3.weight f4 [8, 16]
00000000: 6080 8d3e 6abd 20be b73a aebe e4a0 683e
00000010: 9f37 463e 13d1 d63d c49a e33d 8874 cabe
00000020: d695 ef3d 7294 13bf 4cdc c43d e29c 08bf
00000030: ccf4 cabe a9fd 9f3e e927 a73e c678 a0be
00000040: 347d 613e 7786 40be 6115 eabe c997 973e
00000050: 5746 4abd b22d b3be 6404 143e 8fcb e7be
00000060: d15b 433e 247a 0cbf 6fdd c73e 9a41 46be
00000070: 91ba 91be e4f1 de3e 01e5 ca3c 262c 5abe
00000080: 773b adbd 2839 a83e 0214 7e3b c93b 03be
00000090: 5dec 72be a731 82be 4060 fbbd 6f3b 73be
000000a0: d0df b9bd 198e 5a3f 9500 c7bd d3ee f63d
000000b0: 8cab 763b 3b53 0bbe 089e 34be 6960 083f
000000c0: e087 ac3e 8808 2bbe e867 f9bc c4ed 8f3e
000000d0: 7967 0f3e 954b c33e 2674 d13c a010 d3bd
000000e0: 82ca 46bd ee9e b2be 66cc a13d 542e b4be
000000f0: 1554 10bd 3e9c 533e 1023 c53d 1d8d 63be
00000100: 7f08 7b3e b7a3 e3bd e501 afbe c694 9c3c
00000110: f72d 893e 00b7 6d3d 6e6a 8b3e 6ae7 9cbe
00000120: f829 ce3d ea0f 0bbf e0d9 4f3e 4ae1 adbe
00000130: 0a2a 9ebe 481f ab3e e9b9 393e 2d65 88be
00000140: 2f0f 153b e859 00be ac4e 2cbd 92b1 d6bc
00000150: b667 423e 1d2c 713e 7d8c f73d 0924 d1bd
00000160: 87d5 2f3d dbb0 76be 831d 2dbc f8d3 88be
00000170: 0f28 a2bd 68d5 49be 8bfb 95be b8e7 7dbe
00000180: dbdc 23be 84af e03e 00d5 183c e709 29be
00000190: d345 79be d6d3 a9be 76a5 06be 543d e63c
000001a0: a8dd 21be 756c 3e3f a082 87bd af80 553e
000001b0: 391b 963b b17a 3cbe f16e 19be 5de2 8d3e
000001c0: 3574 133e cea0 81be 8805 aabe e505 813e
000001d0: 5f87 51bd 5d51 993e 14f4 243e 99e8 95be
000001e0: c43a 103e 869a b5be 242b 9a3e 9a0e a6be
000001f0: 3759 b5be fc59 273e 3851 7b3e 0947 a7be
0.27637005 -0.15697256 -0.3402917 0.22717625 0.19357155 0.104890965 0.111135036 -0.3954203
0.11698501 -0.57648385 0.09612331 -0.53364384 -0.3963989 0.31248215 0.32647637 -0.31342143
0.22020417 -0.18801294 -0.45719436 0.2960799 -0.049383488 -0.349958 0.144548 -0.4527249
0.19077994 -0.5487387 0.39036128 -0.19360963 -0.2846265 0.43543923 0.0247674 -0.21305904
-0.08458608 0.32856107 0.003876925 -0.12815775 -0.23722978 -0.25428507 -0.122742176 -0.23753141
-0.09075892 0.85373074 -0.09716908 0.12057271 0.003763887 -0.13605969 -0.17638409 0.5327211
0.33697414 -0.16702473 -0.030445054 0.28111088 0.14004315 0.38143602 0.02556808 -0.10305905
-0.04853297 -0.3488688 0.07900314 -0.35191596 -0.035236437 0.2066507 0.09625828 -0.22221799
0.2451496 -0.111152105 -0.34181133 0.01911391 0.2679288 0.05803585 0.27229637 -0.30645305
0.10066599 -0.5432116 0.20297956 -0.33960944 -0.30891448 0.33422303 0.18137325 -0.2663969
0.0022744646 -0.12534297 -0.042067215 -0.026207719 0.18984875 0.23551984 0.12087343 -0.10211951
0.042928245 -0.24090903 -0.010566118 -0.2672422 -0.07917797 -0.19710314 -0.29293475 -0.24795425
-0.16002218 0.43883908 0.009328127 -0.16507684 -0.24343042 -0.3316943 -0.13149056 0.028105415
-0.15807211 0.7438424 -0.066167116 0.2084987 0.004580882 -0.18406178 -0.14983727 0.27711764
0.14399798 -0.25317997 -0.33207345 0.2519981 -0.05115449 0.29944888 0.16108733 -0.2927902
0.14084917 -0.35469455 0.3011104 -0.32433015 -0.35419628 0.1634292 0.24542701 -0.32671383

linear_stack.3.bias f4 [8]
00000000: 2790 2e3d 5549 dfbd a171 573d c534 4a3d
00000010: ed84 683c 194f 063e 9a22 8c3d 14c3 a5ba
0.042617943 -0.10902659 0.0525986 0.04936673 0.014191848 0.13116111 0.06842537 -0.0012646639

linear_stack.6.weight f4 [8, 8]
00000000: be43 4c3e 8caf 893e 0e75 86be 0e3f 6c3d
00000010: 9670 393e d146 db3e 371d 43be 0921 f93e
00000020: a06d 8a3e 1d43 f03e 5f9c 1ebe cb33 423e
00000030: d0fb dd3e af54 463e 6b79 8ebd f51a e33e
00000040: dd56 6cbe ed4d 04be 3037 873e 2e2e 4ebe
00000050: ba6d 10be fef2 3dbd e519 013f f2d2 a4be
00000060: e263 b93e 6171 cd3e f7dd 6dbe 7c08 313e
00000070: 0104 9c3e be6d b7bd 31eb e1be 9f35 f53d
00000080: 2cee b4be 32df a7be de35 973e 361d 02bf
00000090: f9d8 88be 25f1 88be a5b8 163f 651a a6be
000000a0: 46f1 a63e 6a96 333e d932 a9be 0ced 2e3e
000000b0: 5a5a 033f 89f1 7f3e 0273 45be cd05 633e
000000c0: f182 88be 2c56 93be 3daf ba3e b695 bcbe
000000d0: 13b7 7abe e29a 17be e4fa ad3e 4a01 8dbe
000000e0: e702 323e 9fdc 953e 12ef 8ebe f441 e73e
000000f0: 8303 943e 1cd5 46be 8c7e 19bf 81ed b13e
0.19947717 0.26891744 -0.2626118 0.05767732 0.18109354 0.42827466 -0.19054113 0.48658016
0.27036762 0.46926203 -0.15489338 0.1896507 0.4335618 0.19368242 -0.069567524 0.44356504
-0.2308001 -0.12920351 0.26409292 -0.20134804 -0.14104357 -0.046374314 0.50430137 -0.32192189
0.36209017 0.40125564 -0.23229204 0.17288393 0.30471805 -0.089564785 -0.4412475 0.11973118
-0.3533796 -0.32787472 0.29533285 -0.5082582 -0.26728037 -0.2674648 0.58875495 -0.32442012
0.32605952 0.17537847 -0.33046606 0.17082614 0.5130974 0.24994482 -0.19282153 0.22170182
-0.266624 -0.2877668 0.3646182 -0.3683297 -0.244839 -0.14805177 0.33980477 -0.27540046
0.1738392 0.29269883 -0.2791677 0.45167506 0.2890893 -0.19417232 -0.5995872 0.34751514

linear_stack.6.bias f4 [8]
00000000: 4924 1c3d 81a8 b3ba 159c 893d eaeb 5d3a
00000010: 5abd e13d 70b0 463b ad39 a23d 1b58 d13d
0.03812054 -0.0013706834 0.067192234 0.0008465635 0.11022444 0.0030317567 0.07921157 0.10221883

linear_stack.9.weight f4 [8, 8]
00000000: fe77 a53e 1213 b93e f9b8 16be 8308 b73e
00000010: 2d89 b5be 434a 1fbe 25a7 1bbf 22d7 5f3e
00000020: 8f18 723e 0bfd 6d3e 574a 9fbd d9cd 9d3e
00000030: e9c5 3ebe de6c 733e 375a ddbe 3c63 8b3e
00000040: 415d 21be 9d4c aebe 5232 c43e 448c 51be
00000050: 1f19 cb3e 3959 93be 6152 e23e 73a2 a5bd
00000060: 0598 5c3e 7f36 8a3e 7e9b 39be 4160 85be
00000070: c744 e0bd 17a0 db3e 77ac 5dbe 18bf 733e
00000080: 7fd4 b03d f0e4 7abd 7306 40bc fc31 27be
00000090: 1b0f b0bd 53e3 dc3e d6b0 a5be 3c9d ef3e
000000a0: f773 29be 935c ccbe 325d 773e 2459 aebe
000000b0: 43a2 aa3e e2b1 a6be 0a08 c53e 519b 22be
000000c0: f996 693e 9e34 f13e f2f3 dbbd bcb4 723e
000000d0: 6914 38be 57c0 ba3d 8166 babe 2cdd 473e
000000e0: 9143 673e 587f ec3d 9adb 7cbe 587d 113f
000000f0: 4236 8bbe e62d cd3e 419b a9be 45fb 9abe
0.3231811 0.36147362 -0.14718999 0.3574868 -0.3545622 -0.15555672 -0.6080192 0.2185941
0.23642181 0.2324106 -0.07777851 0.30821112 -0.18630184 0.23771998 -0.4323289 0.27224147
-0.1575823 -0.34042826 0.3831964 -0.20463663 0.39667603 -0.2877901 0.44203475 -0.08087625
0.21542366 0.26994702 -0.18125722 -0.26049998 -0.10950618 0.42895576 -0.21647821 0.23803365
0.086342804 -0.061253488 -0.011720288 -0.16327661 -0.08596631 0.43142185 -0.32361478 0.46799648
-0.16548143 -0.3991438 0.24156645 -0.34052384 0.3332692 -0.3255759 0.38482696 -0.15879561
0.22811498 0.47110456 -0.10739888 0.23701757 -0.17976536 0.09118717 -0.3640633 0.19517964
0.22584368 0.115477264 -0.24693146 0.56831884 -0.27189833 0.4007408 -0.33126262 -0.30269828

linear_stack.9.bias f4 [8]
00000000: ed20 c33d db98 c43c 5a67 843d 918d 523d
00000010: 0165 f63c 16e2 fa3d 5ec5 283d d33e c13d
0.095277645 0.023998668 0.06465025 0.05140454 0.03007746 0.12250154 0.04120385 0.09435811

linear_stack.12.weight f4 [2, 8]
00000000: 95f5 8ebe 202c 92be 67f7 f03e a15b c9be
00000010: dbda 33be 4a7d e13e 689a 85be c282 5bbe
00000020: 5934 923e 6e01 083e 66f4 aebd 651b 863d
00000030: 2435 a13e cfdb 10be a6f6 933e 38a5 473e
-0.2792174 -0.2854929 0.47063753 -0.3932772 -0.17563955 0.440409 -0.26094365 -0.21436599
0.28555563 0.13281795 -0.08542709 0.06548194 0.31485856 -0.1414635 0.28899115 0.1949662

linear_stack.12.bias f4 [2]
00000000: 6b30 62bc de5f 8ebe
-0.013805489 -0.27807516
