models/model_zs_c2_s0.1_b16_lr0.001_d0.5_e100.pth (torch, 6143 bytes, 10 tensors)

linear_stack.0.weight f4 [16, 16]
00000000: ebc6 b2bd 8e7d 343f 4df3 f93d 4dbb 2ebc
00000010: f7a1 4bbe 36fc 88bd 7912 b43d ff8d 5fbd
00000020: 2aef 35be f6b3 633e f337 c9be d0f9 f8be
00000030: f729 ef3d a3bc 9abc 7bf6 b83d 0a8f c03c
00000040: c4fd 2dbd 3ac5 0c3f 7e05 173e 48c4 ca39
00000050: 4744 bf3e 2722 22be b96c 153e 105d 8a3c
00000060: eea5 dcbd b765 30bc 83dc 5dbe 81e8 c5bd
00000070: b572 a4bd 51c0 d7bd a31a 93bc 95be e63d
00000080: a035 783e fe53 e2be 1ec9 b63d 4921 89bd
00000090: 4608 62bc 5c38 8bbe 40d4 2b3e 37d9 9abd
000000a0: ade3 203d c810 28be 98e9 0d3d 76d2 833e
000000b0: e9ef b53e 2536 493e 6cea a53e 4727 25be
000000c0: b979 723e 982f 213f 734d f0bd ad79 743e
000000d0: 4aed 01bd 389b 7abd 2bdc 043e 80ae 32bd
000000e0: 7d89 59be d1f0 883d 1087 12be ce26 fbbd
000000f0: 3ab3 31be bd42 003d d72c a5bd dd18 7c3e
00000100: c7de d93d 97c8 a43e cff8 0abe 2baf 393d
00000110: 2b8f 2ebe 6f8f 3abc 33d6 c43c 77d2 debd
00000120: 3cc7 7e3d 3b64 6abe 8801 0cbd 74e0 00be
00000130: e81a a0be 4dfa 95bd 5f52 c0bd 1ee3 163e
00000140: 5def 39bd 201f f53e ec67 d3bb 1605 78be
00000150: 8827 1d3d cb32 913d d529 ddbd 88fa 683d
00000160: 1cd5 77bc 23e9 ed3d f3fd d5be 601b abbe
00000170: 5a79 dd3c c878 ac3d a220 4e3e aafb 42be
00000180: c2ef 6cbd c47b 863d abeb 3b3e f43c 0e3e
00000190: 1e9a 863d 3918 0d3e 8a53 20be 0f5d 103e
000001a0: 3051 54be 5108 18be a419 20be e18f c43d
000001b0: 0189 7fbd 1100 5b3d 235f 7ebe 5978 a03e
000001c0: aa61 7a3b 1f52 56be 55b0 e2be f5d2 75be
000001d0: 02d2 c6bd 3fbf 60be 8787 5d3e 2107 80bd
000001e0: 48de e9bc 7ec5 0bbf dba4 de3d 7812 3a3d
000001f0: 9833 38bb d2e4 de3d 27d5 a4be 9bc2 5b3d
00000200: ce6d 563e be5d 41bd 65be 083d 10bb f53d
00000210: 684a fdbc 8e43 383e 1d8c 3e3c cbb7 ccbd
00000220: 69b9 22bc 8b79 e5be e9d7 d43e 95f1 0ebe
00000230: 5e8a ad3e 99cc 1f3e c96f a3be 9e00 95be
00000240: 2d45 313e 44c2 9d3e a01a 31bd 879b b6bd
00000250: f193 5ebd 17aa 2e3d 831b bc3d 780f 06be
00000260: 499b 1d3e e548 12be e91e c13d 1de3 cebd
00000270: 6740 2ebe 62b3 8b3e 414b 34be 207b 9e3e
00000280: 23ac 0bbe 5967 7abd 3629 0b3e bc0d 44bd
00000290: b88a 233d 10f6 743e f874 5a3c 9136 b4bd
000002a0: a9a3 93bd 6903 d53e b397 11be e39d ca3d
000002b0: f730 66be e850 4c3e 0cda 87be f0c6 0b3e
000002c0: 76e9 96be 1f66 c33e 81a8 4abe 8921 8ebd
000002d0: efe1 aa3e 44dc 97be 23a5 fe3d 7451 b1bc
000002e0: 79b2 dc3c 1021 6f3d cd23 aabe 8b79 6fbe
000002f0: 427c b3bd 80b6 42be f8fd 063e 3f91 0ebe
00000300: b250 863e 9ab6 0cbf a52a 21be 46b5 533e
00000310: 29ec 13be 8ec2 67be d937 893d 5270 583c
00000320: d271 e83d 8011 08be e23f 743e 0f5e 303e
00000330: 22fd e03d e536 083e 7f46 973e 8eae 1dbe
00000340: 1669 62be 9f39 893e ccce d2bd c432 bb3c
00000350: 0ec5 783e 1c47 07be 98d9 643d 1a74 e2bc
00000360: 6704 f73d 368e c73d 7209 7ebe 8354 58be
00000370: 138a 20be 582a 1bbd c9b1 93bc 2c9c a63b
00000380: 94a8 12bd 64e9 9f3e ccbc 0fbd 8352 87bd
00000390: 2975 bfbd c2f7 62bd 79a3 21be 4f3d 083e
000003a0: 4910 0f3e 4d38 623d 448c d1be fa90 7abe
000003b0: 383c 893d bfec e73d ece4 3d3e 0744 92be
000003c0: efd8 c53d d1aa a2be 5d50 0ebe be85 dfbc
000003d0: 6650 dbbd 64cf efbd f63c a5bc db73 13bd
000003e0: 4029 833e f571 c0be c958 cc3e 38ca bc3e
000003f0: 2b84 493d 8882 98be cc53 99be 2214 26bc
-0.08729347 0.7050408 0.12204609 -0.010664773 -0.19886003 -0.066887304 0.08792586 -0.054578777
-0.17767015 0.22236618 -0.39300498 -0.48628092 0.11677926 -0.018888777 0.090313874 0.023505706
-0.042478338 0.54988444 0.14748189 0.00038674683 0.3735678 -0.1583334 0.14592256 0.016890079
-0.10773836 -0.010766438 -0.2166615 -0.09663487 -0.08029691 -0.10534728 -0.017957037 0.112668194
0.24239206 -0.44204706 0.08925079 -0.06695802 -0.013795918 -0.27191436 0.16780186 -0.07560962
0.03927963 -0.16412652 0.0346466 0.25746506 0.355346 0.19649561 0.32405412 -0.16128264
0.23679246 0.6296325 -0.11733522 0.2387454 -0.031720437 -0.061183184 0.12974612 -0.043623447
-0.21243854 0.06686557 -0.14309335 -0.12263261 -0.17353526 0.031313647 -0.08065193 0.2461886
0.106381945 0.32184288 -0.13571475 0.04533307 -0.17046802 -0.011386736 0.02402792 -0.10879987
0.062201723 -0.22889797 -0.034181148 -0.12585622 -0.31270528 -0.07323132 -0.09390711 0.14735076
-0.04539429 0.4787531 -0.0064515974 -0.2422069 0.038367778 0.07089766 -0.107989945 0.05687955
-0.015126493 0.11616733 -0.4179531 -0.33419323 0.027035404 0.08421475 0.20129636 -0.19041315
-0.05784584 0.06566575 0.18351619 0.1389044 0.06572364 0.13778771 -0.15656868 0.14097999
-0.20734096 -0.14846922 -0.15634781 0.09597755 -0.062386516 0.05346686 -0.2484098 0.31341818
0.0038205185 -0.20929764 -0.44275156 -0.24006255 -0.097080246 -0.21947955 0.21633731 -0.0625136
-0.028548375 -0.54598224 0.108712874 0.04542777 -0.0028106924 0.10883488 -0.32193872 0.053652387
0.20940325 -0.04720854 0.0333847 0.1199857 -0.030919269 0.1799452 0.011630085 -0.09995993
-0.009931901 -0.44819292 0.41570976 -0.13959344 0.33894628 0.15605392 -0.31921223 -0.29102033
0.17311545 0.30812275 -0.043238282 -0.08916383 -0.054340307 0.04264268 0.09184935 -0.13091838
0.15391268 -0.1428562 0.09429724 -0.10101912 -0.17016755 0.27285296 -0.17606832 0.30953312
-0.13639884 -0.061133716 0.1358994 -0.04786466 0.039927214 0.2392199 0.013333552 -0.0879947
-0.0720895 0.41604164 -0.14218025 0.09893396 -0.22479616 0.19952738 -0.26533544 0.13650107
-0.29474992 0.3816385 -0.19790842 -0.0693999 0.333755 -0.29660237 0.12433841 -0.021645285
0.026940571 0.05838114 -0.3323044 -0.23386209 -0.08763935 -0.1901493 0.13182819 -0.13922594
0.2623344 -0.5496613 -0.15738924 0.20674619 -0.14445557 -0.2263281 0.06700105 0.013210373
0.113498345 -0.13287926 0.23852494 0.1722338 0.10985781 0.1330219 0.29545972 -0.15398619
-0.221104 0.26801774 -0.102933496 0.022851355 0.2429392 -0.1321072 0.055871576 -0.027643252
0.120613866 0.097439215 -0.2480829 -0.21125989 -0.15677671 -0.03788218 -0.01802911 0.005084535
-0.0358053 0.3123275 -0.03509216 -0.06607535 -0.093485184 -0.05541206 -0.15785016 0.13304637
0.13971056 0.055229474 -0.40927327 -0.24469367 0.06700939 0.113244526 0.18544358 -0.28567526
0.096605174 -0.31770948 -0.13897844 -0.027285453 -0.10708694 -0.117094785 -0.02017067 -0.03599916
0.2561741 -0.37586942 0.39911488 0.3687303 0.04919831 -0.29787087 -0.29946744 -0.010136636

linear_stack.0.bias f4 [16]
00000000: c38a 58be f7dd 97be f751 42be c7ed 89be
00000010: 5b19 f93d 27fe 40be 274f d1be ea21 05bf
00000020: fece 11be a358 1cbe abbd 61be 04d8 dabe
00000030: 0cbb 9cbd 4213 80be ae14 3ebe 640b db3b
-0.21146683 -0.29661533 -0.1897658 -0.26939222 0.12163039 -0.18846951 -0.408807 -0.52004874
-0.14239118 -0.15268187 -0.22045009 -0.42742932 -0.07652864 -0.25014693 -0.18562576 0.0066847075

linear_stack.3.weight f4 [8, 16]
00000000: f076 053f b87a a53e 2d90 95be 5549 7b3e
00000010: aa8a f0b9 a8f4 763e 1d81 373e 496c eebe
00000020: 0ac0 aabe 1f76 ed3d 2851 81be 3622 5a3e
00000030: a599 bfbe 81c0 513e c51a 9d3e bfd4 98be
00000040: 6c1d ee3e a342 763e 1a63 96be 04d9 9d3e
00000050: 1b9a 853b 6a85 8a3e 0b8e 5b3e d6b1 e1be
00000060: 6729 63be 0a0f 1e3e 1df2 7d3e 603b ce3e
00000070: d852 16be 33b8 783d 3b96 cd3d 1dee 96be
00000080: 4a5a babd 2ac8 093c 8d9c d63e 6f8a 15be
00000090: 6b0c c9be a64c 0cbe 1f34 07be e4d1 5d3e
000000a0: 6664 0c3e ea47 1dbe 357f 87be ce76 56be
000000b0: 25a5 683e 226b d8bc 92ba febd 8ea3 4d3d
000000c0: 66d8 d43e 2d0b f03d 4d15 3abe da34 a33e
000000d0: e7eb ee3c fce8 ac3e b7b6 f93d e49e a0be
000000e0: f3d0 5bbe 5172 953e 442d 32be 1257 403e
000000f0: c063 69be f6d7 013e 0a34 7d3e 3bb0 e1be
00000100: ab13 f93e d32a 323e 072b fdbd c74e 88bc
00000110: a53f b5bb 8b0d 1f3e 250e b53e eba9 92be
00000120: 88f1 a5be 74b1 443d b505 a6bd bbaf 933e
00000130: 0dfe 9ebe 8d41 673e d6ce 753e 027a 93be
00000140: 7f50 3e3e 41cd 963e 32ac 78be e032 0cbe
00000150: 2e38 a03c 1593 183e 5132 593e 85de 27be
00000160: 782e c3bd e470 7a3e d887 1a3e dd78 823e
00000170: e971 c2bd d998 a5bd 705f dc3d 4e7f b9be
00000180: 5d4c f4bd 8f48 1dbe f13b a13e a7cc 50be
00000190: 738a b4be 567e 90be eb55 06be ad17 003f
000001a0: 7d1f 0d3e adad cfbe 498e 59be 7228 59be
000001b0: 5b54 1b3e f3a8 2dbe ebd6 96bd 1ba4 2cbd
000001c0: b198 c83e a8ed 373e 2bba 63be b6bd 963e
000001d0: 09f3 f3bc 15b6 883e d30f 273e 62a3 c0be
000001e0: 8af6 cdbd f9e3 9f3e 97d1 313e 8b95 b43e
000001f0: 41d9 5cbe d3e6 b43c 4292 643e 623a a2be
0.5213461 0.3232019 -0.2921156 0.24539693 -0.0004587968 0.24116766 0.17920347 -0.4656699
-0.3334964 0.115947954 -0.2525723 0.21302113 -0.3742191 0.2048359 0.30684486 -0.29849812
0.46506822 0.24048857 -0.29372483 0.30829632 0.0040772087 0.27054912 0.21440904 -0.4408099
-0.22183762 0.15435424 0.2479939 0.40279675 -0.1468004 0.06072254 0.1003842 -0.2947854
-0.090992525 0.008409539 0.41916314 -0.1460359 -0.39267287 -0.13701114 -0.13203476 0.21662098
0.13710174 -0.15359464 -0.2646424 -0.20943758 0.22719248 -0.026418272 -0.12437929 0.050204806
0.4157135 0.117208816 -0.18172188 0.3187626 0.029165221 0.33771503 0.12193053 -0.31371224
-0.21466427 0.2918878 -0.1740008 0.18783215 -0.22791958 0.12680039 0.24726883 -0.44079766
0.48647818 0.17399149 -0.123617224 -0.016639126 -0.0055312687 0.1553251 0.35362354 -0.28645262
-0.32410836 0.048020795 -0.08106557 0.2884501 -0.310532 0.225836 0.24004683 -0.28804022
0.18585394 0.2945347 -0.24284437 -0.13691282 0.019558039 0.14899857 0.212106 -0.16393478
-0.095303476 0.24457127 0.15090883 0.25482836 -0.09494383 -0.08085794 0.10760391 -0.36229938
-0.11928628 -0.1535971 0.31491044 -0.20390569 -0.35261878 -0.28221387 -0.13118713 0.50036126
0.13781543 -0.40562192 -0.21245684 -0.21206835 0.15168898 -0.1695898 -0.07365211 -0.04214869
0.39178994 0.17961752 -0.22238986 0.29441613 -0.029778974 0.26701418 0.1631463 -0.3762465
-0.10056789 0.31228617 0.17365108 0.35270342 -0.21567251 0.022082722 0.22321418 -0.31685168

linear_stack.3.bias f4 [8]
00000000: 93cb 1b39 6a59 a9bd 2cdc 993d c758 27bc
00000010: 55b5 7ebd 01f4 453d e6a9 603d 0058 7cbc
0.00014857789 -0.082690075 0.075126976 -0.010214037 -0.06218465 0.048328403 0.054849528 -0.01540184

linear_stack.6.weight f4 [8, 8]
00000000: cf16 8d3e 1a38 bd3e bc27 7abe c8e0 8c3d
00000010: 7f7c 9cbd 956c ed3e c0bf bfbd 5817 0f3f
00000020: d806 5c3e 9a1c 9f3e b5c7 45be 323f a33e
00000030: 94db 0a3f b68f 363e 614c d7bd 217f d33e
00000040: 2d62 50be 9741 52be a564 22be 343c 73be
00000050: 8aa2 d1bd a740 00be 2ed8 243f bbaf 9abe
00000060: 030d d63e 556b af3e 0579 55be d87a 013f
00000070: 0bec 8b3e 99cb dfbd 82c1 d1be e793 8e3d
00000080: 3e27 97be 1320 e0be 5fbf 803e 901d c0be
00000090: 8608 54be 415f b6be 1fa4 053f f937 a2be
000000a0: 329b 9d3e 7d4b 6d3e 2961 d2be d735 9f3e
000000b0: be1c f33e 9da3 9f3e 3986 71be 798c 673e
000000c0: 8d87 99be 6aeb 85be 774b 893e 5b25 f4be
000000d0: 9e40 9cbe c142 48be 0196 be3e a50b 8dbe
000000e0: f72f 3a3e 36a2 833e 228b 32be 351a 193f
000000f0: 594e de3e 2d49 21bd 8df7 06bf 9970 ac3e
0.27556464 0.36956865 -0.2442922 0.06878811 -0.07640933 0.46371904 -0.09362745 0.55894995
0.21486986 0.3107651 -0.19314463 0.31884152 0.542413 0.17828259 -0.10512615 0.4130793
-0.20349951 -0.20532833 -0.15858705 -0.23753434 -0.1023608 -0.12524663 0.64392364 -0.30212197
0.41806802 0.34261575 -0.20846947 0.5057807 0.27328524 -0.10927505 -0.40967947 0.06961804
-0.29522127 -0.4377447 0.25146005 -0.37522554 -0.20706376 -0.35619548 0.52203554 -0.3168333
0.30782467 0.23173328 -0.41089752 0.31095764 0.47482866 0.31179515 -0.23586358 0.2261218
-0.2998623 -0.2615617 0.26815388 -0.4768475 -0.3051805 -0.19556715 0.3722382 -0.27547947
0.1818236 0.25709695 -0.17435887 0.59805614 0.4341915 -0.039376426 -0.5272148 0.33679655

linear_stack.6.bias f4 [8]
00000000: 5568 99bb 9db8 563b 0ab1 c93c afa0 c9bb
00000010: a895 c13d 280f b0bc ad71 6b3d da7a 833d
-0.004681627 0.0032763847 0.024620552 -0.006153188 0.09452373 -0.021491602 0.057481457 0.064199165

linear_stack.9.weight f4 [8, 8]
00000000: bbda 9a3e 1883 923e f87b 29be f010 d83e
00000010: d0ac b1be 5bfc fe3b d7cc 0bbf 4001 373e
00000020: d1a2 983e f2a9 583e 637c c8bd e9a0 9b3e
00000030: dbd8 f5bd 2dbc 5bbd d150 eebe f363 a83e
00000040: fef5 f7bd 52fe eabe 9cd6 d13e 1ce3 72be
00000050: 0d11 953e 989d b7be 0504 f53e 5f89 06be
00000060: 4657 893e 4512 973e 616f 90be 8375 03be
00000070: f21f f0bd 2d94 003f 6f08 55be 86f2 7d3e
00000080: 44bf a73c f962 bc3c 4b93 21bc 38e2 37be
00000090: e311 5dbe d567 fd3e b162 75be fac3 f83e
000000a0: d0ce 2cbe fbc9 edbe be55 a13e 983d b7be
000000b0: c624 873e 6972 bdbe 2182 b83e 0407 3abe
000000c0: 041f a43d 1e1d dd3e 6a84 26be 9086 a73e
000000d0: f73a 25be 3c9f 0c3e c1d6 81be efac 1f3e
000000e0: 3924 753e 05f6 6a3e 8355 89be 9e7b 023f
000000f0: 5570 7dbe b19d bf3e 7e0a c4be 94b7 ebbe
0.30245003 0.28615642 -0.16551197 0.42200422 -0.34702158 0.007781548 -0.54609436 0.1787157
0.2981172 0.21158579 -0.0978935 0.30396202 -0.120042525 -0.053646255 -0.46546033 0.32888755
-0.12107466 -0.45897156 0.40984046 -0.23719448 0.2911457 -0.35862422 0.4785463 -0.1313834
0.26824397 0.29506126 -0.28209975 -0.12837796 -0.11724843 0.502261 -0.20803998 0.24799547
0.020476945 0.022996413 -0.009861778 -0.1795739 -0.21588854 0.4949328 -0.23963429 0.48587018
-0.16875768 -0.4644316 0.3151073 -0.3578918 0.26395243 -0.3700135 0.3603678 -0.18166739
0.08013728 0.43186277 -0.1626145 0.3271985 -0.16135775 0.13732618 -0.25359157 0.15593313
0.23939599 0.22945412 -0.26823053 0.50969875 -0.24749883 0.37424996 -0.38289255 -0.46038496

linear_stack.9.bias f4 [8]
00000000: afca 593d 19ca 78bc 0ce0 ca3d cc78 5d3d
00000010: 4c5f 7c3b 125a e63d f05f 703d 3721 933d
0.05317181 -0.015184903 0.09906015 0.05407028 0.003850895 0.11247648 0.058685243 0.071840696

linear_stack.12.weight f4 [2, 8]
00000000: a352 7abe 9cea bbbe f0df fc3e 568a e3be
00000010: f633 82be b877 e73e 486d 85be abf1 87be
00000020: 1468 803e 657e 5b3e c496 debd 19d6 ee3d
00000030: dd7b c93e a3d0 1cbe 86c9 933e dd05 7c3e
-0.24445586 -0.3670243 0.493896 -0.4444148 -0.25430268 0.45208526 -0.26059937 -0.26551566
0.25079405 0.21434934 -0.108686 0.1166193 0.39352313 -0.15313964 0.28864688 0.24611612

linear_stack.12.bias f4 [2]
00000000: a10d 07bc 0f39 91be
-0.0082429955 -0.28363845
