models/model_pa_c2_s0.1_b16_lr0.001_d0.5_e100.pth (torch, 6143 bytes, 10 tensors)

linear_stack.0.weight f4 [16, 16]
000000 1b 9c 23 3e f4 95 01 3f 6b 41 15 3e 0d c1 e4 3c
       0.15977518 0.50619435 0.14575736 0.027924085
000010 6b a3 d6 bd 25 db 03 be 61 6f 13 3e 79 2a cb bd
       -0.10480388 -0.12876566 0.14397956 -0.099202104
000020 00 f3 12 bc 1a c4 f7 bd 86 5f 10 bc c6 7c e0 3d
       -0.0089690685 -0.1209795 -0.008811837 0.10961299
000030 d0 5d f3 3d a4 f8 eb bd e8 ab d5 3e ea 14 a3 be
       0.11883128 -0.11522034 0.41732717 -0.31851894
000040 4e d8 98 3d 4c f3 e8 3e d8 c7 4c 3d b1 45 da bd
       0.07463132 0.4549812 0.049995273 -0.10657824
000050 90 3e 10 3e bc 28 9a 3d 11 ff 13 bb 35 97 07 be
       0.14086366 0.07527301 -0.0022582451 -0.13241275
000060 75 26 57 bd cd 3c a2 bd b2 15 7f be 72 2f 24 3e
       -0.05252691 -0.07921753 -0.2491062 0.16033724
000070 e7 bc 64 bd 2e 54 c5 bd 66 53 ae 3e 44 06 87 be
       -0.055844214 -0.096351966 0.34048003 -0.26371968
000080 05 63 b5 3d 21 be cc be 79 5e 37 3d 9a ae 79 bb
       0.08856777 -0.39988807 0.04476783 -0.0038098455
000090 af d4 18 bc 78 6a 36 be 60 7e 83 3d c9 1c ce 3d
       -0.0093280515 -0.17814052 0.064205885 0.10064084
0000a0 48 86 cc 3c ec f9 ad 3d 20 8c 11 be e0 15 49 be
       0.024966374 0.084949344 -0.1421361 -0.19637251
0000b0 eb 71 b1 3e 24 b4 fa 3d 7a aa 12 3d 79 81 33 3d
       0.34657225 0.1224139 0.03580711 0.043824647
0000c0 cb ce fd 3e 22 c5 a1 3e 90 6c ba bd 1d 22 ea 3d
       0.49571833 0.31595713 -0.09102738 0.11432288
0000d0 2a 6d 01 be cb 37 31 be 68 98 4b 3c bd 73 7a 3c
       -0.12639299 -0.1730644 0.012426473 0.015286383
0000e0 37 d3 40 3d 37 40 8d be 99 25 11 3e 74 c1 8a 3e
       0.04707643 -0.27588055 0.14174499 0.27100718
0000f0 67 1f dc 3d e2 5b 30 3e df 39 91 3e e4 ee 88 bd
       0.10748177 0.1722255 0.28364465 -0.0668619
000100 87 3c 7c 3e cb 2d fc bc d6 48 45 3e af 09 3d 3d
       0.24632464 -0.030783555 0.19266066 0.046151813
000110 50 26 45 be 1d 4f ff 3c fd 56 0c bd 7a 9e 20 3e
       -0.19252896 0.031165654 -0.034262646 0.15685454
000120 25 36 9b bd 87 ed 04 be 56 26 84 3c 9f bb 56 be
       -0.075786866 -0.12981234 0.016131561 -0.2097001
000130 6c 7d a8 3e dc aa 99 3e 7c f1 38 bd ba de 4e 3e
       0.3290819 0.30013168 -0.045152172 0.20202151
000140 40 7b 2b 3e 14 fc 13 3f ca 65 d8 3d 53 c3 0f bd
       0.16746235 0.57806516 0.1056629 -0.035098385
000150 7e 2f 89 3e 84 ad 10 3e 96 90 e0 bd c6 7c 00 be
       0.26794046 0.14128691 -0.109650776 -0.12547597
000160 c6 18 02 3d de df e6 bd 6b a6 89 be 64 86 ee 3d
       0.031761907 -0.11273168 -0.2688478 0.11646727
000170 71 87 2a be 30 3c 25 be 66 7a 9e 3e 36 61 83 be
       -0.1665323 -0.16136241 0.30952758 -0.25660104
000180 ee 15 5d 3c 57 fb a3 bd 27 a0 af 3d df a9 c4 3d
       0.013493998 -0.08006924 0.085754685 0.09602713
000190 7a aa a3 3c 10 d0 23 3e c3 d0 f9 bd 25 59 9c 3d
       0.01997875 0.15997338 -0.12198021 0.076341905
0001a0 10 f7 85 3d 62 b9 f5 3d 5d 6e 44 3e ac 4c 73 3e
       0.06541264 0.119982496 0.19182725 0.23759717
0001b0 b9 c8 9c 3d 30 42 d5 be 07 ff 7d 3a 2a 95 d3 3b
       0.07655472 -0.4165206 0.0009689186 0.0064569907
0001c0 a9 a1 23 3e d6 be b1 3c 7b b0 18 be ba bd 52 be
       0.15979637 0.021697443 -0.14911072 -0.20580187
0001d0 21 6e 03 be 5a e3 ef bd be 8b 05 bc 31 8f 89 bd
       -0.1283498 -0.11713286 -0.008150993 -0.06716765
0001e0 bc 57 43 be ec 69 bf be 0c a1 02 be 90 9c 9f 3c
       -0.19076437 -0.373855 -0.12756747 0.019483835
0001f0 dc 3b 40 bd c7 f5 95 bc 86 fb b9 3e c6 41 1f 3d
       -0.046932086 -0.018305672 0.3632471 0.038881086
000200 6b 65 cd 3e e4 d3 eb 3e 8f c6 83 bd 7b ab 8f 3d
       0.40116438 0.46060097 -0.064343564 0.07015129
000210 80 a8 cf bc 8a e1 a6 bd 4d 84 c1 3d 71 97 cb bc
       -0.025348902 -0.08148487 0.094490625 -0.024852486
000220 91 da b7 bc 42 b8 00 be 09 e4 d5 bc c8 d8 78 3d
       -0.022443088 -0.12570289 -0.026109712 0.060753614
000230 3f 1c 9c 3c b5 53 34 3e 60 50 d7 3e bf 24 91 be
       0.019056438 0.17610057 0.4205351 -0.28348348
000240 6e 02 a8 3e 62 c6 a3 3e 85 76 3b bd e5 dd 24 3c
       0.32814354 0.31987292 -0.045767326 0.010062669
000250 34 75 40 3e 39 85 5c be ad 68 20 3e 8b 4c f4 3c
       0.1879471 -0.21535195 0.1566493 0.029821655
000260 35 37 61 3e 7d 6a 68 be fb 51 0c 3e f5 08 00 3d
       0.21993716 -0.22696872 0.13703148 0.031258542
000270 7b cc 04 be bf df 8d 3e 95 aa 10 3e c3 a0 fd bd
       -0.12968628 0.27709767 0.14127572 -0.123841785
000280 b5 9d 85 bd 60 2b 59 be b5 5a f6 3d e6 8f d1 3a
       -0.06524221 -0.21207952 0.1202902 0.001598832
000290 e6 b6 d3 3d 7b 76 38 3e b2 70 99 bd 7f 70 16 3c
       0.103376195 0.18013947 -0.07492198 0.009182095
0002a0 1f 26 8e 3d 7e 0b 28 3e 08 b2 ff 3d 90 7e 70 3e
       0.06940865 0.16410634 0.12485129 0.2348578
0002b0 e7 ef 88 3d 42 fc f5 be 6a aa 93 3d a6 e2 91 bd
       0.06686383 -0.4804402 0.07210238 -0.07123308
0002c0 fd a9 2d 3e 8d da da 3e 5d 62 64 39 0d 26 9b bd
       0.16959377 0.42744866 0.00021780418 -0.07575617
0002d0 ad 71 96 3e 13 06 0d be 53 89 3c 3e 77 40 6d 3d
       0.29383603 -0.13771848 0.1841176 0.057922807
0002e0 1e eb 1f 3e ed 28 90 bd 4a 0f 9f be 42 7c 5a 3e
       0.15617034 -0.07039056 -0.31066352 0.21336463
0002f0 ea ac 27 be 60 00 1f 3e 1a c3 ac 3e 39 e8 9b be
       -0.16374555 0.15527487 0.337426 -0.3045061
000300 7f e4 95 bc 65 1a 06 be 51 09 b1 be 00 ba 77 3e
       -0.018297432 -0.13096006 -0.3457742 0.24192047
000310 ff 2d 1a be a5 c9 10 be 03 8b 4e be 18 8a 28 3e
       -0.15056609 -0.14139421 -0.20170216 0.16458929
000320 31 17 e0 3c dd d2 2c bd 90 39 5f 3d cc c9 92 bd
       0.027354809 -0.042193282 0.054498255 -0.07167396
000330 04 6b 4e bd 52 9e f0 3d f8 97 32 be 39 c3 89 be
       -0.050395027 0.11748947 -0.17440784 -0.26906756
000340 07 48 b6 bc 10 b1 4c be a8 52 02 3c 39 b2 f2 bd
       -0.022251142 -0.19989419 0.007954277 -0.118503995
000350 9d ec cb 3a ca 58 dc 3c e4 06 07 be 05 85 15 bc
       0.0015558187 0.026897807 -0.13186222 -0.009125953
000360 46 d9 a5 3e 7d 8e 0f 3e 06 15 3a 3e cf 01 50 3e
       0.3239233 0.14019199 0.18172082 0.2031319
000370 07 ad 20 3d 9d 26 f1 be d9 66 18 3e c8 4e 0f be
       0.03922751 -0.47099772 0.14882983 -0.13994896
000380 e1 43 2d 3c 57 e3 8c 3d 32 ea 15 bd a9 f0 94 bd
       0.010575266 0.06879299 -0.0366003 -0.07272465
000390 32 45 ed bc 58 67 33 be 45 12 ec bd b7 ec c1 3d
       -0.028963659 -0.17519891 -0.11526922 0.09468978
0003a0 5d b0 91 3d 9b ab d3 3d 00 e2 12 3c 8c f7 0a be
       0.07113717 0.103354655 0.008965015 -0.13570994
0003b0 8e 9c 4d be af 7a be 3e 33 3e 93 be 4f cc 57 be
       -0.20079252 0.37202975 -0.28758392 -0.21074031
0003c0 7b 11 d5 bc d6 2b 12 bf b5 37 3a be 26 f6 c3 bc
       -0.026009312 -0.5709814 -0.18185313 -0.023921084
0003d0 58 a8 ab bd 0c 25 2a be ef d1 24 bd f8 05 89 3d
       -0.083817184 -0.16615695 -0.04023927 0.066905916
0003e0 79 73 81 3d ba 14 53 be f2 cc 81 3c e6 24 16 be
       0.06320853 -0.20613375 0.015844796 -0.14662513
0003f0 73 3b ac 3e 31 5f fd 3d 98 35 86 bd f8 56 28 3e
       0.33639106 0.12371672 -0.06553191 0.16439426

linear_stack.0.bias f4 [16]
000000 21 45 89 be 7e 33 a3 be ae 34 7a be 08 00 60 be
       -0.26810554 -0.31875223 -0.24434158 -0.21875012
000010 8d cd 61 bd 6d 65 13 bf 73 a8 0b bf 35 ba c8 be
       -0.05512767 -0.5757664 -0.5455391 -0.39204565
000020 5e 80 15 be 45 11 a0 be 28 35 12 bf c1 16 0c bf
       -0.1459975 -0.31263176 -0.5711236 -0.5472222
000030 9b f2 3c be 35 25 1c bf 03 a2 8e be b6 b0 04 bd
       -0.18451922 -0.60994273 -0.2785798 -0.032395087

linear_stack.3.weight f4 [8, 16]
000000 f1 1a cb 3e c7 97 02 3f 6d 5d 37 be 7a a8 06 3e
       0.39668992 0.51012844 -0.17906733 0.13150206
000010 6d ea 1f be 09 d6 f7 3e 63 47 d3 3d db c5 94 bd
       -0.1561677 0.48405483 0.1031635 -0.072643004
000020 19 0d 54 3e ca ba 9d 3e 5c 90 97 3e d8 b3 cc 3e
       0.20708121 0.3080657 0.29602325 0.3998096
000030 14 a7 37 be c9 ae b8 3e f6 27 10 be 42 ef 8d be
       -0.17934829 0.3607085 -0.14077744 -0.27721602
000040 7b 22 7d 3e eb 38 82 3e 0e 9e b9 bd 5e 9e 06 3e
       0.24720185 0.2543405 -0.0906335 0.1314635
000050 58 11 e1 be 90 58 03 3f 46 42 66 3e fb 72 ca be
       -0.43958545 0.5130701 0.22486219 -0.39540848
000060 fc 58 47 3e 5b 1d bf 3e 5c 1a ba 3e 7a 7d 29 3f
       0.19467539 0.37327084 0.36348236 0.6620709
000070 15 c8 f7 3c b5 3f b0 3e ce bb 35 be 4e 25 bb bd
       0.030246774 0.34423605 -0.17747423 -0.09137975
000080 5c c5 1b be c3 f8 ef bd 67 af 92 3d 1b 61 bc be
       -0.15212005 -0.117173694 0.071623616 -0.36792836
000090 42 38 d6 be c0 a1 01 be 2e 43 ad be 34 a4 15 be
       -0.41839796 -0.12659359 -0.33840317 -0.1461342
0000a0 42 12 39 be 8b d9 b2 be 1b ff 90 be a4 73 b7 be
       -0.18073371 -0.34931597 -0.2831963 -0.35830414
0000b0 08 a8 05 3e b0 1f c3 be 53 48 67 3d 43 2f c0 3c
       0.1305238 -0.38110113 0.056465458 0.023460036
0000c0 f9 3c a6 3e 49 0b 84 3e 10 e9 2b be f3 73 95 3e
       0.32468393 0.2578986 -0.16788125 0.29190025
0000d0 0a d5 8a bd 47 bd 0f 3f 3e 39 b6 bd 55 df cf 3d
       -0.06778915 0.5614819 -0.08897637 0.10150019
0000e0 04 6c e4 3d 3c a9 d4 3e 6c 29 80 bd 05 65 9b 3e
       0.11153415 0.41535366 -0.062579006 0.3035051
0000f0 48 b3 45 bd 73 20 d3 3e 93 aa f1 bd bf ae 7c be
       -0.04826668 0.41235694 -0.118001126 -0.24676035
000100 df c9 db 3e 17 fd 10 3e 25 28 82 bd 64 2a 23 be
       0.42927453 0.14159046 -0.06355313 -0.1593414
000110 73 b8 a6 bd 86 92 0d 3c 0e 0d 6c 3e 58 14 d7 bd
       -0.0814065 0.008640891 0.23051855 -0.10501927
000120 4d a5 00 3e cd fd 36 3d 1b 4f 16 3e 75 b4 36 3e
       0.12563057 0.044675637 0.14678614 0.17842276
000130 0b 96 c7 bd 47 0f 9b 3e 94 aa 96 bc 14 3b 36 be
       -0.09745415 0.30285093 -0.018391885 -0.17795974
000140 2c ab 03 3e 4e f4 b9 3e 7f 37 e7 be 8f 0f dc 3d
       0.12858266 0.36319202 -0.45159528 0.10745155
000150 69 07 a0 bd f4 99 16 3f 49 cf 79 3e b9 99 11 3e
       -0.078139134 0.58828664 0.2439548 0.14218797
000160 eb 05 3f 3e 7f 98 97 3e e7 e6 86 3e 63 f5 a1 3e
       0.18654601 0.29608533 0.2634804 0.31632528
000170 d8 9f f5 bd c5 d3 a2 be 80 be 21 be cc 26 9d be
       -0.119933784 -0.31802192 -0.15795326 -0.30693662
000180 4d 57 73 be d4 0b 16 be bf a0 9f 3d f5 c6 cf be
       -0.23763771 -0.1465295 0.07794332 -0.4058148
000190 06 d3 01 3a e7 87 38 be d3 52 73 be 1b f9 8b bd
       0.00049524044 -0.18020593 -0.23762064 -0.068346225
0001a0 d1 dd c7 be 96 07 c2 be 02 a9 9a be 39 0b 8b be
       -0.3903642 -0.37896413 -0.30207068 -0.27157
0001b0 d2 83 e6 3d d3 91 aa be 6b 94 13 3e 39 5b 3f 3c
       0.112556115 -0.3331438 0.14412086 0.011679464
0001c0 e2 24 70 3e b5 82 45 3e 63 5d 9d bd e4 5b 46 3e
       0.2345157 0.19288142 -0.07683828 0.19370991
0001d0 21 ae 06 be 56 2b 38 3f 61 81 16 3e 71 00 38 be
       -0.13152362 0.71941125 0.14697792 -0.17968918
0001e0 92 0e 09 3e be 6e d5 3e b1 c2 b8 3e 93 a8 16 3f
       0.13384464 0.41686052 0.36086038 0.58850974
0001f0 36 a6 86 bc 00 41 95 3e b0 d3 f7 bd 43 02 f8 bd
       -0.016436677 0.29151154 -0.12100923 -0.121098064

linear_stack.3.bias f4 [8]
000000 9c 17 1f bc 70 b3 80 bd cc 21 a2 3d f8 2f 26 3c
       -0.009710219 -0.06284225 0.079166025 0.010143273
000010 dc 24 94 3c fa 7f 9b 3b 3e a9 92 3d a9 19 7d 3c
       0.018083982 0.0047454806 0.07161187 0.015448012

linear_stack.6.weight f4 [8, 8]
000000 8e 34 e8 3e b3 08 ec 3e d6 fe 5f be 71 07 56 3e
       0.45352596 0.46100387 -0.21874556 0.20901276
000010 53 1f 38 3d d6 e5 09 3f 5d 8a 2b be 91 a4 18 3f
       0.044951748 0.53866327 -0.16752 0.5962611
000020 41 b2 90 3e 8c 3a ab 3e 92 78 12 be 7a cf 9f 3e
       0.28260997 0.33443105 -0.14303806 0.3121298
000030 1a 7e c7 3e ae ea 02 3f bd 30 c2 bd c6 3d f6 3e
       0.38963395 0.5113934 -0.09481952 0.48094004
000040 4e 35 b7 be ff 85 94 be e7 da 96 3e 05 66 ea be
       -0.35782856 -0.2900848 0.29463884 -0.4578096
000050 86 fe 7e be 64 24 5b be 6a e9 03 3f 09 85 d2 be
       -0.2490178 -0.214006 0.51528037 -0.41117123
000060 94 98 e5 3e 18 55 dc 3e d3 d1 8a be fb 1c b7 3e
       0.4484297 0.4303367 -0.27113208 0.35764298
000070 d2 61 89 3e ba db 4e 3d 24 06 a7 be 6c 59 06 3e
       0.26832443 0.050502516 -0.32621872 0.13120049
000080 70 fb b9 be 65 ee d8 be 2d 0d 91 3e 29 5e 10 bf
       -0.36324644 -0.4236938 0.28330365 -0.56393677
000090 16 e9 7b be 4d 80 a0 be af 34 ec 3e f3 0d c7 be
       -0.24600634 -0.31347886 0.46133944 -0.3887783
0000a0 d4 b6 ab 3e 23 c3 a6 3e 5d f2 9e be b4 ea a6 3e
       0.33537924 0.32570753 -0.31044284 0.3260094
0000b0 bd c9 d6 3e 6f 20 05 3f ca 8a e0 bd cb 4e 2c 3e
       0.4195079 0.52002615 -0.10963972 0.16826932
0000c0 72 c8 a1 be ef 47 e0 be 04 75 c2 3e b6 89 f5 be
       -0.3159824 -0.4380488 0.379799 -0.47956628
0000d0 ee cf a5 be af eb 93 be 4a 74 bb 3e ec 99 a6 be
       -0.323852 -0.2889075 0.3661216 -0.32539308
0000e0 4c d8 5b 3e ba 0c ae 3e 76 de 50 be 7e 1a 1f 3f
       0.2146923 0.33994085 -0.20397362 0.621498
0000f0 1a 2a 93 3e 95 79 51 3e 4d 88 dd be 15 ac dc 3e
       0.28743058 0.20456536 -0.43268052 0.43100038

linear_stack.6.bias f4 [8]
000000 8d 9e 40 3c 67 fe 5c 3c 4b c4 b4 3d be 48 f3 3c
       0.011756551 0.013488389 0.088265024 0.029697772
000010 62 54 d1 3d 75 cf ce bb ee 2c 93 3d 48 99 c4 3b
       0.10221173 -0.006311352 0.07186304 0.005999718

linear_stack.9.weight f4 [8, 8]
000000 a1 68 a0 3e 69 fa 94 3e c4 6d 8d be 50 85 f9 3e
       0.31329826 0.29097298 -0.27622807 0.48734522
000010 3f 57 ca be f6 65 18 3e ba 10 0f bf 3f c8 88 3e
       -0.39519688 0.14882645 -0.558849 0.26715276
000020 ca ec c2 3e b4 0e ae 3e fa 91 67 be e6 ad b0 3e
       0.3807128 0.33995593 -0.2261428 0.34507674
000030 ef 9e 5c be 90 ca 8d 3e b0 b4 d5 be 98 96 8e 3e
       -0.21545003 0.27693605 -0.41739416 0.2784927
000040 86 ad dd be 90 8c 1c bf 8e fe b9 3e 6a ff f4 be
       -0.4329645 -0.6115198 0.36327022 -0.47851115
000050 95 d3 a6 3e 53 84 07 bf 2f 90 01 3f 8c 51 98 be
       0.325833 -0.52936286 0.5061063 -0.29749715
000060 90 6e af 3e ce d8 90 3e 84 60 bc be 7f a1 ee bd
       0.3426404 0.2829041 -0.36792386 -0.11651897
000070 d3 b3 ce be 8b a7 ed 3e b5 49 f8 be 39 0e b6 3e
       -0.4037157 0.46416888 -0.48493734 0.35557726
000080 7a ac cf 3d 09 37 ba 3c 9d dc e6 bd c5 ba 19 be
       0.10140319 0.022731321 -0.112725474 -0.15012653
000090 2f a8 32 be 27 70 16 3f 4f 4f 0b be 91 a0 0d 3f
       -0.1744697 0.5876488 -0.13604473 0.5532313
0000a0 c9 08 a4 be fe 2a 22 bf 35 51 5e 3e 20 3b fb be
       -0.32037953 -0.6334685 0.21710666 -0.49068546
0000b0 70 ff 75 3e bc d2 0b bf e1 4a d8 3e 3e e7 81 be
       0.24023223 -0.5461843 0.42244628 -0.25371736
0000c0 a0 d7 4e 3e 87 71 ef 3e eb d1 8b be af 43 a5 3e
       0.20199442 0.46766302 -0.27308592 0.322782
0000d0 aa b2 a2 be 31 54 51 3e 24 29 e6 be 81 e2 8b 3e
       -0.31776935 0.20442273 -0.44953263 0.27321246
0000e0 19 f7 be 3e 84 1c 98 3e 59 04 d3 be 6c a4 16 3f
       0.37297896 0.29709256 -0.41214254 0.5884464
0000f0 65 c4 c9 be 2d 4e cb 3e 77 dc 08 bf d0 6a 87 be
       -0.3940765 0.3970808 -0.534614 -0.2644868

linear_stack.9.bias f4 [8]
000000 65 43 cf 3d 90 27 35 3d df 6a 3c 3e ea 62 ca 3d
       0.10120276 0.044227183 0.18400143 0.098821476
000010 c9 f8 3b 3d 07 c6 0c 3e 67 3b ad 3d 64 09 e1 3d
       0.045891557 0.13747416 0.08458596 0.10988119

linear_stack.12.weight f4 [2, 8]
000000 73 25 b3 be 3f f0 d1 be 90 cd 04 3f 7c 42 0d bf
       -0.3498951 -0.41003606 0.51876163 -0.5517957
000010 69 71 ab be c1 04 fe 3e ce 66 b0 be 61 41 b3 be
       -0.33484963 0.49613002 -0.34453434 -0.35010818
000020 33 64 b6 3e f3 c4 83 3e d0 c1 08 be 57 60 65 3e
       0.3562332 0.25736198 -0.13355184 0.22400032
000030 0e b9 f2 3e 79 ea 49 be fd c2 be 3e 91 52 a9 3e
       0.4740681 -0.1971835 0.3725814 0.33070806

linear_stack.12.bias f4 [2]
000000 ec bf fd 3d 8e e1 d4 be
       0.12390122 -0.41578335
