models/model_sq_c2_s0.1_b16_lr0.001_d0.5_e30.pth (torch, 6143 bytes, 10 tensors)

linear_stack.0.weight f4 [16, 16]
00000000: b74d f6bd f263 e83d ee33 1a3e ab97 01bd
00000010: 3c58 67be a780 10bb b2cb b23d 028e 3bbc
00000020: 8bf5 7a3c 1086 f03d e79a 933d cfe7 30be
00000030: 0a3c 583e 15dc bf3e 61b4 6c3e e06d 353e
00000040: c455 45bd 2acd 123e 1bc2 c53d ca86 a4bd
00000050: c675 833e c903 9ebd 23b1 583e 74db 5dbd
00000060: 8fb0 273d f666 a13d be50 09bd e028 b63e
00000070: 798d 4abe 2bb7 cabe 8234 d33d 61ed d2bd
00000080: 9e76 353e 2043 4dbd 8c63 1b3e a0e7 1d3d
00000090: eb1a 403d 37fd 21be 576a 343e 24fd f43d
000000a0: 2827 6b3d 9c4c 953d 2976 863d 47b8 293d
000000b0: 566b 9bbe e192 aabe edcb 243d aced 84be
000000c0: 4f91 083e 8229 463d d785 b6bd 288c 1c3e
000000d0: 9fbc 34be 0acc 673d 4bad aabd 2d16 17bd
000000e0: ed53 4abe 6cfa 573e 91c8 7b3e cdcc 993e
000000f0: 4f13 973d 0612 a83e b3e3 50b8 6595 463e
00000100: d31b ef3d 3d6c 863e d376 ae3c 3c74 fe3d
00000110: b1b3 76bd b5ba c6bd 27ef cc3d 53c2 473e
00000120: 203f 173c 4f61 9fbe 96c9 55be 9a18 70bd
00000130: bb7e 6cbd 2d52 56bc e9fc 96be fbcb ad3c
00000140: fb9b 3a3e 4dc2 573e e59f 493e 7687 48be
00000150: 6424 333e 90ae 4fbd 4666 15be dc91 01be
00000160: 2c4f d53c 0858 13bd f67b bdbd b900 c1bc
00000170: 7540 07bd 8c79 f4bd 3c45 b0bd 7836 81be
00000180: 9426 ac3d bca1 a3bd 726f 743d 6dd4 883e
00000190: 230b 633e 3e0d 0e3e ede7 61be 2265 983d
000001a0: 2adf abbd 0d62 a3bd f097 25be 5f2c 8e3d
000001b0: 0cc0 663e 6a77 2d3d 286e a3bd 3b5d a73e
000001c0: 87a5 4a3e 986f fd3c dfee 16be 4d21 71be
000001d0: e44a 14be 5bad 15be 8aa1 5e3e 9443 85be
000001e0: d728 89bd 58b4 94be 5b82 cc3b 514f 283e
000001f0: 75fe e5bd abec 55be 6df9 893d 39eb 5cbe
00000200: dca1 3a3d 960e 88bd 2e94 083e 5fed 9c3d
00000210: a97e 1dbe 12ee 8e3e d453 433d 833c 74be
00000220: 9504 0039 49b3 043e b560 aa3e dc17 f1bd
00000230: 9d08 a63e 515f ab3e bdf0 253e 8a7c 223d
00000240: 3482 3e3e 84a1 eabb df8d a23c 9925 49be
00000250: 50e4 00be 6f75 77bd 08f3 203e 0bf6 bfbd
00000260: 2670 1b3e 56ae 37be a175 92bd 2d4b acbd
00000270: 2aa1 97bd c4ae 423d 65e7 dc3c e9b9 a33e
00000280: f29c 48be 9637 98bd e6b4 09bd 6f9d 523c
00000290: d324 e03d 3c51 453e e24b 303c 67bd bebd
000002a0: 6524 16be f064 dc3e de13 e63d 2f99 0b3e
000002b0: 6cf1 3f3e 6338 bc3e dfa4 4dbe e7e5 b5bd
000002c0: 01bd 12be 8fa0 19bd 7b6e dabc 9cca 4cbe
000002d0: 6599 4f3e 6870 8cbe 1080 833d 814a b23d
000002e0: 478b 393e 6353 d1be aa9d 0dbf 1091 4fbe
000002f0: 2818 2abe 6617 643e f2d3 813e 635c 1f3e
00000300: 6215 633d 906c 93be 53fe 65be 8fd2 5a3e
00000310: 44b3 6cbe a804 0a3d d728 75bd 174f c23d
00000320: 0b55 573e 13f4 91be 2b43 b8be 75cf d7be
00000330: b70e 0b3d 8b18 073d 68ec 863e 4f94 6bbd
00000340: 9188 3bbe 3d36 4bbe 3156 3fbd c234 8dbd
00000350: ac5a f23c cdb1 843d c08b 2abe 6f06 84bd
00000360: 284f 443e e6e1 e13d 18e3 d73d a017 8b3e
00000370: 6580 8b3e 6af0 633e 1ea3 56bd b9a9 cabb
00000380: 9c91 8ebd eb9c 9d3d 474f e7bd 37f5 233d
00000390: d5eb c83d 7229 5fbe 0194 b3bd 71d8 7d3e
000003a0: 5d74 293e 82f2 74be 83db 6bbd 7f16 993c
000003b0: bd1e 2bbd 28b8 9b3e 0c64 1ebe d384 12be
000003c0: ab48 513e 9d32 89be b278 82bd 0d94 013e
000003d0: f6cb ea3d 588e 45be 4e21 debc 3dd9 41bb
000003e0: 88b2 0f3e 445f 28be f77c 193d 2d2b 563e
000003f0: a12f cfbd 8cf3 d9be d4ff 00be 69c4 6dbe
-0.12026542 0.11347188 0.15058872 -0.031638782 -0.22592252 -0.002204934 0.08730258 -0.0114474315
0.015317331 0.117443204 0.0720728 -0.17275928 0.21116653 0.37472597 0.23115684 0.17717695
-0.048177496 0.14336076 0.09656163 -0.080335215 0.25675792 -0.07715566 0.21161322 -0.054164365
0.040939864 0.07880966 -0.033524267 0.3557806 -0.1978053 -0.3959287 0.103127494 -0.10299183
0.1772103 -0.050112844 0.15174693 0.038550973 0.04690067 -0.1581925 0.1761869 0.11962345
0.05741039 0.07290003 0.06565506 0.041435506 -0.30355328 -0.33315185 0.04023354 -0.2596258
0.13336681 0.04837943 -0.08912247 0.1528784 -0.17650078 0.05659107 -0.08333834 -0.036886383
-0.19758578 0.21091622 0.24588229 0.30039063 0.0737673 0.3282625 -4.9803126e-05 0.19392927
0.11675229 0.26254454 0.021296894 0.12424514 -0.06022996 -0.0970358 0.10006552 0.19507723
0.009231359 -0.31128928 -0.2087768 -0.058617212 -0.057738047 -0.013081116 -0.2948983 0.02121543
0.18223564 0.21070214 0.19689901 -0.19582924 0.1749435 -0.050703585 -0.14589795 -0.12653297
0.026038729 -0.035972625 -0.09252159 -0.023559915 -0.033020455 -0.11937246 -0.086069554 -0.2523687
0.08405796 -0.07989833 0.059676595 0.26724568 0.22172217 0.13872239 -0.22061129 0.074411646
-0.083921745 -0.07977686 -0.16171241 0.06942057 0.22534198 0.04235021 -0.07979995 0.32688317
0.19789706 0.030937001 -0.1473956 -0.2354786 -0.14481694 -0.14616911 0.2174131 -0.2602812
-0.06697243 -0.2904384 0.0062411255 0.16436507 -0.112301745 -0.20891063 0.06737027 -0.21574105
0.045564517 -0.06643407 0.13337776 0.076624624 -0.15380348 0.27916008 0.047687367 -0.23851208
0.00012208738 0.12959017 0.33276907 -0.11772129 0.32428446 0.33471158 0.16205116 0.03966955
0.18604356 -0.0071603674 0.01984304 -0.19643249 -0.12587094 -0.060414728 0.15717709 -0.09373101
0.151795 -0.17937598 -0.07151342 -0.08412776 -0.074037865 0.04752995 0.026965806 0.31977776
-0.1959112 -0.07432477 -0.033619784 0.012854918 0.10944524 0.1926927 0.010760279 -0.093134694
-0.14662321 0.4304576 0.11234258 0.13632654 0.18744439 0.3676177 -0.20082425 -0.08881741
-0.14329912 -0.037506636 -0.02666401 -0.19999164 0.20273359 -0.2742951 0.0642091 0.08705617
0.18119536 -0.40883932 -0.553187 -0.2027018 -0.16610777 0.22274551 0.25357014 0.15562586
0.055440314 -0.28793764 -0.22460298 0.21369384 -0.2311526 0.033695847 -0.0598534 0.094877414
0.21028535 -0.28506526 -0.35988745 -0.42150465 0.03394958 0.03298239 0.2635224 -0.057514485
-0.18313815 -0.19844909 -0.046713058 -0.068948284 0.029584251 0.06479225 -0.16654873 -0.064465396
0.1917082 0.11029415 0.105413616 0.27166462 0.27246395 0.2225968 -0.052401654 -0.0061847833
-0.069613665 0.07695945 -0.11294418 0.040028777 0.098106064 -0.21793154 -0.08768464 0.24789597
0.16548295 -0.23920634 -0.05758239 0.018687485 -0.04177736 0.30413938 -0.15467852 -0.14308481
0.20437877 -0.26796427 -0.06370677 0.12654133 0.11464684 -0.19292581 -0.02711549 -0.0029578947
0.14032948 -0.16442591 0.03747269 0.20914908 -0.10116506 -0.42568624 -0.1259759 -0.23219456

linear_stack.0.bias f4 [16]
00000000: 0e5d d23d 0789 e9bc d8b2 e23d 97d8 57bd
00000010: f8a0 2c3e e62d 51be b12b ae3d bb17 80be
00000020: ebe5 483d 764b 1dbd c169 12be 1934 5cbe
00000030: 2cc1 db3d 9d43 a0bd f568 0f3e 9ebd 733e
0.10271655 -0.028507723 0.11069268 -0.05269679 0.1685828 -0.20427665 0.08504427 -0.25018105
0.04904739 -0.038402043 -0.14298154 -0.21504249 0.10730204 -0.07825396 0.14004882 0.23802802

linear_stack.3.weight f4 [8, 16]
00000000: 9255 923e 8360 d2bd 21e3 49be 01c7 4f3e
00000010: ba13 a2bd 1650 afbe 4718 deba e18c 53be
00000020: ce8c 583d bd5d 13be 948f 2abe 88fc ca3d
00000030: 3b94 0dbe 8e95 973e d032 8a3e cd83 99be
00000040: 6292 293e c7c9 1abe 1245 3bbe 3f22 343e
00000050: 9503 29be 7e7b 64be 99da de3d b94b 62be
00000060: d8b1 633e 1ae6 b1bc 30db bc3e a037 e23e
00000070: 0e7f 913e 0094 513e 2b4a 80be 9e0c 1dbe
00000080: 7419 863c 060d 373e 3827 d63d 3025 a8bd
00000090: c101 6cbe 5ce6 093e ed39 50be 2ba3 8abc
000000a0: f4e9 91bd f6a9 093e 81bd 8bbd 82e5 7ebe
000000b0: c7a7 56bb b302 e5bd a2ed e1bc 8e03 9d3e
000000c0: fa46 813e fd23 a3bd b488 a9bd e0e5 0a3e
000000d0: 3b8a 2fbd 8e11 933d 8f68 46be 6ee4 aebd
000000e0: bf75 53bd 9655 813e 619d 71be 9761 953d
000000f0: 6307 713e eff8 eb3c 1022 743b ed26 48be
00000100: 8485 f93d 222f 5ebc 94ad d9bd 35f0 56be
00000110: 0cc1 263e beb5 79be 2101 973e 32eb a4bd
00000120: 2722 483d a50d fdbd 1303 da3b 1a45 b3bd
00000130: 9e6b 67bd 65e9 113e a182 a03d 3b02 05be
00000140: cef4 5ebe 9184 f33d 0664 16be 28df edbd
00000150: a2cd 1b3e 7312 f43d 2df1 263e c60d e63d
00000160: 1e07 67bd 42bb 61bc 1265 fa3c 5675 fbbd
00000170: 39a4 69bb d9a0 6fbe 1168 54be 0ce3 6ebe
00000180: e99b ccbd 0669 aa3e 6af0 663e e0b0 0fbe
00000190: d882 2dbe 572d 233d e233 48bd 9741 563e
000001a0: 6cd3 26be e80b 52be 971c 02be a9a0 2cbe
000001b0: 25d9 1abe e483 babd 38d2 9ebc bc80 d93d
000001c0: 0af0 3d3d 15c3 f9bd d576 0cbe 4120 683e
000001d0: ee7f 24be 048d dcbd 1962 f33d 2a23 69be
000001e0: 310a 673e c7e9 393e 1538 583e aa49 d03e
000001f0: a43c 103e 710e c13d 96b4 bebd 342b 5bbe
0.2858091 -0.102723144 -0.19715549 0.20290758 -0.07913919 -0.34240788 -0.0016944491 -0.2065921
0.052868657 -0.14391227 -0.16656333 0.09911448 -0.13826077 0.2960629 0.26991892 -0.2998337
0.16559747 -0.15116034 -0.18288067 0.17591189 -0.16505273 -0.22312734 0.10881538 -0.22099198
0.22235811 -0.021716166 0.36885977 0.44183064 0.28417248 0.20466614 -0.25056586 -0.15336844
0.016369559 0.17876062 0.10456699 -0.08210218 -0.23047544 0.13466781 -0.20334597 -0.016923508
-0.07124701 0.13443741 -0.068232544 -0.24892238 -0.0032753812 -0.111821555 -0.027579132 0.30666775
0.25249463 -0.079658486 -0.08278027 0.13564253 -0.042856436 0.07181083 -0.19375823 -0.08539663
-0.051625963 0.2526061 -0.23595192 0.072940044 0.23537974 0.028805224 0.0037251748 -0.19546099
0.12183669 -0.013561042 -0.106288105 -0.20990069 0.16284579 -0.24385735 0.2949305 -0.080526724
0.048860695 -0.12356118 0.0066531985 -0.087534145 -0.056499116 0.14249189 0.078374155 -0.12989132
-0.21773073 0.118905194 -0.14686593 -0.11614829 0.15215161 0.119175814 0.16302939 0.11233096
-0.05640327 -0.013777556 0.030565772 -0.122782394 -0.0035650863 -0.23401202 -0.20742823 -0.23328799
-0.09990675 0.33283252 0.22552648 -0.14032316 -0.16944444 0.03983816 -0.048877604 0.20923458
-0.16291589 -0.20512354 -0.12706219 -0.16858162 -0.15121897 -0.091071874 -0.01938735 0.10620257
0.046371497 -0.12195412 -0.13717206 0.22668554 -0.16064426 -0.10769084 0.11883945 -0.2276732
0.22562481 0.18155585 0.21115144 0.406812 0.14085633 0.094265826 -0.09311788 -0.214032

linear_stack.3.bias f4 [8]
00000000: 33c2 f93d f408 85bd bf14 623e e556 d5bc
00000010: a7f6 99bc a360 333e 0d95 773e ee86 ef3d
0.12195244 -0.06495848 0.22078227 -0.026042411 -0.01879437 0.17517333 0.24177952 0.11695658

linear_stack.6.weight f4 [8, 8]
00000000: 87e8 2e3e a265 283e d96a 91be 7b09 66be
00000010: 0ed2 9abe d83d 663e ed11 88bd 379c b43e
00000020: 7d68 ca3c d0e3 703e 9104 dbbd 21ae 0cbe
00000030: 67fa 7b3e 8423 50bb 8aa2 38be 46d0 a73e
00000040: efa5 0cbe 90e2 dcbd 97d0 3bbe c395 e9bd
00000050: 6bf8 a73d 3e44 893e c142 c03e 1eb2 24be
00000060: 3ef5 643e 5018 9e3e 045f 3cbe 54dc 6c3d
00000070: ee8e adbd 36a1 91be c015 a0be 6b31 d3bd
00000080: 843f 86be 43ec 71be fba8 933d 0a96 d5be
00000090: eea0 a13d f585 3dbe 6473 003f 3438 e2bd
000000a0: 45ce 893e 96e4 8d3e edda 9abe b124 7dbd
000000b0: 4e08 b23e 5f21 8d3e 069a 2bbe 3eea 3fbc
000000c0: befb 45be b37c 66be 1f92 8f3e feea 08bf
000000d0: 5604 ffbd 0e96 e5bd bdee c53e 1e52 debd
000000e0: b566 2a3c 0413 883e e909 12bd 3b2d bf3e
000000f0: 7fde 163d 73e3 a7be 1a9a d4be e314 9f3e
0.1708089 0.1644502 -0.2840183 -0.22464554 -0.30238384 0.22484529 -0.06644044 0.35275432
0.024708027 0.23524404 -0.1069423 -0.137383 0.2460724 -0.003175945 -0.18030754 0.32776088
-0.13735174 -0.10785401 -0.1834129 -0.11405518 0.08201679 0.26809877 0.3755093 -0.16083571
0.22359177 0.30877924 -0.1839562 0.05782731 -0.08474527 -0.28443307 -0.31266594 -0.1031216
-0.26220334 -0.23625283 0.07209965 -0.41716033 0.07892023 -0.18508132 0.5017607 -0.11045876
0.26915184 0.2771346 -0.30245152 -0.06180257 0.3477196 0.27564523 -0.16757974 -0.0117135625
-0.19334313 -0.22508506 0.2804117 -0.5348357 -0.12451999 -0.11210261 0.38658705 -0.10855506
0.010400464 0.26577008 -0.035653982 0.37339196 0.036833283 -0.32790717 -0.4152382 0.31070623

linear_stack.6.bias f4 [8]
00000000: 4313 c83d fd8b b8bc 12c1 293e 0476 b33d
00000010: b2d6 523e 3421 53bd feaf 1a3e 2a0e 7c3e
0.09769299 -0.02252769 0.16577557 0.08762744 0.20589712 -0.051545337 0.15106198 0.24614778

linear_stack.9.weight f4 [8, 8]
00000000: c8ac 2f3e 0e89 bd3c 7936 b1bd 1fc9 943e
00000010: 3c74 a9be bbee 03be f8bb dcbe fe5f 4f3e
00000020: aafa 513e 20f2 b33d 172f 10be 40e8 793e
00000030: 227f f93c 2e76 833d d777 91be 406f 7f3e
00000040: 6bc0 e2bd eb70 87be cb8a 8b3e 7d7f e2bc
00000050: 9264 563e 4a84 a9be 0436 0a3f 8177 953b
00000060: 82c2 9dbd f86a 373d f1a9 97be 70a3 aabe
00000070: d61f a4bd ca75 b53e 038f 0cbe d7ff 513e
00000080: 09d0 babd 3176 cdbd 6bde 493e 13a4 1abe
00000090: 9855 8cbe 86e3 9e3e f0f0 4bbe e284 c53e
000000a0: ab16 57bc 2c6a 95be 7e6d 4a3e 54e5 5fbe
000000b0: 24ae 6e3e a100 85be 8573 d73e 7d4e 0ebd
000000c0: cc44 a0bd ef96 ca3e 16a7 79bd 2e00 d93d
000000d0: 7934 1abe d552 c5bd 80fc 83be 0a58 143e
000000e0: db80 fc3d 3c3b adbd 6d95 53be b589 ce3e
000000f0: 6704 1fbe 059e c83e 7f3f a4be 0959 9abe
0.17155755 0.023136642 -0.08652968 0.29059693 -0.33096492 -0.12884037 -0.4311216 0.20251462
0.20505777 0.08786416 -0.14080463 0.24405003 0.03045613 0.06419025 -0.28411743 0.24944782
-0.11071857 -0.26453337 0.27254328 -0.027648682 0.20936802 -0.3310874 0.5398867 0.004561365
-0.07703115 0.044779748 -0.29621843 -0.33327818 -0.08013885 0.35441428 -0.1372643 0.20507751
-0.09121711 -0.10032309 0.19713752 -0.15101652 -0.27409053 0.31032962 -0.19916129 0.38577944
-0.013127963 -0.29182565 0.1976833 -0.21864825 0.23308617 -0.25977042 0.42080322 -0.03474282
-0.07825622 0.39568278 -0.06095036 0.105957374 -0.15059079 -0.096349396 -0.2577858 0.14486709
0.12329265 -0.08458564 -0.2066247 0.40339437 -0.15529023 0.3918306 -0.32079694 -0.30146053

linear_stack.9.bias f4 [8]
00000000: 226c c73d 9dcf 563c 6f67 91bc 450c 363d
00000010: 5bf2 6bbe 59ca b13d c6aa 543d e79a 6c3e
0.097374216 0.013111022 -0.017749516 0.044445295 -0.2304167 0.08681173 0.051920675 0.23105966

linear_stack.12.weight f4 [2, 8]
00000000: 86ed 25be 68c1 52be b611 c63e 9b73 9bbe
00000010: dab5 c7bd 0ba3 c73e 0cda 2ebe 92ee 38be
00000020: 0c6b 2c3e 2aab 593d 509b d7ba 6114 c6bc
00000030: 776a 723e 594e babd 8092 4b3e 1611 253e
-0.16203889 -0.20581591 0.38685387 -0.30361637 -0.09751482 0.3899158 -0.17075366 -0.18059757
0.1683771 0.05314175 -0.0016449485 -0.02417964 0.23673426 -0.09096975 0.19880104 0.16119799

linear_stack.12.bias f4 [2]
00000000: 3b84 c2bd f7a0 49be
-0.09497877 -0.1969031
