models/model_zj_c2_s0.1_b16_lr0.001_d0.5_e100.pth (torch, 6143 bytes, 10 tensors)

linear_stack.0.weight f4 [16, 16]
00000000: 92e4 273e c2c4 8c3d 4772 2f3e 1f0f e0bd
00000010: 2ee2 8cbe 054e b0bd d517 5d3d c27f 38bc
00000020: 49cf 43be 58ba 0d3d ff7d 763e 20c5 19be
00000030: 09dc 9c3d 9623 4e3e 85e4 293e 4830 0b3d
00000040: 8e8c cc3e a3b8 293e 1eb3 98bd 154f 91be
00000050: b6b9 d33d 9294 84be cb04 0b3e 6005 0039
00000060: bebf 4abe d0f7 52be eed5 2dbe 3c3a ca3d
00000070: b9c5 bcbe 45dc be3d 4795 2a3e 0265 54be
00000080: a726 dd3d 0f9c e2be c5d2 573e ae1c a8bd
00000090: 88e2 a7bd f82d 0cbe 5a58 a83b 1f2f 5dbc
000000a0: 3a77 b53d ec29 ba3e 7e3d c43e 8d39 443d
000000b0: c35c 473e d562 9bbe 60b5 c7bc df5f 833e
000000c0: 02bb e73e 3ef1 ef3e cf89 53bc b7bb 6f3e
000000d0: 763e 2bbd 8f61 853c 3f45 953d 0f99 02bc
000000e0: dde5 16be 5400 13bd ede2 6dbe 4a75 9d3e
000000f0: 4fa2 d4bd b5b9 ab3d 15bd d2be 5a34 8b3e
00000100: 4f32 db3e d08c c53e 2678 e3bc b07f bd3d
00000110: 2a61 9ebd 8322 e2bd 9a8a 753c 5244 443c
00000120: 4b15 013d 5458 2bbd dcee cdbd 10b2 5f3e
00000130: d417 2dbd e883 bebc 0d3f cabe 2ffc 603e
00000140: a41a e63e 44b1 593e 2c72 37bb 3b11 b0be
00000150: f815 793d 250a 3dbe 81af 033d 3efe 3c3d
00000160: 9aa8 34be 377a 58be 4fa1 efbd aa0d 853d
00000170: 5385 a3be acaa 9a3c 2fe5 6c3e 94c2 71be
00000180: 7b4c 0c3e 564f c5be 8b5e 893e c318 3abd
00000190: f796 62be 41f2 5c3e 0897 913c 70c1 9d3d
000001a0: 423c 4a3d 6ba9 273e d6ca b63e 47ac 993e
000001b0: 1d90 da3d ea2c 91be d9fb 49be ea1b 6e3e
000001c0: 8415 e53e e62e 19be cd15 47be 4df0 8dbe
000001d0: ddc6 86bd 52cf b7be 319b 073e 2007 7ebe
000001e0: c26a 86be 0afe b9bd 4699 db3d 57d2 18be
000001f0: 476b 6d3e 715a 2f3e da70 483e 4f99 433d
00000200: 4518 833e 6a54 6f3e a6f3 0f3e a099 a9bd
00000210: ff35 82be 75c8 773d aeb4 c2bc 92aa d0bc
00000220: bd78 a8be f5fb 7bbe 3984 893e 7bc8 82be
00000230: 5661 f43d d186 cc3e dd0e 793e de30 cebd
00000240: ce2d da3d 37b9 b03e 5ae2 a43c b34d c5bd
00000250: 8738 a23c 1495 25be 8078 583e 6c9d 2dbe
00000260: f102 dfbc 6c53 343c 1f40 0c3d 66c0 1c3e
00000270: f041 c1bd 79c1 b3bd 90c9 77be 040b be3e
00000280: 0afe 5cbe 58a4 003d 571d 87bd f0a6 343d
00000290: e50d 4b3e d043 453d 8117 69bd ccce e83d
000002a0: 282a c8bd cc05 42ba 29f6 56be 1120 6f3e
000002b0: 0d93 00be 5319 6bbc ca22 0abf ce41 243e
000002c0: f807 f5be a169 48be 6fc8 afbd 427d 8bbd
000002d0: 780e 883e 287b 40bd 56ff bd3d b416 9b3b
000002e0: e3c4 063c 9398 9cbe 26b8 efbe 95d5 5f3e
000002f0: c71e a13b a864 bb3d eed2 103e c933 6ebd
00000300: 7e2d 353d 82dd 8fbe 2e4a bbbe 49f8 6d3e
00000310: 0256 2fbe 2b0b 143d b33b ebbc 8344 b13d
00000320: 0874 d9ba fc85 83be 06ce 75be 90d1 843d
00000330: 16b0 92bd 0f51 933d c735 aa3e f187 5fbe
00000340: 20df debe 1c77 76be 8d4c 2bbe 3fad 6d3d
00000350: 6934 613e b73c 1bbd 35af 9dbc 162e d13d
00000360: e9bd 503d a210 7ebe 28c1 9bbe d47e 703e
00000370: b262 41bd f605 0cbd f334 f53c 19e1 17be
00000380: cea9 a23e 69b1 963e 2187 75bd 30bf 9f3d
00000390: 567a 093e 6884 16be c013 b2bd 1aee 4b3e
000003a0: 2970 2f3e 554d 6dbe 1650 8abd 98a0 813e
000003b0: d22e abbd 2645 6e3d 2b59 ecbe cd22 233d
000003c0: cf07 273e df85 86be b9e8 82be 32d8 1d3e
000003d0: 1036 e83d 1011 0abe 29c6 23be 7e00 893d
000003e0: 3f9d 6f3e a59d 0dbe 00f1 3bbc cd4d 833e
000003f0: d96d b33d 727e 12be dd7f 9abe 2200 63be
0.16395786 0.06873466 0.17133437 -0.10940384 -0.2751631 -0.08608631 0.053977806 -0.011260929
-0.19122042 0.03460154 0.24071501 -0.15016603 0.07659156 0.20130762 0.1659108 0.03398159
0.39950985 0.1657434 -0.07456039 -0.28380647 0.10338156 -0.258946 0.13576047 0.00012209034
-0.19799706 -0.20602345 -0.16976139 0.098743886 -0.368696 0.09319357 0.16658507 -0.20741656
0.10798388 -0.44259688 0.21076496 -0.08208595 -0.08197504 -0.1368941 0.0051374855 -0.013500004
0.08860631 0.3636011 0.38328165 0.047906447 0.1946898 -0.3034884 -0.024378479 0.2565908
0.45259863 0.4686374 -0.012911274 0.23411451 -0.041807614 0.016281871 0.07288598 -0.007971062
-0.14736123 -0.035888985 -0.23231097 0.30753547 -0.103825204 0.0838503 -0.41159883 0.2718838
0.4281182 0.38583994 -0.027767252 0.0925287 -0.07733376 -0.11041739 0.0149866585 0.011979179
0.031514447 -0.041832283 -0.100553244 0.21845269 -0.042259052 -0.023256257 -0.3950123 0.219712
0.449422 0.21259028 -0.0027991636 -0.34388146 0.060811967 -0.18460901 0.032149795 0.0461409
-0.17642441 -0.21140371 -0.11700689 0.06496747 -0.31937656 0.01888021 0.23134302 -0.23609382
0.1370105 -0.3853709 0.26829943 -0.04543377 -0.22127901 0.21576788 0.017772213 0.07702911
0.049373873 0.16373222 0.35701627 0.3001425 0.10672019 -0.2835458 -0.19724979 0.23252836
0.44742978 -0.14959297 -0.1944191 -0.27722397 -0.06580899 -0.3590036 0.13242795 -0.24807405
-0.26253325 -0.09081657 0.10722594 -0.14923988 0.23185454 0.17124344 0.195743 0.04775363
0.25604454 0.23372045 0.14057788 -0.08281255 -0.2543182 0.060493905 -0.023767795 -0.02547196
-0.32904616 -0.24607833 0.2685869 -0.2554358 0.11932628 0.39946607 0.24322076 -0.100679144
0.10653268 0.34516308 0.020127464 -0.096339606 0.019802345 -0.1617015 0.21139717 -0.16954583
-0.027223082 0.011006217 0.03424084 0.15307769 -0.09436405 -0.08777136 -0.24197984 0.3711778
-0.21581283 0.03140673 -0.06597393 0.044104517 0.19829519 0.048160374 -0.05690718 0.113675684
-0.09773666 -0.00074013765 -0.2099234 0.23352076 -0.12556095 -0.0143492995 -0.53959334 0.16040727
-0.47857642 -0.19571544 -0.085831515 -0.068110004 0.2657354 -0.04699245 0.09277217 0.004732931
0.008225652 -0.30585155 -0.46820182 0.21858819 0.004916999 0.09150058 0.14142963 -0.058154855
0.044232838 -0.28098685 -0.36580032 0.23239245 -0.17122653 0.036143463 -0.02871499 0.08655646
-0.0016590366 -0.2568816 -0.24004373 0.064852834 -0.07162492 0.07193195 0.33244154 -0.21829201
-0.43529606 -0.24068874 -0.1672842 0.05802655 0.21992649 -0.0378997 -0.019248584 0.10213868
0.050962362 -0.24811032 -0.30420804 0.23485881 -0.047213264 -0.034185372 0.029932475 -0.14831962
0.31770176 0.29432228 -0.059943322 0.07800138 0.13425574 -0.14698946 -0.08695173 0.19915047
0.1713263 -0.23174031 -0.067535564 0.25317836 -0.0835854 0.058171414 -0.4616178 0.03982811
0.16311572 -0.2627401 -0.25568178 0.15414503 0.113384366 -0.13483071 -0.15993561 0.06689547
0.23399828 -0.13829668 -0.011471033 0.25645295 0.08761186 -0.14306048 -0.30175677 -0.2216802

linear_stack.0.bias f4 [16]
00000000: e6d7 b9bd 0f32 d4be 6e51 a7be 2611 4fbe
00000010: f2ca 00be abac 9dbe dc26 98be fca3 ffbe
00000020: 1556 41be afea 86be 3400 2fbe 20d5 a7be
00000030: cdbb 29be 7ca0 86be 43c6 71be d56e d9bd
-0.090743825 -0.41444442 -0.32679313 -0.20221385 -0.12577417 -0.30795798 -0.29717147 -0.49929798
-0.18880494 -0.26350924 -0.17089921 -0.3277979 -0.16575547 -0.26294315 -0.23610787 -0.10616843

linear_stack.3.weight f4 [8, 16]
00000000: bb61 b5bd d96a b9be b13b 5bbe 7b05 b63e
00000010: 00de 943e 6a78 d1be 0283 07be 5899 78be
00000020: 9df9 acbe d360 c03e 984f ea3d 82fb db3d
00000030: 013f 063d fb08 ce3e 83b7 b93e 39a0 43be
00000040: 56d6 79bd 4975 dbbe 8c14 82be 461c d33e
00000050: 8bf2 413e 35f5 11bf 9a2f b7bd 8ad6 84be
00000060: c3d3 93be 9592 ba3e 2636 953e 4f2e 8e3e
00000070: 1c27 3b3d d419 723e 646b 4e3d b265 bbbd
00000080: e249 513a 0d42 8fbd 7121 2bbe ed01 0b3d
00000090: 6ad1 2bbc 68c0 87be e587 68be a92f 10be
000000a0: 309c 823c d5b8 8e3d 1a31 88bd cd3f 26be
000000b0: 3964 853e c294 e4bc b530 ffbc 71bf 1d3e
000000c0: 7fb5 3e3e d84a 753e deed fa3e 24ae 36be
000000d0: 7b98 92be 2e86 5d3e 9519 9c3e 7167 5f3e
000000e0: 8c93 2a3e d5eb 0cbe 6a61 65be f9eb 81be
000000f0: b42e 12bc c340 29be 0431 3ebe beae c9bd
00000100: effd f53d 548a d43e 83f0 b43e 5187 c3be
00000110: 1c1c 57be d6e0 f4bc c930 ce3e c5e3 6e3e
00000120: 173c 503e 5131 f1bd 6444 6cbe 49e2 82be
00000130: eb50 bbbd e24d 43be a3ca 3cbe f284 82bd
00000140: ceec a03d af79 c13e a96d da3e b005 84be
00000150: 199a 5cbe 351b 5c3e 436d be3e 6d97 a13e
00000160: ff12 8d3e 7545 47be dcff 7bbe 77d0 6ebe
00000170: 7db6 9fbd a41f 86be 7477 9abe 9a0e 5bbe
00000180: 7cf3 ac3d ee08 913e 99a5 b63e 7ebe c5be
00000190: 0d05 acbe 4ea0 de3d 929f a83e 2960 0e3e
000001a0: e237 4a3e 4b84 3cbe 59d2 89be b0e4 6fbe
000001b0: a115 4bbe 3339 8ebe 2a3f 57be 0994 24be
000001c0: ca21 3bbe 7352 e2be c68f 81be c081 ad3e
000001d0: 0a3a 4a3e 66ed cabe e5f2 dabd 6689 b0be
000001e0: ba9d a6be d548 cc3e 4b02 623e b4dc 7c3e
000001f0: c36e 033d 623e 8b3e 76ff bf3d c0f8 9bbd
-0.08856531 -0.3621433 -0.21409489 0.35551056 0.29075623 -0.4091218 -0.1323357 -0.24277246
-0.3378419 0.3757387 0.114409626 0.10741331 0.03277493 0.40241227 0.3627282 -0.19104089
-0.060995422 -0.4286292 -0.254063 0.41232508 0.18940179 -0.5701478 -0.08944626 -0.2594493
-0.288725 0.36439958 0.29142874 0.27769706 0.045691594 0.23642665 0.050395384 -0.09150256
0.00079837267 -0.0699502 -0.16711976 0.033937383 -0.01048694 -0.26513982 -0.2270809 -0.14080681
0.015943617 0.06968848 -0.066499904 -0.16235276 0.26053026 -0.027902965 -0.031151155 0.1540506
0.18623923 0.23954332 0.49009603 -0.17839867 -0.28631958 0.21633217 0.30488268 0.21816804
0.16657847 -0.13761838 -0.22400442 -0.25375345 -0.008922268 -0.16528611 -0.18573385 -0.098477826
0.120113246 0.41511786 0.35339746 -0.38189176 -0.21006817 -0.029892366 0.40271595 0.23329075
0.20335422 -0.117769845 -0.23072964 -0.25563267 -0.09146293 -0.19072679 -0.18436675 -0.063730136
0.07857667 0.3778815 0.4266179 -0.2578559 -0.21543159 0.21494754 0.37192735 0.3156084
0.27553555 -0.1946009 -0.24609321 -0.2332171 -0.07798479 -0.26196015 -0.3016926 -0.21392289
0.084448785 0.28327125 0.35673216 -0.38621897 -0.33597603 0.108704194 0.32934242 0.1390387
0.1974788 -0.18409841 -0.26918295 -0.23427081 -0.1983247 -0.27778015 -0.21020189 -0.16072096
-0.18274608 -0.4420353 -0.25305003 0.33888054 0.19748703 -0.39634246 -0.1069086 -0.34479827
-0.3254221 0.39899316 0.22071187 0.24693567 0.032088052 0.27196032 0.09374897 -0.07615805

linear_stack.3.bias f4 [8]
00000000: 2973 623d 664f 8838 a5e7 19bd 7e30 453d
00000010: ce0a 673d 5d3c 833d 90a8 673d 4326 ca36
0.055285607 6.4997745e-05 -0.03757443 0.04814195 0.05640679 0.06407998 0.056557238 6.0245234e-06

linear_stack.6.weight f4 [8, 8]
00000000: 676f 853e bb83 db3e e226 9a3c 2d1a e3be
00000010: 11db d9be cc18 8dbe ad02 5fbe 6db7 0a3f
00000020: de5d 583e 5432 ac3e ffd8 893c 0ef1 adbe
00000030: c4e9 9fbe 8d78 78be fa2b 8dbe fc94 df3e
00000040: bf81 42be 3945 4dbe 7ca5 97be 917f fc3e
00000050: 37f3 0b3f a299 c53e 94ed 973e 2d0b 57be
00000060: de2d a13e c21b 7d3e 5f3a a5bc 1549 f6be
00000070: 95b7 e6be de59 00bf d5aa fcbe eb5f 303e
00000080: dbed 85be 1331 abbe b6e3 48be f0d7 e73e
00000090: c079 1a3f 8e9c 843e 751e f43e 6293 48be
000000a0: 90d4 6b3e 9f75 7d3e a72b abbe 5cfa 44be
000000b0: 461e ffbb 008f 803d 9dd2 21be 0b6c f7bd
000000c0: d51a 8ebe 4877 9ebe 5597 e73d b1be 6c3e
000000d0: 157b 783e 2f4c 873e 37f0 053f a8a9 06be
000000e0: f746 7a3e d45b 9f3e 5b4f babc b15f d2be
000000f0: 0ba3 0bbf 6905 24bf 254d 26bf 61e1 bd3e
0.26061556 0.4287394 0.018817369 -0.44355908 -0.42549947 -0.2755798 -0.21778364 0.54186136
0.21129557 0.33632147 0.016827105 -0.33972973 -0.31233037 -0.24264736 -0.27572614 0.43668354
-0.18994807 -0.20045938 -0.29618442 0.49316075 0.5466799 0.38593775 0.29673445 -0.21000357
0.31480306 0.2471762 -0.020169435 -0.48102632 -0.45061937 -0.50137126 -0.49349084 0.1722409
-0.26158032 -0.33435878 -0.19618115 0.45281935 0.60342026 0.25900692 0.47679487 -0.19587472
0.23030305 0.247519 -0.33431742 -0.1923613 -0.0077855913 0.06277275 -0.15802999 -0.120811544
-0.27754846 -0.3095038 0.11308161 0.23119618 0.24265702 0.2642531 0.52319664 -0.13150656
0.24441133 0.31124747 -0.022742918 -0.41088632 -0.5454566 -0.64070755 -0.64961463 0.37086013

linear_stack.6.bias f4 [8]
00000000: 22e3 b93d 21ff 9c3d 432a 573c 69a2 db3d
00000010: 5826 e93c 069b 29be bce2 b5bb 8bd5 293e
0.09076525 0.076658495 0.013132635 0.10724337 0.028460667 -0.16563043 -0.0055507105 0.16585366

linear_stack.9.weight f4 [8, 8]
00000000: 5aee 933e 105b 3f3e 351b 8ebe 5383 a53e
00000010: 1967 eebe 17fc cbbd fb1b 15bf 33f1 3e3e
00000020: c7c3 913e a55a 763e 2aa1 7cbe a81f b03e
00000030: a2b8 89be 0c2b 3cbc 7234 08bf 3e75 653e
00000040: 9916 8bbe df39 c0be e035 cd3e 75d1 82be
00000050: 74d2 a53e 6f70 0fbe ad9d 0d3f 157c 18be
00000060: 181b 6c3e 642c b93e af82 ecbe 80fc 4b3d
00000070: 22b7 d2be 0ca3 893e a2c7 02bf 2b99 933e
00000080: 8dc0 17bc cbcc 1abe 4001 94bc 9137 45be
00000090: 7db2 dcbe 0672 c23e b48b 8bbd 9d4f 213f
000000a0: 68b3 7ebe 5402 b3be 917d a33e 09df cbbe
000000b0: 22ba a23e f695 14be 3f4d f43e 056e 75be
000000c0: a732 be3d 4ddd d53e 2a89 8bbe 4795 913e
000000d0: 59f7 9bbe 3ab8 1c3d 681f cfbe 2535 303e
000000e0: 8be3 9c3e 678a 883e 75e0 d5be 007f e93e
000000f0: 7c59 d9be 6ccf a13e a8d4 30bf 3665 3cbe
0.28892785 0.18687081 -0.27755132 0.32326755 -0.46563032 -0.09960192 -0.5824582 0.18646698
0.2846968 0.24058016 -0.24670854 0.34399152 -0.26898676 -0.011484873 -0.53205025 0.22408006
-0.27165678 -0.37544152 0.40080166 -0.25550428 0.32387125 -0.14007734 0.5531872 -0.14891084
0.2305721 0.3616668 -0.46193454 0.04980135 -0.41155344 0.26882207 -0.51085865 0.28827795
-0.009262216 -0.15117185 -0.018067002 -0.19259478 -0.43104926 0.37977618 -0.06813756 0.63012105
-0.24873126 -0.34962714 0.31931737 -0.398186 0.31782633 -0.1451033 0.47715184 -0.2396775
0.09287005 0.41770402 -0.27253085 0.28434202 -0.3046215 0.03826163 -0.4045365 0.17207773
0.30642352 0.26668093 -0.4177281 0.45604706 -0.42451084 0.31603563 -0.6907449 -0.18397984

linear_stack.9.bias f4 [8]
00000000: fb7e 023e 9e1f f13d 664a d63d d8e6 263e
00000010: 10cf 82bd 70cd ed3d 3db2 103e 694d 5f3e
0.12743752 0.117736086 0.10463409 0.16298997 -0.0638715 0.1161145 0.14130493 0.21806873

linear_stack.12.weight f4 [2, 8]
00000000: 42dd 81be f766 94be 573c 103f edc7 eebe
00000010: 2712 abbe 9217 123f f7fd 86be 57d7 84be
00000020: ff1b 853e 8977 0c3e 247d 36be 22e6 0d3e
00000030: d359 f23e cf1f 8bbe 305a 953e 3ed1 753e
-0.2536412 -0.28984806 0.5634207 -0.46636906 -0.33412287 0.57067215 -0.26365635 -0.2594554
0.25997922 0.13717474 -0.17821175 0.1385732 0.47334155 -0.27172706 0.2917037 0.24005601

linear_stack.12.bias f4 [2]
00000000: 1513 d3bd 8359 41be
-0.10306374 -0.18881802
