models/model_pa_c2_s0.1_b16_lr0.001_d0.5_e40.pth (torch, 6143 bytes, 10 tensors)

linear_stack.0.weight f4 [16, 16]
000000 5f 23 ca 3d 5e fa 0d 3f 4b f4 a9 3d 64 24 d6 bc
       0.09870028 0.55460155 0.08298548 -0.0261404
000010 ef 6b 0b be 69 19 51 be 99 a5 07 3e fd b7 bd bd
       -0.13615392 -0.2041985 0.13246764 -0.092636086
000020 eb 40 f3 bc fd 1e 8f 3b 1a 7e 92 b9 8e f7 04 be
       -0.029694041 0.0043677078 -0.00027941243 -0.1298506
000030 f8 6f 00 3e 03 81 11 bd bf 95 c3 3e 83 d8 db bd
       0.12542713 -0.035523426 0.38200185 -0.10734656
000040 95 6c 32 3c a4 12 9b 3e 5e 62 a1 3a c1 6d 26 be
       0.010890146 0.3028766 0.0012312641 -0.16252805
000050 cf 31 56 3e c3 b8 4f be e1 b8 f0 3d b8 76 a7 3c
       0.20917438 -0.20285325 0.11754013 0.020442352
000060 51 de d3 bd fb c4 51 be a7 d8 3a be 2a f7 11 3e
       -0.10345138 -0.20485298 -0.18246709 0.14254442
000070 be e7 89 bd ce c4 9a bd 93 2a 2a 3e ba 0d 81 bb
       -0.067336544 -0.07557069 0.16617803 -0.003938404
000080 ae 55 28 3e 88 b8 6e be 5d a7 88 3d b6 8b 40 bc
       0.16438934 -0.2331258 0.06672547 -0.01175206
000090 2d e0 0d 3b f5 a9 67 be 2e b3 f5 3d cb 5c f0 3d
       0.0021648512 -0.22623427 0.119970664 0.11736449
0000a0 35 7f c0 bb 04 b5 38 3e ca b4 b4 3d 0f 79 ab bd
       -0.0058745393 0.18037802 0.08823545 -0.083726995
0000b0 28 48 aa 3d d3 bc e4 bd 94 5e 1a 3d 5a 04 59 bc
       0.08314544 -0.11168828 0.037687853 -0.013245666
0000c0 d7 d6 f7 3e b3 ac a9 3e f1 e9 ae bd cd 0e 3a 3e
       0.48406097 0.33139572 -0.085407145 0.18169709
0000d0 b4 a0 05 be 0a b7 24 3d b2 18 d5 3c 62 c3 57 3c
       -0.13049585 0.040213622 0.026012752 0.0131691415
0000e0 a5 11 2c bb 35 f0 55 bd 45 7e 3a 3e bd b1 c5 3e
       -0.0026255634 -0.052231032 0.1821223 0.38612166
0000f0 ca 96 c7 3d 2a 39 02 3e ff 75 59 3e 57 3b 65 bd
       0.097455576 0.12717119 0.21236418 -0.055964794
000100 10 97 21 3e 88 6c 4d 3e ef 0c da 3d 29 bc 23 bd
       0.15780282 0.20060933 0.10646998 -0.039974365
000110 c8 3c a5 be 4e b6 a7 3d 8a 6e 55 3c f5 ee c4 3d
       -0.32272935 0.08189069 0.013026843 0.0961589
000120 ad 90 50 bd cb a9 48 be d8 5a f9 bd 0e 59 67 be
       -0.050919224 -0.19596021 -0.1217553 -0.22592565
000130 eb 09 10 3e 69 92 d0 3d 22 26 2e be a7 42 c6 3c
       0.14066283 0.101841755 -0.17006734 0.024201704
000140 bf e8 09 3e 70 de 0e 3f e7 fe a1 3d ee 3a 11 bd
       0.13467692 0.5580816 0.07909947 -0.03545659
000150 e7 61 a7 3e 6a 60 8c 3c 5a 1c 32 be bb 36 b4 bd
       0.3269188 0.017135818 -0.17393628 -0.087995015
000160 44 14 b5 3d 0f 16 e9 bd 33 65 73 be ee 1c e6 bd
       0.08841756 -0.113811605 -0.23769073 -0.11235987
000170 bd 23 11 be 36 c5 e4 bd 82 01 80 3e 41 e5 28 be
       -0.1417379 -0.111704275 0.2500115 -0.16493703
000180 e4 ba 54 3d b4 6a 36 bc 59 0d df 3d 03 66 ea 3d
       0.051936045 -0.011133838 0.10891218 0.114452384
000190 24 f2 2d bb 6f 78 8d 3e f0 f6 08 be 5a 82 28 3d
       -0.0026542032 0.27630946 -0.13375449 0.041139938
0001a0 5a 95 6b bb 52 6a b5 3d e2 c7 60 3e 85 36 f3 3e
       -0.0035947175 0.088581696 0.21951249 0.47502533
0001b0 5f cd fc 3c a5 3a 04 be dc 42 eb bd c1 18 77 3d
       0.030859647 -0.12912996 -0.11487362 0.06032634
0001c0 9a 0b 44 3e 58 e2 76 bd de 78 ed bd ad 7d 7b be
       0.1914505 -0.060274452 -0.11595319 -0.2455966
0001d0 23 60 17 be ed b5 30 be f5 e3 d8 3d 06 b6 5f be
       -0.14782767 -0.17256899 0.10590354 -0.2184678
0001e0 bf 02 0a be 0a e5 b1 be b0 bc d8 bd f6 76 00 bd
       -0.1347761 -0.34745055 -0.10582864 -0.03136345
0001f0 4e 4f 22 bb 73 b9 90 bd b0 b2 b2 3e 61 6e 1b 3d
       -0.0024766508 -0.07066622 0.34901953 0.037947062
000200 99 00 9e 3e 90 04 ed 3e a9 21 dd bd 08 25 0b 3e
       0.3085983 0.46292543 -0.10797436 0.13588345
000210 b8 25 d2 bc 1c 87 bc 3d 2a ec 0a 3e 88 af a0 bd
       -0.025652751 0.092054576 0.13566652 -0.0784598
000220 04 90 9d 3c 87 2e 06 be 2b 8f 4a 3c 5b 9a 01 be
       0.019233711 -0.13103686 0.0123632355 -0.12656538
000230 a7 1b 14 3e 10 18 74 3e f6 da 9e 3e 55 41 3c be
       0.14463674 0.23837304 0.3102643 -0.18384297
000240 05 0e 4e 3e 0f 50 bf 3e 5a 3f 01 be e7 4d c0 bd
       0.20122536 0.37365767 -0.12621823 -0.09389859
000250 f5 fb 18 3d ee 8d 21 be d9 5e 27 3e 70 fb 11 3b
       0.03734966 -0.15776798 0.16344775 0.0022275113
000260 2f 48 4c 3e b9 73 fc bc 85 6d 9c 3d 5d 60 3a bd
       0.19949411 -0.0308169 0.07638077 -0.045502055
000270 b7 6b 98 bb e9 e1 ef 3d 75 ec d4 3d 07 68 9f 3d
       -0.0046515125 0.11713011 0.10396663 0.077835135
000280 e0 4a 02 bd 7f 02 50 be 34 2c 11 3e 70 8d 42 3d
       -0.031809688 -0.20313452 0.14177018 0.047498167
000290 5e d2 0d 3e e0 c8 66 3e b2 6b 56 3c b6 60 94 bc
       0.1384978 0.22537565 0.0130872 -0.018112522
0002a0 bb cc 99 bc 83 3c 43 3e 60 ca cc 3d cd e6 ca 3e
       -0.01877438 0.19066052 0.099995375 0.39629212
0002b0 85 d0 81 bd 64 88 4d be e7 ae 73 bd d7 9d b0 bd
       -0.063386 -0.2007156 -0.05949297 -0.086238556
0002c0 16 18 61 3b 06 4c ce 3e f0 79 9f bd 25 d3 1b be
       0.0034346632 0.40292376 -0.077869296 -0.15217264
0002d0 64 f0 74 3e a8 e1 60 be 09 d7 31 3e dd c9 5e 3d
       0.23919827 -0.21961081 0.17367186 0.05439173
0002e0 25 6a 61 3e bc a8 69 bd d5 38 c5 be 7a cb c3 3d
       0.22013147 -0.057045683 -0.38519922 0.095602944
0002f0 50 ed 0a be 8b cb 62 3d 39 b9 ae 3e 7e 08 62 be
       -0.1356709 0.055369895 0.3412569 -0.22073552
000300 8a cd b7 3d e6 15 74 be ab 08 77 be f4 ae 6e 3e
       0.0897475 -0.23836479 -0.241244 0.23308927
000310 cc d6 24 be f7 eb 02 be b1 42 02 be f1 66 3b 3e
       -0.16097564 -0.12785326 -0.12720753 0.18300988
000320 de 84 a9 3d 62 c4 1d bd 79 c0 47 39 f5 46 8e bd
       0.082772955 -0.038517363 0.0001904982 -0.06947128
000330 5b a9 ad bd 9f df 1f 3c ff 97 68 3d ec bb 9e be
       -0.084795676 0.009757905 0.05678558 -0.31002748
000340 19 0e 31 3d 9e b4 dc bd 42 c6 16 3c 11 87 f0 bd
       0.043226335 -0.107766375 0.009202542 -0.11744512
000350 4c 66 0c bd cd 06 e5 3d a3 dd 2f be 0e b5 c2 bd
       -0.034277245 0.11182938 -0.17174391 -0.0950719
000360 a3 a7 b2 3e 1f ac 7f 3d 08 dc 04 3e 23 db db 3e
       0.34893522 0.062420007 0.1297456 0.42940626
000370 49 3d 88 3d e4 84 b6 be 01 eb 0c 3e 77 01 8e bd
       0.06652314 -0.35648263 0.13761522 -0.06933873
000380 02 da db 3a 93 b7 60 3d ef 9a 75 bd d9 03 97 bd
       0.0016773345 0.05486257 -0.05996221 -0.07373781
000390 d5 75 67 bc 96 34 65 be 70 0d fa bd cf bc 3d 3e
       -0.014127214 -0.22383341 -0.12209594 0.18529056
0003a0 d8 3e 9a 3d a7 a8 c1 3c 33 a8 01 3e bd 58 61 bc
       0.07531518 0.02363999 0.12661819 -0.013754067
0003b0 c5 64 8f bd 17 b8 87 3e e3 c8 47 be 98 7d 50 be
       -0.07001642 0.26507637 -0.19510226 -0.2036041
0003c0 81 40 9e bd c9 b9 d1 be 17 81 6f be 1e 13 c5 3d
       -0.07727147 -0.40962055 -0.23389088 0.09622787
0003d0 13 d2 5f 3d 4a c9 24 be 78 21 f2 3b 53 df 89 3d
       0.0546437 -0.1609241 0.0073892437 0.06732049
0003e0 63 78 1a 3e 76 f3 56 be bd fd df bc a6 ac 93 3d
       0.15084986 -0.2099131 -0.027342672 0.072106645
0003f0 4d ed 26 3e 07 72 50 bc c6 32 82 be a1 2c 0f 3d
       0.1630146 -0.012722499 -0.25429362 0.03495467

linear_stack.0.bias f4 [16]
000000 40 6e 30 3c 52 93 08 be 4c 02 bb 3d 22 4d ae bd
       0.010768473 -0.13337448 0.091312975 -0.08510806
000010 c8 02 09 3e 40 b8 b0 be a8 63 0c be 46 cf 68 be
       0.13379967 -0.34515572 -0.13709891 -0.22735319
000020 0c b3 71 3d e4 a0 27 be cb d3 8f be 15 73 b0 be
       0.059008643 -0.16369969 -0.28091273 -0.344628
000030 db 23 71 3d 62 e4 a1 be 96 11 91 bd fc f0 62 3e
       0.058872085 -0.31619555 -0.070834324 0.2216224

linear_stack.3.weight f4 [8, 16]
000000 ba 60 d2 3e c5 ea 89 3e ec 3b 8a 3b e5 84 78 3e
       0.41089422 0.26936927 0.004218569 0.24269445
000010 de 01 19 be 0b 0d a3 bd c9 01 11 3d fd f9 ca bd
       -0.14942119 -0.07961472 0.035402093 -0.09910963
000020 d2 2c d7 3d a6 75 4c 3d 02 7d 00 bc e8 f1 10 3e
       0.10506596 0.049916886 -0.007842304 0.1415478
000030 e4 13 53 be 91 71 e2 3e cd 00 1c bd 37 cd 52 be
       -0.20613056 0.4422727 -0.0380867 -0.20586096
000040 6c 4d 7d 3e d6 6c 52 3d 39 02 bb 3c bf 7d 3d 3e
       0.24736565 0.051373325 0.022828208 0.18505
000050 88 d2 c9 be 50 4d 8e 3e a8 15 2c 3e da ab c5 be
       -0.39418435 0.2779336 0.16805136 -0.38607675
000060 9c 47 70 3e 90 77 11 3e a8 d9 a4 3e 43 73 0f 3f
       0.23464817 0.14205766 0.3219731 0.5603525
000070 99 2c b0 3d 2f 62 a2 3e 37 1a e6 bd 26 4f 48 3d
       0.08602256 0.31715533 -0.11235469 0.048903607
000080 9a 23 00 bd fb e9 f6 bc ce 23 46 bd 59 4e 30 be
       -0.031283952 -0.030140867 -0.04837399 -0.17217387
000090 9c a1 9e be 69 f8 d5 bd 5b 30 70 be 5f a3 21 be
       -0.30982673 -0.10447771 -0.23455946 -0.15784977
0000a0 f0 14 63 bd 65 f1 80 3c d5 25 14 be 30 ef 7e be
       -0.05543989 0.015740106 -0.14467557 -0.2489593
0000b0 01 41 ec 3d e0 57 32 be 2d 28 d2 bd d7 be 18 3e
       0.11535836 -0.17416334 -0.10261569 0.1491655
0000c0 c2 82 ad 3e f9 8e b6 3d 59 58 41 bd 6d 35 7d 3e
       0.33888823 0.089139886 -0.047203396 0.24727412
0000d0 63 ae 11 bd 57 be c1 3e 81 45 f8 bd 5b eb a7 3d
       -0.0355667 0.3784053 -0.12122632 0.08199187
0000e0 af ab 4b 39 2f 5d 95 3e 69 47 15 be c6 e6 20 3e
       0.00019423546 0.29172656 -0.14578022 0.15713033
0000f0 8e 15 97 b9 53 74 42 3e f0 40 80 bc 81 08 21 be
       -0.00028817024 0.18989687 -0.015655965 -0.157259
000100 87 4b f1 3d 8b a6 96 bd 19 bf 02 be 66 92 6b be
       0.11781984 -0.07355984 -0.1276821 -0.23005065
000110 65 96 99 3d a0 f2 2b be 8a 43 7a 3e e6 b8 5f bd
       0.074993886 -0.16791773 0.24439827 -0.054619692
000120 33 b1 b6 bd 0b 15 1e be c0 cb 86 bd e7 19 1d be
       -0.08920517 -0.15437715 -0.06581831 -0.15341912
000130 4a 45 3e be 77 9b 51 3e 43 5a e9 3c 4d 92 04 be
       -0.18581119 0.20469461 0.028485423 -0.12946434
000140 6c a6 83 bd e3 0e 3e 3e c1 63 90 be b3 aa 13 be
       -0.06428227 0.18560366 -0.28201106 -0.14420585
000150 e6 b2 8d 3d bd 8c 4a 3e 50 5f 32 3e d2 ff 74 3e
       0.06918888 0.1978025 0.17419171 0.23925713
000160 a5 86 5b 3d 8e 46 4e 3d 9e 4e 69 3d cc 35 c1 bd
       0.053595204 0.050360255 0.05695974 -0.09434089
000170 27 45 28 bd e5 e5 56 be 76 fb 5b be 7c 7f 8a be
       -0.041081574 -0.20986135 -0.21482643 -0.27050388
000180 5c d5 1b be 47 cd 44 3a d5 da 01 3d a9 1c 81 be
       -0.15218109 0.00075073953 0.031702835 -0.25217178
000190 25 f7 2b bd cc 80 36 be 68 02 f3 bd 58 10 93 bd
       -0.041983742 -0.1782257 -0.11865693 -0.07180852
0001a0 db 03 9c be df 89 3b be 28 d9 5c be af 28 2e be
       -0.3047169 -0.18314312 -0.21567214 -0.17007707
0001b0 44 a7 c6 bc 8e 97 46 be 9a fc 11 3e f0 82 68 3d
       -0.02424968 -0.19393751 0.14256516 0.056765497
0001c0 6a 4b fc 3d 4a f1 fb 3d 27 ec 00 bb e6 a9 62 3e
       0.123190716 0.123018816 -0.0019672008 0.22135124
0001d0 27 52 f0 bd da f5 03 3f 7e b9 48 3e c3 5f 20 be
       -0.11734419 0.51547015 0.1960201 -0.1566153
0001e0 ac 3f 2e 3e 92 12 89 3e 91 8a 4f 3e 75 0a 01 3f
       0.17016476 0.2677198 0.20267703 0.5040658
0001f0 87 56 a0 bc 93 81 49 3e 32 18 70 bd 08 18 c2 bd
       -0.01957251 0.19678335 -0.058616824 -0.0947724

linear_stack.3.bias f4 [8]
000000 ae 95 26 39 f2 8b 2e be 48 5a 50 3e 1b 6e 83 bd
       0.00015886754 -0.17045572 0.2034694 -0.06417485
000010 a0 ba cc bd b8 56 0f 3e 4b 94 8e 3e 08 47 95 bc
       -0.099965334 0.13997924 0.27847514 -0.018222347

linear_stack.6.weight f4 [8, 8]
000000 63 9d 45 3e 8e 96 82 3e 2c d7 82 be ed 13 e3 bd
       0.1929832 0.2550549 -0.25554788 -0.11087785
000010 fb af 44 be 6d 06 9c 3e b4 87 ab bd f3 ee e6 3e
       -0.19207756 0.30473652 -0.08375493 0.4510418
000020 d0 30 ed 3d 42 15 9b 3e 00 d7 f1 bd f2 60 cf 3d
       0.11581576 0.30289656 -0.11808586 0.10125913
000030 83 0b 95 3e de 80 d8 3d bf ae ef bd 73 19 d5 3e
       0.29110345 0.105714545 -0.11703252 0.4162098
000040 0f 5d 10 be cb b7 2c be a2 aa f7 bc 09 70 51 be
       -0.14097999 -0.16866986 -0.030232731 -0.20452894
000050 3a 64 8d 3d 17 b9 03 3e d7 e0 e2 3e f2 84 6b be
       0.06903882 0.12863575 0.44312164 -0.22999933
000060 c8 23 a4 3e 31 70 c8 3e ee 73 32 be 1b 89 b7 3c
       0.3205855 0.39148095 -0.17427036 0.022404244
000070 a2 ec dd 3c dc 98 9d be 59 0c a8 be 07 4f 80 bd
       0.027090374 -0.30780685 -0.3282192 -0.06265073
000080 44 ed 29 be 5d a5 b1 be 5d 4c 59 3d 72 2e cc be
       -0.16594416 -0.34696475 0.05305134 -0.39879185
000090 9d c1 ed 3d 12 44 52 be cc 9f db 3e 6a 0e 48 be
       0.116091944 -0.2053378 0.42895353 -0.19536749
0000a0 3f f8 93 3e 46 ed 76 3e 0f 32 b5 be 41 75 b7 3d
       0.28900334 0.2411395 -0.35389754 0.08957911
0000b0 7b 9f c0 3e ab 2e b1 3e 03 c0 62 bd c2 96 5d bd
       0.37621674 0.34605917 -0.055358898 -0.054098852
0000c0 63 36 1d be 61 6e 8d be 6b 4c 8c 3e 00 22 ba be
       -0.15352778 -0.27623275 0.27402052 -0.36354065
0000d0 6e d2 28 be 43 57 06 be cc 40 bf 3e a7 5e 28 be
       -0.16486523 -0.13119225 0.37354124 -0.16442357
0000e0 d6 24 95 3c 17 6f 7b 3e e8 0e 21 bd 5a 1b 07 3f
       0.018206041 0.24554096 -0.039320856 0.5277611
0000f0 61 38 d9 3d 5f 63 67 be ab 95 e0 be 54 ad a1 3e
       0.106064565 -0.22596501 -0.43864188 0.3157755

linear_stack.6.bias f4 [8]
000000 62 9a cd 3b 3b 6e fa 3b 00 e1 68 3e b6 2d 66 ba
       0.0062745074 0.007642535 0.2274208 -0.0008780615
000010 90 87 5a 3e 05 b4 83 bd 8f 11 20 3e 16 b6 0d 3e
       0.21340775 -0.064308204 0.15631698 0.13838992

linear_stack.9.weight f4 [8, 8]
000000 9b d9 59 3e dd fc 02 3e 4c 78 d0 bd 11 8b c0 3e
       0.21274416 0.12791772 -0.10179195 0.376061
000010 32 73 9f be 7c ba be bd b8 49 e9 be 7b 47 1c 3e
       -0.31142575 -0.09312913 -0.45564055 0.15261643
000020 aa 74 57 3e 50 d6 44 3e d9 0d c4 bd f8 b4 46 3e
       0.21040598 0.19222379 -0.09572954 0.19404972
000030 17 ea 08 bd 20 57 e0 3d 31 be a1 be 94 6e 9e 3e
       -0.03342637 0.10954118 -0.31590417 0.3094374
000040 8d d2 19 be 2a 44 a7 be 82 94 9f 3e f5 8a b7 bd
       -0.15021725 -0.32669193 0.3116799 -0.08962051
000050 df bf 84 3e 1e 45 8e be be e6 fd 3e b6 1f 00 bd
       0.25927636 -0.27787107 0.49590105 -0.031280242
000060 a7 9e 06 3e b6 30 77 3d 12 d8 b1 be 2b 90 9e be
       0.13146459 0.06034919 -0.3473516 -0.30969366
000070 93 10 85 be b4 cc e0 3e 75 63 77 be 49 9b 86 3e
       -0.25989208 0.43906176 -0.24159034 0.26290348
000080 fd 21 53 bd e2 71 a7 bd 2e e3 49 3e 3a a6 71 be
       -0.051546086 -0.08176018 0.19715568 -0.23598567
000090 21 ae 36 be 34 20 b3 3e 1b 2a 12 be a5 d7 d0 3e
       -0.17839862 0.34985507 -0.14273874 0.40789524
0000a0 cb 30 42 bd c3 2a 8f be 6b 69 5d 3e cd 16 f9 bd
       -0.047409814 -0.27962312 0.21622245 -0.12162552
0000b0 ee b4 84 3e 35 a7 9c be 62 41 c1 3e ea 53 8f bd
       0.25919288 -0.3059632 0.37745196 -0.06998427
0000c0 91 5b e7 3c a7 8f e3 3e d6 76 79 bd 1e 15 0e 3e
       0.028241904 0.44445536 -0.060904346 0.13875243
0000d0 5a 10 41 be a3 75 eb 3c a1 44 94 be 60 24 23 3e
       -0.18853894 0.028742617 -0.2895861 0.15931845
0000e0 56 08 26 3e 45 7d b6 3d bc ee 8b be 48 8d ff 3e
       0.16214117 0.08910612 -0.27330577 0.49912477
0000f0 94 58 81 be e2 39 b4 3e 50 dd c6 be 59 a6 b8 be
       -0.25262892 0.3520041 -0.38840723 -0.36064413

linear_stack.9.bias f4 [8]
000000 9a bd ab 3d ee f7 c3 bc 1e 08 85 3d 30 1d ca 3d
       0.08385773 -0.023921933 0.06495689 0.09868848
000010 e2 27 52 be 3e ea 52 3d cf 96 a7 3d cd 9b 46 3e
       -0.20523027 0.051492922 0.08183061 0.19395371

linear_stack.12.weight f4 [2, 8]
000000 08 b1 44 be d3 e8 88 be 93 30 c9 3e e2 7b d5 be
       -0.19208157 -0.2674013 0.39294872 -0.41696078
000010 0f 7e 0d be 1e ee c8 3e de 57 57 be 80 dc 5d be
       -0.13817619 0.3924417 -0.21029612 -0.21666145
000020 8e 2e 4b 3e 00 f6 ea 3d 66 96 fd bb 58 9c b6 3d
       0.19841978 0.11472702 -0.007738876 0.08916539
000030 c2 06 8e 3e 54 7a bf bd 54 10 74 3e e4 fe 49 3e
       0.2773953 -0.09349504 0.23834354 0.1972614

linear_stack.12.bias f4 [2]
000000 d0 2a 94 bc ef 2e 8c be
       -0.01808682 -0.27379557
