models/model_yt_c2_s0.1_b16_lr0.001_d0.5_e90.pth (torch, 6143 bytes, 10 tensors)

linear_stack.0.weight f4 [16, 16]
-0.40586546 0.12328802 0.0038985757 0.07996828 -0.09522152 -0.041414212 0.19258465 0.06918024
0.056528162 0.30417117 0.03578824 0.22094025 -0.26291105 0.026660424 0.18133631 -0.0646336
0.03992858 0.19990341 -0.087086104 -0.16606255 0.17365412 -0.13896535 -0.010326719 -0.038977407
0.07713041 -0.42289296 -0.37566182 0.014475823 0.06401526 0.13572758 0.03922755 0.045260496
0.064718366 -0.03181221 0.067401595 -0.23796217 -0.27618048 -0.07819398 0.011094137 -0.04482518
-0.06303663 0.29604927 0.09835337 0.12284483 -0.38606754 -0.19000562 -0.33721846 0.09034276
-0.16170393 -0.01183768 -0.21317479 0.27856264 -0.033117317 0.058191825 0.058002405 -0.041855793
-0.002553464 0.29745677 -0.0824896 0.4805933 -0.18733282 -0.021311617 0.18898426 -0.069394015
-0.0070074475 0.25206906 -0.068215065 0.13771147 9.878542e-05 -0.16496453 0.06255473 0.028349992
0.07161438 -0.43129057 -0.28284633 -0.21182868 0.16497901 0.1856115 -0.0483205 0.12723573
-0.034204762 0.27511856 0.008456988 -0.1384203 0.2391861 -0.068976104 -0.08895817 -0.04762082
0.2328497 -0.3940038 -0.3475622 -0.06630591 0.09298421 0.26648268 0.009494318 -0.06587085
-0.001745387 -0.14499709 0.22534338 0.057747815 0.0053894133 0.10123331 -0.16686337 -0.028921722
-0.21326892 0.072978966 -0.026539402 0.14460897 -0.102498 0.043872885 -0.32192218 0.18927357
0.07174663 -0.01683701 -0.25351834 -0.14611965 -0.058848813 -0.116313405 0.07372505 -0.099730484
0.06452792 -0.5783691 -0.21556921 -0.1758494 -0.07119364 0.11227566 0.0693327 0.08621811
-0.01668966 0.045044597 -0.115080394 0.08819302 -0.10312629 0.14385076 -0.057948727 -0.18729533
0.122605 -0.30366224 0.13574576 -0.17547344 0.21668866 0.13298374 -0.072905265 -0.07763225
0.15311502 -0.043424014 0.08655473 -0.0018789754 0.08664548 -0.055730928 0.117621414 -0.1636432
0.16302675 -0.16904536 0.042212024 0.066129714 0.08163251 0.05692184 -0.0729293 0.26515839
-0.29954952 0.014873515 -0.19681583 0.06551271 0.1939164 0.09662515 0.023076631 0.06444072
0.0030809434 0.37604675 -0.07203511 0.42186573 -0.2913245 -0.1703445 0.1397222 -0.16315973
-0.27664188 0.19335508 -0.23586312 -0.13092299 0.21798383 -0.109297566 0.017969076 0.07022055
0.1844711 0.0267752 -0.045295447 0.37746772 -0.3803573 0.04255801 0.0065251063 -0.03943417
0.14474255 -0.22345945 -0.23480022 0.43848708 0.053832345 -0.13026537 0.008427132 0.10022954
0.14686039 -0.24689138 -0.14368878 -0.08557455 0.17609955 -0.1830446 0.10436813 -0.16757523
-0.30754194 0.019576792 -0.31411693 -0.005844572 0.15968129 -0.11007871 -0.102946304 0.11612618
0.16340338 0.3805113 -0.028897949 0.3028449 -0.27489772 -0.3455518 0.10908201 -0.16930486
0.08456786 0.19730137 -0.05406901 0.0150583815 0.053715788 -0.15747441 -0.121659234 0.043033306
0.2392395 -0.48780274 -0.23243128 0.037250597 0.10810183 0.32659742 0.014424655 -0.066728175
0.28269762 -0.28104073 -0.028394857 0.2397394 0.17139308 -0.055157635 0.08860504 -0.01973009
0.25184664 -0.1378428 0.14698116 -0.10599382 -0.021679742 -0.22327904 -0.38311026 0.07293641
00000000: 99cd cfbe 6e7e fc3d 3f7f 7f3b 69c6 a33d
00000010: 8003 c3bd f3a1 29bd e934 453e 5fae 8d3d
00000020: 138a 673d 53bc 9b3e b196 123d 293e 623e
00000030: 479c 86be f666 da3c 3ab0 393e 9f5e 84bd
00000040: 278c 233d 7bb3 4c3e 335a b2bd 4d0c 2abe
00000050: 63d2 313e ef4c 0ebe 6631 29bc c6a6 1fbd
00000060: 8cf6 9d3d 6d85 d8be bf56 c0be 012c 6d3c
00000070: 6f1a 833d 2cfc 0a3e 11ad 203d 1263 393d
00000080: 108b 843d 854d 02bd d909 8a3d 5bac 73be
00000090: 8767 8dbe 2a24 a0bd 2fc4 353c 9c9a 37bd
000000a0: 5919 81bd c593 973e 7e6d c93d 1296 fb3d
000000b0: a5aa c5be d590 42be e6a7 acbe a005 b93d
000000c0: b795 25be d4f2 41bc 7e4a 5abe c39f 8e3e
000000d0: 06a6 07bd 8d5a 6e3d ee93 6d3d fb70 2bbd
000000e0: 0458 27bb 414c 983e 4ff0 a8bd 5310 f63e
000000f0: 2dd4 3fbe b395 aebc 1785 413e 731e 8ebd
00000100: bb9e e5bb 320f 813e 57b4 8bbd 3c04 0d3e
00000110: 052b cf38 76ec 28be b21c 803d 3e3e e83c
00000120: 8faa 923d 1ed2 dcbe 3cd1 90be 9ee9 58be
00000130: 42f0 283e f110 3e3e b7eb 45bd 154a 023e
00000140: 4b1a 0cbd 57dc 8c3e 2e8f 0a3c 0dbe 0dbe
00000150: 33ed 743e 5843 8dbd b32f b6bd 0d0e 43bd
00000160: 2770 6e3e deba c9be acf3 b1be 65cb 87bd
00000170: 816e be3d 6b70 883e 0e8e 1b3c 4ce7 86bd
00000180: 78c5 e4ba 1e7a 14be 6ac0 663e f988 6c3d
00000190: ad99 b03b 6953 cf3d 3bde 2abe 3fed ecbc
000001a0: 2b63 5abe ff75 953d 2969 d9bc 6014 143e
000001b0: 79ea d1bd 0eb4 333d fcd2 a4be eed0 413e
000001c0: e6ef 923d c5ed 89bc 28cd 81be 64a0 15be
000001d0: 740b 71bd b935 eebd 29fd 963d 7f3f ccbd
000001e0: 3727 843d ff0f 14bf 2dbe 5cbe dd11 34be
000001f0: f9cd 91bd c8f0 e53d 4dfe 8d3d 1f93 b03d
00000200: c1b8 88bc af80 383d 45af ebbd 8b9e b43d
00000210: e033 d3bd 9d4d 133e a55b 6dbd 59ca 3fbe
00000220: 5518 fb3d 9e79 9bbe f000 0b3e 4faf 33be
00000230: a2e3 5d3e e42c 083e 5b4f 95bd a8fd 9ebd
00000240: 2fca 1c3e 61dd 31bd 9b43 b13d f447 f6ba
00000250: 2f73 b13d 1d46 64bd 7fe3 f03d 1592 27be
00000260: 7cf0 263e 3a1a 2dbe 84e6 2c3d 046f 873d
00000270: f22e a73d e026 693d f55b 95bd d7c2 873e
00000280: 8e5e 99be 0bb0 733c 178a 49be 872b 863d
00000290: 0592 463e 68e3 c53d 340b bd3c 7ff9 833d
000002a0: a7e9 493b 3389 c03e 2587 93bd c9fe d73e
000002b0: 7c28 95be ca6e 2ebe 5613 0f3e 5813 27be
000002c0: 01a4 8dbe e0fe 453e 1a86 71be ad10 06be
000002d0: 2737 5f3e 67d7 dfbd e233 933c cbcf 8f3d
000002e0: fee5 3c3e aa57 db3c b887 39bd 7343 c13e
000002f0: 31be c2be 4f51 2e3d 8fd0 d53b b985 21bd
00000300: 6437 143e 8ed2 64be 786f 70be 6181 e03e
00000310: 4e7f 5c3d 4964 05be f411 0a3c 2545 cd3d
00000320: 9262 163e 18d1 7cbe 2723 13be b641 afbd
00000330: 7153 343e 0b70 3bbe f5be d53d d798 2bbe
00000340: 2376 9dbe 825f a03c efd3 a0be d383 bfbb
00000350: 7e83 233e f270 e1bd 83d5 d2bd 90d3 ed3d
00000360: 3753 273e 61d2 c23e 64bb ecbc 7d0e 9b3e
00000370: 65bf 8cbe 2aec b0be 6466 df3d 415e 2dbe
00000380: ea31 ad3d 5f09 4a3e 7777 5dbd 6eb7 763c
00000390: 1605 5c3d f940 21be 7a28 f9bd b143 303d
000003a0: 33fb 743e 48c1 f9be 7702 6ebe 1594 183d
000003b0: 7e64 dd3d c737 a73e 6355 6c3c c8a8 88bd
000003c0: bebd 903e 92e4 8fbe 559c e8bc 3f7e 753e
000003d0: ab81 2f3e f9ec 61bd 8f76 b53d ffa0 a1bc
000003e0: 0bf2 803e aa26 0dbe 3b82 163e 4a13 d9bd
000003f0: b799 b1bc 43a3 64be 0727 c4be af5f 953d

linear_stack.0.bias f4 [16]
-0.35721934 -0.5524267 -0.18036151 -0.325973 -0.3269571 -0.7312812 -0.20060998 -0.69977254
-0.3700297 -0.24860162 -0.37979525 -0.365221 -0.24551193 -0.49015358 -0.65228325 0.12814732
00000000: 74e5 b6be d66b 0dbf b0b0 38be efe5 a6be
00000010: ec66 a7be 3f35 3bbf b46c 4dbe 4b24 33bf
00000020: 8874 bdbe 6c91 7ebe 8674 c2be 3ffe babe
00000030: 7b67 7bbe 69f5 fabe 09fc 26bf 0d39 033e

linear_stack.3.weight f4 [8, 16]
0.25126532 0.38187748 -0.20527695 0.18954976 -0.110967115 0.2340274 -0.31352657 0.14239132
0.03568146 -0.267379 0.18904623 0.11872883 -0.22422644 0.48566216 0.5857501 -0.2799486
0.1376206 -0.094653435 -0.21004364 0.28609553 -0.58671606 -0.14623141 -0.12349553 -0.49301633
-0.05742289 -0.0087846 0.35388863 0.30134875 -0.24573438 0.37146518 -0.074498065 -0.017865581
0.22217143 -0.18550046 -0.14446446 0.25326532 -0.305656 0.04476855 -0.11819476 -0.27821606
0.0010335194 0.27508554 0.26664662 -0.24005015 -0.06741622 0.022526598 -0.05955838 0.00988279
0.19732784 0.2146652 -0.058235392 0.17891768 -0.009402978 0.6133667 -0.21117349 0.27420098
0.11071985 -0.04575231 0.18648475 0.20748502 -0.21352018 0.37903306 0.32712153 -0.15453206
0.30075362 0.2066983 -0.23206939 -0.111609735 0.1411347 0.35361487 -0.101642646 0.3252934
0.10587204 -0.18860143 0.17575757 0.039951365 -0.15116678 0.43338522 0.40779388 -0.169804
-0.20325905 0.27702576 -0.16548906 -0.0697808 0.22925986 0.5371515 -0.034526672 0.41771248
0.12716767 0.00864267 -0.07048748 0.030648641 -0.009141611 -0.26223683 0.11552324 -0.19000566
-0.22549018 -0.11016665 0.12897147 -0.18779518 -0.09160688 -0.21935771 0.074598506 -0.11644376
-0.009016855 -0.09307927 -0.37660977 -0.2339516 0.036422245 -0.2943031 -0.15685305 -0.011179432
0.105321035 0.23268403 -0.09016893 0.22199081 -0.18082613 0.61905134 -0.12099248 -0.12386882
0.14598507 6.549142e-05 0.28992337 0.26268858 -0.16352123 0.29309008 0.40127915 -0.077532545
00000000: d9a5 803e 7285 c33e 1f34 52be 5519 423e
00000010: ba42 e3bd e1a4 6f3e 8e86 a0be 08cf 113e
00000020: b926 123d e6e5 88be 5695 413e 1a28 f33d
00000030: 9e9b 65be b6a8 f83e b8f3 153f 6c55 8fbe
00000040: 6aec 0c3e a9d9 c1bd ae15 57be 1d7b 923e
00000050: 0633 16bf b0bd 15be 39eb fcbd a36c fcbe
00000060: 4434 6bbd 48ed 0fbc e430 b53e 624a 9a3e
00000070: cba1 7bbe af30 be3e 7192 98bd d75a 92bc
00000080: e880 633e d5f3 3dbe 7eee 13be feab 813e
00000090: f17e 9cbe 3a5f 373d 1810 f2bd 5672 8ebe
000000a0: 2877 873a 03d8 8c3e e885 883e b5cf 75be
000000b0: 8411 8abd b389 b83c 7df3 73bd 6deb 213c
000000c0: 4f10 4a3e 32d1 5b3e 3c88 6ebd 3236 373e
000000d0: f30e 1abc 9a05 1d3f dd3d 58be 1264 8c3e
000000e0: 17c1 e23d c666 3bbd dcf5 3e3e f476 543e
000000f0: 09a5 5abe 9f10 c23e 797c a73e a73d 1ebe
00000100: 61fc 993e b8a8 533e 99a3 6dbe a593 e4bd
00000110: 9d85 103e 020d b53e 052a d0bd db8c a63e
00000120: 71d3 d83d bc20 41be cbf9 333e 0ba4 233d
00000130: 77cb 1abe abe4 dd3e 5cca d03e 1ae1 2dbe
00000140: 2423 50be 52d6 8d3e f775 29be 3ce9 8ebd
00000150: 19c3 6a3e c382 093f d76b 0dbd 69de d53e
00000160: 3e38 023e fc99 0d3c bd5b 90bd dc12 fb3c
00000170: b2c6 15bc e843 86be 7397 ec3d d890 42be
00000180: e6e6 66be 0d9f e1bd 1911 043e 614d 40be
00000190: 639c bbbd 4f9f 60be 1ac7 983d 117a eebd
000001a0: 6ebb 13bc 58a0 bebd ffd2 c0be 0291 6fbe
000001b0: 7e2f 153d e5ae 96be 169e 20be f029 37bc
000001c0: 8eb2 d73d b944 6e3e 7daa b8bd 8f51 633e
000001d0: 7c2a 39be 267a 1e3f e8ca f7bd f0ae fdbd
000001e0: 1c7d 153e 7058 8938 d670 943e 1e7f 863e
000001f0: 1c72 27be e70f 963e 7674 cd3e 62c9 9ebd

linear_stack.3.bias f4 [8]
0.003987126 -0.018764436 -0.015237362 -0.024788052 -0.1120305 -0.1423421 0.15429942 0.017248591
00000000: 70a6 823b e0b7 99bc 21a6 79bc 5010 cbbc
00000010: 3f70 e5bd 21c2 11be ab00 1e3e eb4c 8d3c

linear_stack.6.weight f4 [8, 8]
-0.3213015 -0.23388979 -0.3178705 -0.60548705 -0.48112452 -0.20165434 0.5473581 -0.31018242
0.22301358 0.26412335 0.18017255 0.19187424 0.43862885 0.36377332 -0.0988558 0.3422362
0.30485487 0.18453021 -0.107434705 0.32334176 0.527903 0.4634756 -0.0809257 0.10861471
0.44914463 0.2446012 0.1669149 0.43287867 0.2586192 -0.018816091 -0.22330713 -0.036067333
-0.36678606 -0.40627304 -0.18868168 -0.42857265 -0.24211589 -0.24387556 0.43498555 -0.3996473
0.39071023 0.3248274 0.118429 0.23640504 0.4490726 0.36110002 -0.022011051 0.32537156
-0.47468826 -0.40205434 -0.16299559 -0.46174207 -0.4089497 -0.18596938 0.2787153 -0.4173384
0.26538312 0.21219127 0.24137694 0.4719048 0.2680995 -0.27408513 -0.33806685 0.33871377
00000000: a181 a4be ce80 6fbe ecbf a2be 3301 1bbf
00000010: f455 f6be 7a7e 4ebe a91f 0c3f 3bd0 9ebe
00000020: ac5d 643e 2d3b 873e 277f 383e ae7a 443e
00000030: f693 e03e 7f40 ba3e e974 cabd 9539 af3e
00000040: f015 9c3e 7df5 3c3e ba06 dcbd 0d8d a53e
00000050: a724 073f ad4c ed3e 60bc a5bd 6471 de3d
00000060: 49f6 e53e bd78 7a3e bdeb 2a3e 46a2 dd3e
00000070: bc69 843e 3424 9abc a0aa 64be 57bb 13bd
00000080: 62cb bbbe 0503 d0be c535 41be e06d dbbe
00000090: 3aed 77be 84ba 79be 6db6 de3e 929e ccbe
000000a0: 2c0b c83e c74f a63e e78a f23d 2a14 723e
000000b0: d8ec e53e 1ae2 b83e 8550 b4bc 1a97 a63e
000000c0: 570a f3be 11da cdbe 51e8 26be 7569 ecbe
000000d0: db61 d1be c26e 3ebe c6b3 8e3e 61ad d5be
000000e0: 4ce0 873e ab48 593e 842b 773e 829d f13e
000000f0: 5644 893e e354 8cbe 1917 adbe e46b ad3e

linear_stack.6.bias f4 [8]
0.17734744 -0.010672844 0.00412065 -0.002703877 0.18290773 0.0032544816 0.13049047 0.00040960158
00000000: 919a 353e 27dd 2ebc 8406 873b 8733 31bb
00000010: 2a4c 3b3e 2449 553b 4b9f 053e cbbf d639

linear_stack.9.weight f4 [8, 8]
-0.22030236 0.32006726 0.0033035341 0.35775396 -0.3514433 -0.023857603 -0.49860218 0.23032503
-0.16814351 0.22199516 0.31986362 0.3801296 -0.21842475 0.35299698 -0.39748636 0.20790458
-0.1755157 0.20182407 0.41403928 0.29200435 -0.19542663 -0.14710416 -0.22304744 0.29016912
-0.2418952 0.2290678 -0.2680248 0.097451635 -0.24439938 0.4611729 -0.35849762 0.25244308
-0.06647539 0.12362305 0.48622134 0.0036522415 -0.17149256 0.4595335 -0.17341577 0.39937827
0.21543483 -0.58797204 -0.17986853 -0.518691 0.23035839 -0.58074087 0.4210125 -0.25239933
-0.21922809 0.35155323 0.27773243 0.30805483 -0.25938663 0.084437214 -0.40229037 0.15778011
-0.28364348 0.17304507 0.034739386 0.4885342 -0.3643756 0.4881156 -0.53180546 -0.31736395
00000000: f196 61be dbdf a33e 1b80 583b 872b b73e
00000010: 60f0 b3be 0571 c3bc c948 ffbe 53da 6b3e
00000020: d02d 2cbe b352 633e 2ac5 a33e 59a0 c23e
00000030: bdaa 5fbe 05bc b43e 5583 cbbe f0e4 543e
00000040: 63ba 33be f8aa 4e3e f5fc d33e 9881 953e
00000050: eb1d 48be 79a2 16be 8c66 64be 0c91 943e
00000060: 60b3 77be c090 6a3e 8c3a 89be b994 c73d
00000070: d543 7abe db1e ec3e 008d b7be 3840 813e
00000080: 4024 88bd 152e fd3d 01f2 f83e 725a 6f3b
00000090: bf9b 2fbe fa47 eb3e e793 31be 4f7b cc3e
000000a0: f39a 5c3e 5685 16bf 752f 38be efc8 04bf
000000b0: 12e3 6b3e 6fab 14bf f38e d73e 7c3a 81be
000000c0: 547d 60be c9fe b33e f232 8e3e 5db9 9d3e
000000d0: 53ce 84be 6bed ac3d 01f9 cdbe 1c91 213e
000000e0: b839 91be ba32 313e e34a 0e3d 2821 fa3e
000000f0: 708f babe 4aea f93e 6724 08bf 877d a2be

linear_stack.9.bias f4 [8]
0.15406866 0.10839395 0.06832737 0.09710135 0.06863423 0.20008679 0.13054658 0.17563452
00000000: 2dc4 1d3e a6fd dd3d 38ef 8b3d 13dd c63d
00000010: 1a90 8c3d 8de3 4c3e 01ae 053e 89d9 333e

linear_stack.12.weight f4 [2, 8]
-0.26763096 -0.36164683 -0.088215955 -0.43430823 -0.23774083 0.50722134 -0.2842275 -0.27045202
0.2739692 0.20897211 0.47342524 0.106511265 0.37696108 -0.20827574 0.3122748 0.2510526
00000000: ed06 89be c629 b9be 91aa b4bd a65d debe
00000010: 5572 73be 42d9 013f 4486 91be b078 8abe
00000020: b145 8c3e c9fc 553e cb64 f23e 9422 da3d
00000030: 0b01 c13e 3c46 55be 7ce2 9f3e f789 803e

linear_stack.12.bias f4 [2]
0.19347784 -0.4853599
00000000: 0e1f 463e 1881 f8be
