models/model_trt_c2_s0.1_b16_lr0.001_d0.5_e20.pth (torch, 6143 bytes, 10 tensors)

linear_stack.0.weight f4 [16, 16]
000000 0e 7b 3d be 87 81 ac 3e 76 79 9c bc 01 72 a6 bd
       -0.18503973 0.33692572 -0.019100886 -0.08127213
000010 2f f4 75 be da cc 0a be bf 46 b7 3d 59 e0 a8 bc
       -0.2401893 -0.13554707 0.089490406 -0.02061479
000020 94 a2 77 bd 62 dd 2b 3e 03 fb 1e 3e 8a 48 1c be
       -0.06045778 0.1678367 0.15525441 -0.15262046
000030 47 e1 7f 3e ab 01 df 3e ef 07 28 3d a2 f9 a7 3d
       0.2498828 0.4355596 0.04102319 0.082019106
000040 85 c1 0b 3d d9 01 29 3e 1a ba 81 3d 0c 73 45 be
       0.0341201 0.16504611 0.06334324 -0.19282168
000050 f9 2d 2a 3e 82 38 1b be 66 8d 2d 3e de 47 33 bd
       0.166191 -0.15158275 0.1694847 -0.04376971
000060 c2 1c 6a bd fa a4 24 be 31 58 67 be 30 87 80 3e
       -0.05715633 -0.16078559 -0.22592236 0.2510314
000070 9f 9e e7 bd 21 1a 60 bd 9f 7a 06 3e bf c4 29 3a
       -0.113095514 -0.05471242 0.13132714 0.0006476156
000080 e6 a5 86 3e fc 3e 1d be bd 04 bf 3d a1 62 b9 bd
       0.26298445 -0.15356058 0.09327076 -0.09052015
000090 61 88 ac bd a5 51 3c be 05 1d b8 3d 9c 06 9d 3d
       -0.0842445 -0.1839052 0.0898991 0.07667276
0000a0 47 ef 22 3d f5 d7 3b 3e eb eb 42 3e 43 cd a0 3d
       0.039778974 0.183441 0.19035308 0.078516506
0000b0 ae 1b 1a 3d c8 0c 62 be 56 20 fc 3d f7 9a ed 3c
       0.037624054 -0.22075188 0.12310855 0.029004557
0000c0 3d 17 8c bd f7 09 97 3e e4 ed a1 be 89 45 3d 3e
       -0.0684037 0.2949979 -0.3162681 0.18483557
0000d0 65 69 24 be 0b 27 fa 3d 59 65 de 3c 8f 26 bf 3c
       -0.1605583 0.12214478 0.027147936 0.023333816
0000e0 df 47 d3 bd a6 43 ae 3d 28 7c 4e 3d 22 ac f1 3d
       -0.10316443 0.08508997 0.050411373 0.1180041
0000f0 5a 09 49 3e 91 36 10 3f 12 ea ae bd 3d b1 bf 3d
       0.19632474 0.5633326 -0.08540739 0.093599774
000100 b6 b2 3f 3e fc 74 95 3e ee ab 84 3d 0a 1d d7 3d
       0.18720517 0.29190814 0.064781055 0.10503586
000110 52 3f 06 bd a9 eb 53 be 33 81 31 3d cf a4 71 3c
       -0.03277523 -0.20695366 0.043336105 0.014748766
000120 bf 72 1f bd 1b 86 2e be 74 3c 29 be 18 54 e7 bd
       -0.03892779 -0.17043345 -0.16526967 -0.112953365
000130 1a 65 3a bd d3 b5 0b bd 43 da 5f be f2 19 10 bd
       -0.045506574 -0.034108948 -0.21860604 -0.035180993
000140 a7 ce 31 3e 79 58 62 3e 72 86 37 3e d4 f9 cf bd
       0.17363988 0.22104062 0.1792238 -0.10155073
000150 1a b3 88 3e 08 67 5d bc 01 2b 18 be 5b e1 b1 bd
       0.26699144 -0.013513334 -0.14860155 -0.08685561
000160 8f cd 96 3d 0f a4 8c bd be 9f 10 be e4 e4 7e bd
       0.07363426 -0.06867229 -0.14123437 -0.062230006
000170 20 27 c1 3c 65 f5 e5 ba f3 f8 f5 3c 80 96 f5 bd
       0.023578227 -0.0017544447 0.030025935 -0.11991596
000180 be e7 b6 3d 75 9d 20 be 44 eb 54 3e 7c 0b 4d 3e
       0.0893092 -0.15685065 0.20792872 0.20023912
000190 65 54 0d 3e 66 6f 1f 3e 35 e6 23 be 95 5f 51 3e
       0.13801725 0.15569839 -0.16005786 0.20446618
0001a0 08 c5 de bd c5 3f 39 bd 8a 6e 8e bd bd 57 72 3e
       -0.108774245 -0.04522683 -0.069546774 0.23666282
0001b0 eb e3 ea ba e5 a9 ff bd ed f2 0f be d3 6c 33 3e
       -0.0017920708 -0.12483577 -0.14057513 0.17521982
0001c0 36 10 05 3e 19 4e 02 3d 53 02 51 be db ff 66 be
       0.12994465 0.03181276 -0.20411043 -0.22558539
0001d0 20 d0 cc bd fe 81 6d be 82 c7 58 3e 02 e2 11 be
       -0.10000634 -0.2319412 0.21169856 -0.14246371
0001e0 0f 7d d2 bd 95 00 83 be 76 c5 c6 3c b3 30 83 3d
       -0.10277759 -0.25586382 0.024264079 0.06405773
0001f0 c9 cd 55 bd 72 b3 23 be 4b 9a 0c 3e 8b 54 bc bd
       -0.052198205 -0.15986422 0.13730733 -0.09195813
000200 9d c5 2e 3e af b7 34 3e 2d 0c 36 bd 61 fd 52 3d
       0.17067571 0.17648195 -0.044445205 0.051511172
000210 45 87 30 be 20 d3 76 3e 73 35 d3 3d 17 ca f3 3b
       -0.17239101 0.24103975 0.10312929 0.0074398625
000220 0f 2c 20 3b 25 d0 a8 bd a9 d2 66 3e 31 0c f6 bd
       0.0024440323 -0.082428254 0.22541298 -0.12014044
000230 b9 ac c4 3d 25 d8 19 3e 79 3e ae 3d 5e b7 42 be
       0.09603257 0.15023859 0.085080095 -0.19015262
000240 a3 8d 0b 3e e6 25 d1 3d 34 32 b3 bd fb 49 fd bd
       0.13628249 0.10212307 -0.0874981 -0.12367626
000250 86 e4 69 bd aa 74 ba bc 9c 72 4c 3e 95 ee 0f be
       -0.057102703 -0.022760708 0.19965595 -0.14055856
000260 ae 98 34 3e d0 c0 72 bd 4f 59 ad 3d 02 80 b4 3c
       0.17636368 -0.05926591 0.084643 0.022033695
000270 10 0d 98 bd 08 b1 c4 bb 74 2b 84 bd 10 5d 47 3e
       -0.074243665 -0.006002549 -0.064536005 0.19469094
000280 34 7e 88 be 1f c5 00 be c6 40 f7 3b c8 34 1b 3d
       -0.26658785 -0.12575196 0.0075455634 0.037892133
000290 20 d3 18 3e 24 ad e8 3d 23 a9 2b 3d 35 91 64 3d
       0.14924288 0.11361149 0.04190935 0.055802543
0002a0 e8 74 23 be bb f3 7d 3e 35 41 0d bd 4c d4 1d 3e
       -0.15962565 0.24800007 -0.034486014 0.15413016
0002b0 27 cd 48 3c 7f 25 88 3e 38 6c 77 be 17 d4 2e be
       0.012255943 0.26591107 -0.24162376 -0.17073093
0002c0 37 a3 58 bd d0 e8 42 be 91 41 cc 3d ce d6 2b be
       -0.05289003 -0.19034123 0.09973443 -0.1678116
0002d0 53 02 62 3e c0 0e 7e be 4b 7a 03 3e d1 73 1f 3d
       0.22071199 -0.24810314 0.1283962 0.03892881
0002e0 9d 9c 5f 3e 03 7c 9c bd a4 f0 f3 bd 66 8e a2 3e
       0.21837087 -0.07640841 -0.11911133 0.31749266
0002f0 5f 13 b0 bd 59 54 ba 3b 29 bb 5e 3e 3f 1b 2e 3d
       -0.08597445 0.0056863246 0.21751083 0.042506453
000300 25 14 29 3e 6e b8 78 be 2a ef 60 be c9 73 5e 3e
       0.16511591 -0.24289104 -0.21966234 0.21723856
000310 f4 f1 56 be ef df f8 bc 63 5c 85 bc c3 c1 47 3e
       -0.20990735 -0.030380217 -0.016279405 0.19507508
000320 13 00 4a 3e ef 5e 8e bd 61 ed 77 bc 12 b2 9e bd
       0.19726591 -0.06951701 -0.015132279 -0.07748808
000330 54 c4 d7 bd eb 83 2d be 0c 05 0d 3e a8 f9 9f be
       -0.105354935 -0.16944854 0.13771456 -0.3124516
000340 bb a0 e3 be 57 aa 24 bd 83 13 64 be 78 15 81 bd
       -0.44458565 -0.04020151 -0.22273068 -0.06302923
000350 62 45 d0 3c 8a 07 ce 3d 10 79 af bd 5d 0d de bc
       0.02542371 0.10060032 -0.08568013 -0.027105981
000360 b0 d9 89 3e 4a f9 9e bc 55 d6 32 bc f4 dd 4c 3e
       0.26923895 -0.01940598 -0.010915359 0.20006543
000370 ef d4 10 3e 7a 99 a1 3e 70 c9 68 bc 88 19 c1 3b
       0.14143728 0.31562406 -0.014208183 0.005892936
000380 b8 b5 86 bd 2c dd 9b 3d 9f b0 ef bd 87 a7 bf bd
       -0.06577629 0.076105446 -0.1170361 -0.09358125
000390 f1 2a 5f bd d8 82 34 be 66 27 57 bd b6 eb 0d 3e
       -0.05448431 -0.17628038 -0.052527808 0.13859448
0003a0 e5 4b 03 3e 42 61 9f bd 65 f0 1d 3e c7 b5 44 3e
       0.1282192 -0.07782222 0.15423734 0.19209968
0003b0 9e 82 77 3d 53 53 0b 3f 07 8f 06 be b5 d3 b8 bd
       0.0604273 0.5442402 -0.13140498 -0.09024755
0003c0 2b 7a 4b 3d f8 f8 7a be c8 5e 6e be c3 d7 de 3d
       0.049677055 -0.24509037 -0.23278344 0.10880997
0003d0 f3 ba 97 3d 34 46 1b be 4d 82 11 be c7 6a e7 ba
       0.074087046 -0.15163499 -0.14209862 -0.0017655723
0003e0 e9 2b 3c 3e 33 e8 2c be 2f 90 ae 3d b0 0f ca 3e
       0.18376125 -0.16885452 0.085235946 0.39465094
0003f0 dc 7e 93 3c 16 9d 86 be 6e 98 42 be 72 44 28 be
       0.018004827 -0.26291722 -0.1900346 -0.1643236

linear_stack.0.bias f4 [16]
000000 75 dc 42 3e 0e 6e 01 be d2 0f 2e 3e d7 98 2b 3e
       0.1902941 -0.12639639 0.16998222 0.16757523
000010 71 33 5d 3e cb f2 55 be 82 8e 03 3e 68 41 6f be
       0.21601655 -0.208934 0.12847331 -0.23364794
000020 c7 b5 87 3d 23 6a 29 bd fa 23 3e bd d3 34 38 be
       0.06626468 -0.041360985 -0.04642103 -0.17988901
000030 de c7 ef 3d bf 8b a0 3d 6a 34 51 3c d2 d3 80 3e
       0.117080435 0.078391545 0.012768844 0.25161606

linear_stack.3.weight f4 [8, 16]
000000 d5 9e c4 3e 3e 14 71 3e 8d 4c 88 bc cf 11 91 3e
       0.3840243 0.23542878 -0.016638065 0.283339
000010 40 e1 dd bd 19 cf 4d be 8e 0e 28 be ae e1 c3 bd
       -0.10833979 -0.20098533 -0.16411802 -0.09564529
000020 fc 37 42 bd 54 72 01 be bc 23 91 bd aa 50 95 be
       -0.047416672 -0.12641269 -0.07086894 -0.29163104
000030 74 83 82 be 43 91 9b 3e 72 46 92 3e f1 21 95 be
       -0.25490916 0.30384263 0.2856937 -0.29127458
000040 b8 3c 70 3e 77 06 37 3c 8a 33 91 be fb 12 94 3e
       0.23460662 0.011170975 -0.28359634 0.2892073
000050 73 03 f5 bd 19 25 31 be 8f df 2d 3d 54 1d eb bd
       -0.119635485 -0.17299308 0.04244953 -0.11480203
000060 05 98 a7 3d 34 a0 42 be e0 66 c1 3e c1 69 ce 3c
       0.08183292 -0.19006425 0.377738 0.025196912
000070 6b 24 25 bd 47 b0 a5 3e 9d f9 9b 3d 96 e0 db bd
       -0.040317934 0.3236105 0.07615969 -0.10736196
000080 13 ec e6 3c c8 51 33 3d c5 81 1c bd 36 89 81 bd
       0.02818874 0.043779165 -0.038209695 -0.06324999
000090 7b 53 ff bd d5 27 19 3d 58 12 87 be 15 a6 f0 bd
       -0.124670945 0.037391502 -0.26381183 -0.11750428
0000a0 62 36 c0 3d 65 31 49 3e ec 97 f3 3b 28 af 00 be
       0.09385373 0.19647749 0.007433882 -0.12566817
0000b0 03 e7 6d 3e 23 9f 35 bd 07 a6 a7 bd 2f 8f 88 3e
       0.23232655 -0.044341218 -0.08185964 0.2667174
0000c0 de fa 9d 3e 37 5d 83 3b cd 75 33 bb a1 c0 59 3e
       0.3085546 0.004008915 -0.0027383447 0.21264888
0000d0 4c 6b 95 bc de bf 16 3e d2 c3 3e be d1 92 11 3c
       -0.01823964 0.14721629 -0.18629387 0.008885101
0000e0 e5 56 c2 bc cd c3 3c 3e 54 ff 02 bd b4 24 25 be
       -0.023723075 0.18434067 -0.03198178 -0.16127282
0000f0 bb 69 25 bd 9c 7e e0 3d 58 41 b3 3d 1e 1d 84 be
       -0.040384036 0.10961649 0.08752698 -0.25803465
000100 57 07 d7 3d df cd 2f 3d 66 d8 44 be 5e 70 83 be
       0.10499447 0.042920943 -0.19223174 -0.25671667
000110 32 28 cc 3d 85 ec 6f be 13 36 68 3e ff d7 9c 3b
       0.09968604 -0.23430069 0.22676878 0.004786491
000120 e6 94 8a 3b 87 ca 2d be cb 1b ad bd 26 7a 28 be
       0.004229176 -0.1697179 -0.08452567 -0.16452846
000130 39 6c 56 be 35 ad b7 3d 68 07 f7 3d dd 2d 7c bd
       -0.20939721 0.089685835 0.120619595 -0.061567176
000140 f1 a3 43 be d0 0a 21 3e fc d1 3a be 89 e1 46 be
       -0.19105507 0.15726781 -0.18244165 -0.19421972
000150 75 9e dc 3d f0 3b 1d 3e 30 23 1b 3e d0 a0 34 3e
       0.10772411 0.15354896 0.15150142 0.1763947
000160 b8 63 6f 3c f7 b8 c5 3c 99 23 9b 3d eb f2 b7 bc
       0.014611177 0.02413605 0.07575149 -0.0224547
000170 5e 77 3f 3d 67 07 77 be 12 10 51 be 3b bb 5e be
       0.046744697 -0.24123918 -0.20416287 -0.2175111
000180 6d b8 db bd 70 b3 e9 3d 8c 5b b0 3d 3e 34 05 be
       -0.10728536 0.11411178 0.08611211 -0.1300821
000190 24 3b c7 be a9 7b c5 bd 3e b4 a6 3d 40 c4 39 3d
       -0.38912308 -0.09642727 0.08139847 0.045353174
0001a0 63 9f 01 bd dc b1 0f bc b3 79 29 be c0 67 7b 3e
       -0.031646144 -0.008770432 -0.16550331 0.24551296
0001b0 66 f1 9a bd 6b bb 0f be 36 18 11 3d f3 cd 13 3e
       -0.07565574 -0.14036338 0.03542348 0.14434032
0001c0 a6 0a 0e 3d 18 21 5c ba 88 c2 77 bd 14 c3 7d 3e
       0.034678124 -0.00083972653 -0.060488254 0.24781448
0001d0 49 ef 7e bd 66 91 7c 3d 12 c8 c0 3d b2 17 25 be
       -0.06223992 0.0616621 0.094131604 -0.1612232
0001e0 7d ca 03 3e 40 bc 02 3e 45 7d 1d 3e c4 2f f1 bc
       0.12870212 0.12767124 0.15379818 -0.029441722
0001f0 55 31 01 bd df c4 d9 3d b9 9a 68 bd a0 18 61 be
       -0.031541187 0.10633253 -0.05678818 -0.2198205

linear_stack.3.bias f4 [8]
000000 98 2e 47 3e 00 15 c5 bd f4 d1 59 3e c1 5f 8e bb
       0.19451368 -0.09623146 0.21271497 -0.004344911
000010 21 a8 99 bd a0 5f 2e 3e 47 aa 70 3e b8 2b 04 3e
       -0.07502771 0.17028666 0.23502456 0.12907302

linear_stack.6.weight f4 [8, 8]
000000 a1 2f 58 bd 34 5e 27 bd 59 04 9d be f5 a5 c2 be
       -0.052779797 -0.040861323 -0.3066738 -0.3801724
000010 82 1c 85 be 35 b5 97 3e 9e 23 84 3e 68 64 81 3e
       -0.25998312 0.29630437 0.25808424 0.25271916
000020 e1 e7 66 3d 03 e9 9a 3e ab 9e 58 be 68 73 fd bd
       0.05637348 0.302559 -0.21154277 -0.123755276
000030 a7 37 16 3e f0 95 7a bc c5 74 13 be 81 c8 78 3e
       0.14669667 -0.015294537 -0.14400013 0.24295236
000040 1b 67 bb bd ea f8 a3 bd f3 bc b9 be 5d 67 18 bc
       -0.09150525 -0.08006461 -0.3627697 -0.0093019875
000050 82 2a 70 3e d3 1a 7e 3e 74 d0 4a 3e a9 db 8a bd
       0.23453715 0.2481492 0.19806081 -0.06780178
000060 e4 10 9b 3e 77 01 29 3e c3 78 2d be e5 30 9f bc
       0.30286324 0.16504465 -0.16940598 -0.019432494
000070 ab f0 0b be 96 44 94 be e7 6c b9 be af c3 48 be
       -0.13666026 -0.28958577 -0.36215898 -0.19605897
000080 9a ee 4c be 10 37 67 be 6f 6c b2 bd 83 35 b3 be
       -0.20012894 -0.22579598 -0.08712088 -0.35001764
000090 d3 fc 9a 3e d5 0c 6f be 72 a5 c6 3e c8 c4 ab 3b
       0.30271015 -0.23344739 0.387981 0.005241964
0000a0 8a 4a c3 3e eb ec 94 3e 9f 92 2c be 7f 5c bf 3d
       0.38142806 0.29087004 -0.16852807 0.09343814
0000b0 d8 96 73 3e 73 0b 81 3e 56 55 11 3d 99 21 41 bd
       0.23788011 0.25204048 0.035481773 -0.04715118
0000c0 b2 78 58 be 8c 0f 64 be ab 9b 65 3e d3 2c dc be
       -0.21139792 -0.22271556 0.22422664 -0.43002948
0000d0 46 19 b8 bd 7d 04 58 bd 25 f2 b9 3e 18 5f e9 bc
       -0.089891955 -0.052738655 0.36317554 -0.028487727
0000e0 cc d6 c6 3d e2 e8 91 3e f0 62 81 3c 26 d3 be 3e
       0.09708938 0.28497988 0.015794247 0.37270468
0000f0 91 f1 e5 bc 77 8b ac be 42 02 c3 be 7a d2 87 3e
       -0.02806929 -0.33700153 -0.3808766 0.26527768

linear_stack.6.bias f4 [8]
000000 e5 6e cd 3d 04 56 8d bd 7e c7 1e 3e eb 2a d4 3c
       0.10030917 -0.06901172 0.15505788 0.025899371
000010 cc 52 34 3e 72 8f c4 bd ec 44 ce 3d 33 be 86 3e
       0.1760971 -0.095976725 0.100717396 0.26316985

linear_stack.9.weight f4 [8, 8]
000000 44 4a 8c 3d a8 8d 31 3d 41 39 3c bd 38 20 9c 3e
       0.068501025 0.043347985 -0.04595304 0.3049333
000010 d5 c6 9c be ab ed 10 be 58 0b de be e8 1f 2d 3e
       -0.30620447 -0.14153163 -0.4336803 0.16906703
000020 e3 0e 29 3d 99 1e 10 bc ea 48 87 bd 82 21 55 3e
       0.041273963 -0.008796358 -0.06605704 0.20813563
000030 61 3f 07 3e 1e 12 4e bd 9f 5c 81 be ae fa 5f 3e
       0.13207771 -0.050310247 -0.25265977 0.2187297
000040 37 fb 82 be db c1 46 be 95 ec 6b 3e 08 99 61 bd
       -0.25582287 -0.19409887 0.23039468 -0.055077583
000050 e5 9e 42 bd 53 07 9a be f0 73 a7 3e 13 20 dc 3c
       -0.047514815 -0.30083713 0.3270564 0.026870763
000060 f3 c0 19 be 6e c4 5f bd 00 ca bc be 08 2b 19 be
       -0.1501501 -0.05463069 -0.36872864 -0.14957821
000070 84 70 cf bd 01 6c c4 3e 4f 96 ff 3b f2 f7 4a 3e
       -0.101288825 0.3836365 0.0077999006 0.19821146
000080 92 67 d3 bd 3e e3 aa bd 82 81 46 3e de 57 6e bd
       -0.10322489 -0.08344124 0.19385341 -0.058189265
000090 9a 7c 91 be 3c fc d4 3e 2a ab 41 be 3f dc b5 3e
       -0.28415376 0.4159869 -0.1891295 0.35519597
0000a0 da 96 12 bc f5 b9 90 be 9f 74 20 3e ec 0a 47 be
       -0.008947099 -0.28266874 0.15669487 -0.1943776
0000b0 91 d0 42 3e 69 4c a0 be 1b 5c ba 3e 2e 0a fd bd
       0.19024874 -0.31308296 0.36398396 -0.12355457
0000c0 f6 a1 2b be fa 87 cb 3e 99 3d 0c 3d 23 44 29 3e
       -0.16761002 0.3975218 0.03423843 0.16529898
0000d0 f4 13 ef bd b8 bc f3 bc bd 5c 59 be f7 66 21 3e
       -0.11673728 -0.029753074 -0.21226783 0.15761934
0000e0 7a da 87 bc 4e 6b 17 be b4 91 34 be 69 61 b3 3e
       -0.01658367 -0.14787027 -0.17633706 0.35035256
0000f0 41 54 a3 bd 56 e7 a5 3e c9 89 83 be 5e 20 b7 be
       -0.079750545 0.32403058 -0.2569106 -0.35766882

linear_stack.9.bias f4 [8]
000000 23 ea b7 3d 9c 92 27 bd 40 f3 3c be a0 dc 68 3d
       0.08980205 -0.040911302 -0.18452168 0.05685103
000010 0a c7 7e be 9c ed 66 bb 67 cc a0 3d be c4 7f 3e
       -0.24880615 -0.003523684 0.07851487 0.24977395

linear_stack.12.weight f4 [2, 8]
000000 de 5b 14 be d0 3d 0f be 68 6c 9c 3e 84 21 a3 be
       -0.1448817 -0.13988423 0.30551457 -0.31861508
000010 0d 72 06 be 2c f8 ab 3e 52 7a 37 be a8 af 22 be
       -0.13129444 0.33587778 -0.17917755 -0.1588732
000020 64 d9 1a 3e a5 8d 51 bc d8 36 a3 3d 26 6b 16 bc
       0.1512199 -0.012790118 0.07969445 -0.00918082
000030 bc 80 8a 3e cf 45 17 bd c5 32 54 3e 2e d2 0e 3e
       0.27051342 -0.03693181 0.20722492 0.13947365

linear_stack.12.bias f4 [2]
000000 20 60 20 be e5 82 0a be
       -0.15661669 -0.13526495
