models/model_sk_c2_s0.1_b16_lr0.001_d0.5_e20.pth (torch, 6143 bytes, 10 tensors)

linear_stack.0.weight f4 [16, 16]
0	0xbe5159fc	-0.20444483
1	0x3e9d5ee8	0.3073647
2	0x3ce044a2	0.027376477
3	0x3d896a12	0.067096844
4	0xbd9af046	-0.0756536
5	0xbdfdd51c	-0.12394163
6	0x3e085c14	0.13316375
7	0x3e06d16e	0.13165829
8	0xbbe8ef6e	-0.0071086204
9	0x3dc78188	0.09741503
10	0x3d97a551	0.074045785
11	0xbe18c868	-0.14920199
12	0x3e0a882b	0.13528506
13	0x3d2013d8	0.039081424
14	0x3e16bfd6	0.14721617
15	0x3d37ae5a	0.04484401
16	0x3e3a9b1d	0.18223234
17	0x3c85f352	0.016351376
18	0x3e39f818	0.18161047
19	0xbe9a1b0d	-0.30098763
20	0x3cbe3d7e	0.023222681
21	0xbdeef28b	-0.11667355
22	0x3e120bff	0.14262389
23	0xbca87a1b	-0.020566037
24	0xbe0319d4	-0.12802821
25	0xbe886ff3	-0.2664791
26	0xbeadf3a9	-0.3397496
27	0x3da6120f	0.08108913
28	0x3d8da983	0.069170974
29	0x3cf96e4c	0.030448101
30	0x3e27ff8c	0.16406077
31	0x3d871ba7	0.06597071
32	0x3e594840	0.21218967
33	0xbdadedbe	-0.08492611
34	0x3d276a00	0.040872574
35	0xbe5e3696	-0.2170051
36	0xbe707897	-0.23483501
37	0xbe2ea59d	-0.17055364
38	0x3d9bdaea	0.07610114
39	0x3dbbab99	0.09163589
40	0xbd0e5e4a	-0.03475789
41	0x3e457778	0.19283855
42	0x3e6328d9	0.22183551
43	0x3e11d34d	0.14240761
44	0xbcd66bb6	-0.026174407
45	0xbdbe06a3	-0.092786096
46	0x3d64ea25	0.05588736
47	0xbd579d55	-0.052640278
48	0x3d555aec	0.052088663
49	0x3e7f9c58	0.24961984
50	0xbe885b42	-0.26632124
51	0x3ea85872	0.32879978
52	0x3d00d5e1	0.03145397
53	0x3b3df9e7	0.0028988065
54	0xbd4ee773	-0.050513696
55	0x3e1136ca	0.14181057
56	0xbddc9095	-0.10769764
57	0xbdadcbb5	-0.0848612
58	0xbdd51f28	-0.10406333
59	0x3d86f015	0.06588761
60	0x3c1a6e2a	0.009425679
61	0xbd2c16ec	-0.042014048
62	0x3c0a4aa1	0.0084406445
63	0x3d4fe850	0.05075866
64	0x3e768a88	0.24076283
65	0x3e66ed12	0.22551373
66	0x3e0c8d7c	0.13725847
67	0x3e0f6164	0.14001995
68	0xbd3c5f6e	-0.045989446
69	0xbda882b7	-0.08228057
70	0x3dbaa115	0.09112755
71	0x3ddb9a58	0.10722798
72	0x3d873c21	0.066032656
73	0xbe02844b	-0.12745778
74	0xbdf5db6c	-0.12004742
75	0xbdcb6a08	-0.09932333
76	0xbd99f7dd	-0.07517979
77	0x3cd9910a	0.026558418
78	0xbe283c67	-0.16429292
79	0x3cb7e2ee	0.022447076
80	0x3e20e9f8	0.15714252
81	0x3e8003d2	0.25002915
82	0x3e3b63ef	0.1829984
83	0xbd99a79d	-0.07502673
84	0x3e8ac8d3	0.27106342
85	0x3cab224d	0.02089038
86	0xbda9057e	-0.08253001
87	0xbd829e9b	-0.06377908
88	0x3dea10aa	0.1142896
89	0xbd28cc35	-0.041210372
90	0xbdbf53b3	-0.09342136
91	0xbd24423b	-0.040102225
92	0xbd884449	-0.06653649
93	0xbcd8ba1d	-0.026455933
94	0x3ac3b17a	0.0014930211
95	0xbe18319c	-0.14862674
96	0x3e31d713	0.173672
97	0xbe8c1fb4	-0.27367938
98	0x3e9bcb74	0.3042866
99	0x3e2f925d	0.17145677
100	0x3de4e7a3	0.11176994
101	0x3e0751d3	0.13214807
102	0xbe1fcf1c	-0.1560635
103	0x3e323a5b	0.17405073
104	0xbdd0fb92	-0.10204233
105	0x3d526f38	0.051375598
106	0xbcdbd02d	-0.026832664
107	0x3e7196e3	0.23592715
108	0x3d346d25	0.0440494
109	0xbe52bacd	-0.20579071
110	0xbd8c9c71	-0.06865776
111	0x3e7203e7	0.23634301
112	0x3e2580ab	0.16162364
113	0x3d7ceeb3	0.06175108
114	0xbe4a8597	-0.19777523
115	0xbeac8094	-0.33691847
116	0xbe872d4f	-0.26401755
117	0xbe0d8f2e	-0.1382415
118	0x3e4ad387	0.19807254
119	0xbe7c55f1	-0.24642159
120	0xbe16405d	-0.1467299
121	0xbe6997b8	-0.22811782
122	0x3e53d024	0.20684868
123	0x3e65bc71	0.22435166
124	0xbd3735b6	-0.044728957
125	0x3e23a926	0.15982494
126	0x3e24bb6d	0.16087122
127	0xbdee1a2d	-0.116260864
128	0x3e8fdf87	0.28100225
129	0x3e0941b1	0.13403966
130	0x3d139486	0.036030315
131	0xbe01cfdd	-0.1267695
132	0xbea84cc6	-0.32871073
133	0x3e22c454	0.15895206
134	0xbde43a78	-0.111439645
135	0xbe2fb41d	-0.17158552
136	0xbe2e6c1f	-0.17033432
137	0xbe336d35	-0.17522128
138	0x3e91ff15	0.28514925
139	0xbd8b9e6e	-0.068173274
140	0x3de855b6	0.11344473
141	0x3e9ef433	0.31045684
142	0x3deec71a	0.11659069
143	0xbe422deb	-0.18962829
144	0x3dd60452	0.10450043
145	0x3e116bb1	0.14201237
146	0xbdd4b383	-0.10385802
147	0xbe82c19a	-0.2553833
148	0xbe3c4635	-0.18386157
149	0xbd914b30	-0.07094419
150	0x3e13b322	0.14423802
151	0xbe4e7809	-0.20162977
152	0x3db4fa83	0.08836844
153	0xbcb0d821	-0.021587433
154	0x3e2fc049	0.17163195
155	0x3dce1525	0.10062627
156	0xbd2d0098	-0.042236894
157	0x3e0fea38	0.14054191
158	0xbc52d7e2	-0.012868853
159	0x3e153fb3	0.1457508
160	0xbe376f12	-0.17913464
161	0xbe207fe4	-0.15673786
162	0x3da1e16f	0.07904326
163	0xbd53e244	-0.051729456
164	0x3d84d572	0.06486024
165	0x3e12c6ad	0.14333601
166	0xbcbb2282	-0.022843603
167	0xba8e32ba	-0.0010848858
168	0xbe46d747	-0.1941806
169	0x3e28070d	0.1640894
170	0xbd8f6d51	-0.07003272
171	0x3e0b161a	0.1358265
172	0xbd896fc7	-0.06710773
173	0x3e62807c	0.22119325
174	0xbe5b3e29	-0.21410431
175	0xbe5fc673	-0.21853046
176	0xbe2862d9	-0.16443957
177	0x3c46a271	0.01212369
178	0xbd9eedb0	-0.07760179
179	0xbe63bd60	-0.2224021
180	0x3e323d9d	0.17406316
181	0xbe8d07fb	-0.2754515
182	0x3dd92490	0.10602677
183	0x3e0c1c8d	0.13682766
184	0x3e3ebd82	0.18626979
185	0xbe93e46e	-0.28885216
186	0xbe9bdb67	-0.30440828
187	0x3e108b61	0.14115669
188	0xbdd1d9b7	-0.10246604
189	0xbdb2a979	-0.087237306
190	0x3e02d333	0.12775879
191	0xbdb29e6e	-0.08721624
192	0x3e0e0393	0.13868551
193	0xbe6090ef	-0.21930288
194	0xbe679970	-0.22617126
195	0x3e3e1b69	0.18565144
196	0xbe8d1c95	-0.2756087
197	0x3da904ff	0.08252906
198	0x3bf9ab8c	0.007619327
199	0x3e1800ed	0.14844103
200	0x3e6ca3ea	0.23109403
201	0xbd8a5d4f	-0.067560785
202	0xbd3c4a72	-0.045969434
203	0xbd8fa680	-0.07014179
204	0xbe08f254	-0.13373691
205	0xbdfcf661	-0.123516805
206	0x3de0a415	0.10968796
207	0xbebc2b02	-0.36751562
208	0xbebb2859	-0.3655422
209	0xbe68ebe0	-0.22746229
210	0xbdd8d82f	-0.10588109
211	0xbd805e13	-0.06267943
212	0x3d7bb58f	0.061452445
213	0x3c32ca37	0.01091247
214	0xbe056b0a	-0.13029113
215	0x3e319334	0.1734131
216	0x3e5aa51b	0.21352045
217	0xbe9051b7	-0.28187343
218	0xbe3eece1	-0.1864505
219	0x3e0f78fe	0.14010999
220	0x3ce0f30f	0.02745965
221	0xbe8ba44f	-0.27273795
222	0xbd2940b2	-0.041321464
223	0xbdce1858	-0.10063237
224	0xbbb2060f	-0.005432851
225	0x3e243b69	0.16038288
226	0xbdd639a9	-0.104602166
227	0xbd8104e2	-0.062997594
228	0xbd2af519	-0.04173765
229	0xbe01558a	-0.12630287
230	0xbdde9a21	-0.108692415
231	0x3dc13a83	0.09434988
232	0x3e19eaab	0.15030925
233	0xbe37434b	-0.17896764
234	0x3cd4f3dc	0.025995187
235	0x3d87f719	0.06638927
236	0xbdcd0d42	-0.10012294
237	0x3eadf956	0.3397929
238	0xbe0a392f	-0.13498376
239	0xbe537875	-0.2065142
240	0x3d88111a	0.06643887
241	0xbe384e55	-0.17998631
242	0xbe81878f	-0.25298735
243	0x3e7bc0d3	0.24585275
244	0x3e5fdf8c	0.2186262
245	0xbe0ca4fc	-0.13734812
246	0xbd8780b9	-0.06616349
247	0x3d5324c5	0.051548738
248	0x3e8cbc67	0.2748749
249	0xbe42dd5b	-0.19029753
250	0xbcfbdb21	-0.030744137
251	0x3e6321f8	0.22180927
252	0x3cbe10ac	0.02320131
253	0xbe482066	-0.19543609
254	0xbe983aaf	-0.29732272
255	0xbd8c2597	-0.06843107

linear_stack.0.bias f4 [16]
0	0x3e2875c0	0.16451168
1	0xbdaad185	-0.08340744
2	0x3e1839c8	0.14865792
3	0x3daccf63	0.084379934
4	0x3e23ccc5	0.15996082
5	0xbe85d80b	-0.2614139
6	0x3e14fb38	0.14548957
7	0xbe398fa2	-0.18121198
8	0x3d9b8bec	0.07595047
9	0xbd3c3e59	-0.045957897
10	0xbd563469	-0.052296076
11	0xbe5ff4ba	-0.218707
12	0x3e001778	0.12508953
13	0x3d9b3082	0.075776115
14	0x3cb7922f	0.022408573
15	0x3e8ce49e	0.2751817

linear_stack.3.weight f4 [8, 16]
0	0x3e7980fd	0.24365611
1	0x3e17bf60	0.14819098
2	0xbd0bf2e4	-0.034167185
3	0x3d2a6442	0.04159952
4	0xbb2283df	-0.002479784
5	0xbe689dff	-0.2271652
6	0xbd689a9b	-0.05678807
7	0xbdf703c5	-0.12061266
8	0xbe3d7428	-0.18501341
9	0xbeb0f1bf	-0.34559438
10	0xbe962861	-0.29327682
11	0x3cacccd1	0.021093758
12	0xbe340439	-0.17579736
13	0x3eb91928	0.36152005
14	0x3dfea2ec	0.12433419
15	0xbd0d23a0	-0.034457803
16	0x3d267694	0.04064043
17	0xbb4261cf	-0.002966035
18	0xbe9dc955	-0.30817667
19	0x3e413fe2	0.18872026
20	0xbe104aeb	-0.14091079
21	0xbe15927a	-0.14606658
22	0x3dac704d	0.08419857
23	0xbe94436e	-0.28957695
24	0xbdc3a17c	-0.09552285
25	0xbe89bbb9	-0.26901034
26	0x3e3cf0fd	0.18451305
27	0x3ed3dae7	0.41377947
28	0x3e22844d	0.15870781
29	0x3ea04cd0	0.31308603
30	0xbe27f789	-0.16403021
31	0x3bc25995	0.005931089
32	0x3e1cffc3	0.1533194
33	0xbd3a7ed2	-0.0455311
34	0xbd8f7bcd	-0.07006035
35	0xbd1ca0b9	-0.038239215
36	0xbe6251f0	-0.22101569
37	0xbd0891fe	-0.033342354
38	0xbe2244b1	-0.15846516
39	0xbe0851ef	-0.13312505
40	0xbd80cca1	-0.0628903
41	0x3e305bcb	0.17222516
42	0xbc94e73e	-0.018176671
43	0xbde22e36	-0.1104397
44	0x3e6fece3	0.23430209
45	0x3cd7b3fc	0.02633094
46	0xbdd30beb	-0.103050075
47	0x3e62eaee	0.22159931
48	0x3e6c2850	0.23062253
49	0xbda0d908	-0.078538954
50	0x3c95f658	0.018305942
51	0x3db85f03	0.09002497
52	0xbdc6e3fa	-0.09711452
53	0x3e0a7b19	0.1352352
54	0xbe5d2cc9	-0.21599115
55	0x3cf1bd92	0.02950934
56	0xbd96210d	-0.07330523
57	0x3dcd64a0	0.10028958
58	0xbe3a38ce	-0.18185732
59	0xbde6471d	-0.112440325
60	0x3d8fee3a	0.0702786
61	0x3dad2f42	0.08456279
62	0x3cc7d937	0.024395568
63	0xbe8ad622	-0.27116495
64	0x3d5cf2ce	0.053942494
65	0x3e2de0a4	0.16980225
66	0xbe14d0e3	-0.14532809
67	0xbe4cb552	-0.19991043
68	0x3dada24c	0.08478221
69	0xbe1f0fcd	-0.15533371
70	0x3e9a5227	0.30140802
71	0x3e365064	0.17804104
72	0x3e1c3e88	0.15258229
73	0xbdc3e76b	-0.09565624
74	0x3d2c8f19	0.042128656
75	0xbe0b7fe2	-0.13623002
76	0xbe578264	-0.21045834
77	0xbcadd813	-0.021221196
78	0x3e157d54	0.1459859
79	0xbdd73616	-0.10508363
80	0xbd8c3a3e	-0.06847046
81	0x3e1e7a2f	0.15476297
82	0xbd9e0164	-0.07715109
83	0xbdef8a94	-0.116963536
84	0x3dd9c8dc	0.10634014
85	0x3e0d77c8	0.13815224
86	0x3e4abb0c	0.19797915
87	0x3e9d1363	0.30678853
88	0x3dc654c9	0.0968414
89	0x3e36f95b	0.17868559
90	0x3e0790e1	0.1323886
91	0xbe10ca8d	-0.14139767
92	0x3bf474c1	0.007460207
93	0xbea9112e	-0.3302092
94	0xbdb7cb84	-0.089743644
95	0xbeaed000	-0.34143066
96	0xbc82cc55	-0.015966574
97	0x3e6e2f8f	0.2326033
98	0x3e1b7cca	0.15184322
99	0xbe03ea6c	-0.12882394
100	0xbe2cd899	-0.168795
101	0xbdd58976	-0.10426609
102	0xbda6bdfb	-0.08141705
103	0x3e655247	0.22394668
104	0x3e37de45	0.17955883
105	0x3e2a0adf	0.1660571
106	0xbc83c64d	-0.016085768
107	0xbda5b808	-0.08091742
108	0xbe07bf79	-0.13256635
109	0xbe616ade	-0.22013423
110	0x3e255090	0.16144013
111	0xbe448be9	-0.19193996
112	0xbd778619	-0.06043062
113	0x3d1e1352	0.038592644
114	0x3d085c19	0.033290956
115	0x3d8d124a	0.06888254
116	0xbdcfc10a	-0.10144241
117	0x3d8738ee	0.06602655
118	0x3e1695cc	0.1470558
119	0xbde9431d	-0.11389754
120	0x3d890fc3	0.066924594
121	0x3d7054ba	0.05867455
122	0x3d71ab3c	0.059001192
123	0x3e1f5069	0.15558018
124	0x3cb8666d	0.022509778
125	0xbcd5a023	-0.026077336
126	0xbcdd2aa7	-0.026997877
127	0xbe676e7f	-0.22600745

linear_stack.3.bias f4 [8]
0	0x3e880b46	0.265711
1	0xbd541d20	-0.05178559
2	0x3e3651dd	0.17804666
3	0xbdce351c	-0.100687236
4	0xbcbff2a1	-0.023431124
5	0x3e615ed9	0.22008838
6	0x3e46d92d	0.19418783
7	0x3dd49168	0.103792965

linear_stack.6.weight f4 [8, 8]
0	0x3d488c59	0.04896197
1	0xbd95daaf	-0.07317101
2	0xbea04e18	-0.3130958
3	0xbe95f114	-0.2928549
4	0xbe8d7bed	-0.2763361
5	0x3eb64560	0.35599804
6	0x3e8c1fc9	0.27368
7	0x3e937084	0.2879678
8	0x3c733036	0.014843037
9	0x3e53418b	0.20630471
10	0xbe30e7fe	-0.17275998
11	0xbe61fc1f	-0.22068833
12	0x3daa14e8	0.08304769
13	0xbd938690	-0.072034
14	0xbda7035c	-0.081549376
15	0x3e4e3965	0.20139082
16	0xbdad072a	-0.08448632
17	0xbd964abb	-0.073384725
18	0xbeaf7600	-0.34269714
19	0x3d85a8a0	0.06526303
20	0x3ed105be	0.40824693
21	0x3eb90921	0.36139777
22	0x3eb1751d	0.34659663
23	0x3ac1184a	0.001473197
24	0x3e8d0ba0	0.27547932
25	0x3e58f177	0.21185862
26	0x3a95d23a	0.001143045
27	0xbe38da25	-0.18051966
28	0xbdf9c6aa	-0.12196095
29	0xbe922d2f	-0.28550097
30	0xbebca14f	-0.3684182
31	0xbe8707fc	-0.2637328
32	0xbe756987	-0.23966037
33	0xbe42d754	-0.19027454
34	0xbe1f745b	-0.1557173
35	0xbe84b89b	-0.25922093
36	0x3e9e37a0	0.30901814
37	0xbe838fb2	-0.25695568
38	0x3ed6d301	0.41957858
39	0x3d36e2d7	0.044649925
40	0x3e4be80f	0.19912742
41	0x3e0432d4	0.12910014
42	0xbeb4040a	-0.35159332
43	0xbe128c24	-0.14311272
44	0x3e0ddc86	0.13853654
45	0x3e54d5ed	0.20784731
46	0xbe130517	-0.1435741
47	0xbdbf735e	-0.093481764
48	0xbe39e7f3	-0.18154888
49	0xbe57457a	-0.21022597
50	0x3debd4e7	0.11515217
51	0xbe91c8ee	-0.2847361
52	0xbb6c89d0	-0.0036092885
53	0xbe4e768d	-0.20162411
54	0x3eaaa281	0.33327106
55	0x3c267e7b	0.010161991
56	0x3caeaa22	0.02132136
57	0x3e7cfa39	0.24704827
58	0x3d2b21fd	0.04178046
59	0x3e994ade	0.29939932
60	0xbe24829c	-0.16065449
61	0xbec11b52	-0.37716156
62	0xbec159eb	-0.37763914
63	0x3e265f16	0.1624721

linear_stack.6.bias f4 [8]
0	0x3db9338e	0.090430364
1	0xbd82198a	-0.063525274
2	0x3e0a14be	0.13484475
3	0x3e23d348	0.15998566
4	0x3d8942ba	0.0670218
5	0xbe13944a	-0.14412037
6	0xbdba9591	-0.09110559
7	0x3e8e732d	0.27822247

linear_stack.9.weight f4 [8, 8]
0	0xbb7829ca	-0.0037866705
1	0xbda3a6aa	-0.07990773
2	0xbdd86b98	-0.10567397
3	0x3ea8877e	0.32915872
4	0xbe661982	-0.22470668
5	0xbe4f5b0a	-0.20249572
6	0xbeb6410b	-0.355965
7	0x3e382dfe	0.17986295
8	0xbd0ff9b2	-0.035150237
9	0xbe074728	-0.13210738
10	0xbd9a3d58	-0.07531232
11	0x3e6eb98b	0.23312967
12	0xbd0c51ec	-0.034257814
13	0xbde577d6	-0.112044975
14	0xbe845885	-0.25848785
15	0x3e8d9c91	0.27658513
16	0xbe017fdf	-0.12646435
17	0xbdb7620d	-0.089542486
18	0x3eccaa49	0.39973667
19	0xbd8779b3	-0.06615009
20	0x3da81ad9	0.08208246
21	0xbdec8624	-0.11549023
22	0x3ebe5f53	0.37182102
23	0x3d8c790d	0.06859026
24	0xbddc803d	-0.10766647
25	0xbd7d7b98	-0.061885446
26	0xbe9fe0f5	-0.31226316
27	0xbe52b8c4	-0.20578295
28	0xbdaa3b73	-0.0831212
29	0x3e5d147a	0.21589842
30	0x3d4404c0	0.047856092
31	0x3e79c32a	0.24390855
32	0xbe556217	-0.208382
33	0xbdfafeca	-0.122556284
34	0x3e0561d9	0.13025607
35	0xbe7c20bf	-0.24621867
36	0xbea2d966	-0.31806487
37	0x3e707b0c	0.23484439
38	0xbe5519db	-0.20810644
39	0x3e989dca	0.29807884
40	0x3db3eb73	0.08785143
41	0xbe4ee787	-0.20205508
42	0x3e7a58cd	0.24447937
43	0xbea7c368	-0.3276627
44	0x3e6cddb4	0.23131448
45	0xbe2b1768	-0.16708148
46	0x3ea1f26e	0.31630272
47	0xbddb4d78	-0.10708135
48	0xbe424f95	-0.1897567
49	0x3e8224b2	0.2541862
50	0xbbd39250	-0.006456651
51	0x3e33172f	0.17489313
52	0xbdf3a30b	-0.11896332
53	0xbe250b6a	-0.16117635
54	0xbdd8ed9c	-0.105921954
55	0x3e3aedca	0.18254772
56	0xbdc61569	-0.096720524
57	0xbe80408b	-0.25049242
58	0xbe3cda37	-0.18442617
59	0x3eb3011d	0.34961787
60	0xbe02b8f4	-0.12765867
61	0x3e369725	0.17831095
62	0xbe87f829	-0.2655652
63	0xbe8011cf	-0.25013587

linear_stack.9.bias f4 [8]
0	0x3de6b72b	0.11265405
1	0x3d565a62	0.05233229
2	0xbded3ba0	-0.11583638
3	0x3dd89473	0.105751894
4	0xbea405b5	-0.32035604
5	0xbd153c2a	-0.03643433
6	0x3de776a8	0.11301929
7	0x3e88df15	0.26732698

linear_stack.12.weight f4 [2, 8]
0	0xbe1bfad9	-0.1523241
1	0xbe461fcb	-0.19348066
2	0x3edc3f2f	0.43016955
3	0xbe9501af	-0.29102847
4	0x3d58c1ff	0.052919384
5	0x3ed23bc0	0.4106121
6	0xbe328f02	-0.17437366
7	0xbde2318a	-0.11044605
8	0x3e227861	0.15866233
9	0x3d2724b4	0.040806487
10	0xbd3827e4	-0.044959918
11	0xbd169984	-0.036767498
12	0x3db0be22	0.08630015
13	0xbde4b0cf	-0.11166536
14	0x3e4f4778	0.20242107
15	0x3dba7685	0.09104637

linear_stack.12.bias f4 [2]
0	0xbdf2cef1	-0.11855877
1	0xbe317b95	-0.17332299
